policy.pth (torch, 39732 bytes, 8 tensors)

0.module.0.weight f4 [64, 11]
00000000: 41cf 893e b27a acbe a051 d53e 7a82 d8bd
00000010: 107c 42be f081 febd 39fb 5e3e 446f be3e
00000020: 3ac8 863e 41dd ee3d aaef 78bd 3797 e1bd
00000030: c34d 38bd 6fb8 bbbe b94e 923e be90 26be
00000040: ef46 083e a067 26bd f1e9 36be cba0 6fbe
00000050: 9dc5 e1bc 56be 2abe 6a3f 873e 453b c2be
00000060: 24ea 3d3e fd6a 3bbe f63a 473d 1b7c 0fbe
00000070: fc05 913c fac2 643e 4e93 803e ad35 4c3e
00000080: e7a1 923e a2a0 11be eb60 803e 66bc 16be
00000090: 9561 a2bd 793f 73bb 399c 8dbe 001d a83e
000000a0: ca39 1bbd e0a4 95be dd4b 4fbe a4f8 693e
000000b0: 326a 7a3c 5cba 62be bded d63e c0c3 413e
000000c0: 886b c43b 7b7a e93d 9f19 24be 5167 6f3e
000000d0: 9f8b 303e 2984 4b3e 1c9d 44be e9ac 6c3e
000000e0: 4e01 e73d 42a6 80be 4154 59be e767 433e
000000f0: 8b3c 00bd 3a07 26be 39d9 4d3d 645e a03d
00000100: 4b60 55be 3db9 83bd 49bd b73e 9d69 963b
00000110: ee8a 16be 4c48 6d3e 4ca2 d33d 80cd c43e
00000120: b454 433e f0cd 4dbe bf74 c0bd 6f87 55be
00000130: c6d2 eebd cfe1 463e 29ca c13d a381 62bd
00000140: 6b7a 193e 5b24 173e e29f c53d fcb0 3dbe
00000150: 769f 9f3e 527c e73d d41c 3c3d bb2f 81be
00000160: a0f0 1d3e 6ef3 acbd 33b2 3c3d a3f1 543e
00000170: 5138 0ebe b695 543e ff7a fb3d 572d 5cbe
00000180: ebb9 83be 27ec 57be c662 4c3c 220f 843e
00000190: f944 e4bd d684 8b3e dcb2 3c3e 449f 56be
000001a0: e11f 8bbe 47f1 5ebe 2eb7 1abe 8fc9 10be
000001b0: 3d00 1a3e 8711 f8bc b938 223e ef43 80be
000001c0: a2b3 b9bd 4f48 7abc 82a7 a1be db82 a53e
000001d0: 6c64 a7be cd38 3d3e 1ff4 17be ff61 713d
000001e0: 51a7 0dbe 5e5c e33d ed17 c03d f305 a23e
000001f0: 95c4 d53d 4fa3 243e 0375 cdbd c315 293e
00000200: 5a14 2d3d 94cb 02bd ea21 24be 1c60 703e
00000210: dbe1 81be 053d f63c c6b9 d3be ab37 17bc
00000220: 456b b9be e4b5 e63d 718f 33bd 3b8d b2be
00000230: 44e1 afbe 411b 20be db90 20bd 1600 913e
00000240: 696e d23e fdf1 a5bd 8277 2fbe 7ffb dbbd
00000250: 7819 593e f142 7d3e 5699 023e ebe4 b5bd
00000260: e363 8abc 6462 90be fab1 20be 0b8e 983e
00000270: 590a 61be e122 ab3e 3b0a 3ebe 8b2b b2be
00000280: 9cc3 393e 2da1 93bd df85 30be 6c48 75be
00000290: 8473 4c3e 6aea 483e cd15 82be be54 b3bd
000002a0: 3135 3dbe ac6c 80be 9b4f a13d 725d d23c
000002b0: e39f 3bbe 8d59 21be b621 973d d843 5d3e
000002c0: e4e2 b63e 00ee 7ebe 7073 2d3e 6870 d1bc
000002d0: 31bf 53be cee2 293d b420 71be 2f25 cc3d
000002e0: 174b 35be 28d2 163e b8aa 083e e2e9 efbd
000002f0: beeb 613e 8234 70bc 4725 94be 2299 0c3e
00000300: fa33 97be 6fd4 e3bd 3832 403d f9f0 653e
00000310: b93f 813e 8757 1abe fbee 0f3e fee5 9c3e
00000320: 29d9 c33e 797d 453d a75c 4d3e de4b 103e
00000330: 1016 c43e a191 423d 6b57 05be f8cd 1c3e
00000340: 573e 873e 6bcc 7d3c 2f81 68be 437a 68be
00000350: 8c62 3abe d018 8d3e f4fd 823e 54d4 97be
00000360: 1796 ad3c a06c 333e 1515 59be 41f5 70be
00000370: ffa2 183e b626 943e 10ea e0bd 2d58 7a3e
00000380: c77e 373e 823c 973e 437f 613e 22cf 3c3e
00000390: 8962 923e 5999 f4bc ef03 75bd 01e9 70bc
000003a0: 23b7 c03e 0114 b0bd ab7a 01be 2329 d63c
000003b0: 6d66 ee3d 0cb3 06be 1516 853d bd00 29be
000003c0: 659e dfbd 859e 94be 5256 4ebd 2fa5 bb3e
000003d0: d512 083d 420a 113e 6a4e a63e 2f2c 34be
000003e0: 70bd 07be 0022 cfbb 869c 8dbd 3c39 2dbe
000003f0: 9366 54be d18b c5bd 4b54 bcbd 892c b83e
0.26915935 -0.3368736 0.41663837 -0.105717614 -0.18992639 -0.12427127 0.21775521 0.37194264
0.26324636 0.116632946 -0.060775436 -0.1101517 -0.044996034 -0.3666415 0.28575686 -0.16266152
0.13308309 -0.04062617 -0.17862679 -0.23401181 -0.02756005 -0.1667417 0.2641557 -0.37935844
0.18546349 -0.18302532 0.048640214 -0.14012186 0.017703049 0.22340003 0.25112385 0.1994235
0.28639147 -0.14221433 0.25073943 -0.14720306 -0.079287685 -0.003711669 -0.2765825 0.32834625
-0.03789691 -0.29227352 -0.20243783 0.22848755 0.015284108 -0.22141403 0.41978255 0.18922329
0.005994264 0.114003144 -0.16025399 0.23379256 0.17240761 0.19874634 -0.19200557 0.23112835
0.11279546 -0.25126845 -0.21223547 0.19082604 -0.03130774 -0.16213694 0.050255988 0.078305036
-0.20837514 -0.06431816 0.358866 0.004590227 -0.14701435 0.2317211 0.1033369 0.38438034
0.1907528 -0.2009809 -0.093972676 -0.20852445 -0.116612956 0.19422077 0.09462387 -0.055299412
0.14988105 0.14759962 0.09649636 -0.18524545 0.31176347 0.11303009 0.04592593 -0.25231728
0.15423822 -0.08444868 0.04606838 0.20795302 -0.1388867 0.20760235 0.12279319 -0.21501671
-0.25727782 -0.21086179 0.012474721 0.25792795 -0.11145968 0.27249783 0.18427604 -0.20959193
-0.2717276 -0.21771728 -0.1510894 -0.14139389 0.15039153 -0.030281795 0.1584195 -0.2505183
-0.09067465 -0.015276029 -0.3157311 0.32326397 -0.32693803 0.18478699 -0.14839219 0.058931347
-0.13833357 0.11101602 0.093795635 0.31645164 0.10437886 0.16077922 -0.10032084 0.16512208
0.042255737 -0.03193243 -0.16028562 0.23474163 -0.25367627 0.030058393 -0.4135267 -0.009229581
-0.36214653 0.11265162 -0.04383797 -0.34873375 -0.34351552 -0.15635397 -0.039200645 0.28320378
0.4109986 -0.08102796 -0.17135432 -0.107413284 0.21201122 0.24732567 0.12753806 -0.08881553
-0.016893333 -0.28200066 -0.15692893 0.2979587 -0.21976604 0.33425048 -0.1855859 -0.34798846
0.18141025 -0.07208476 -0.17238568 -0.23953408 0.1996594 0.19620672 -0.25407258 -0.08756398
-0.18477322 -0.2508291 0.07876512 0.025679324 -0.1832271 -0.15756817 0.07379477 0.21607912
0.3571998 -0.24895477 0.16938567 -0.025566295 -0.20678402 0.041476063 -0.23547632 0.0996803
-0.17704426 0.14728606 0.13346374 -0.117145315 0.22062585 -0.014660956 -0.2893469 0.1373029
-0.29531842 -0.11124503 0.046922892 0.22455205 0.2524393 -0.15072452 0.14056008 0.3064422
0.38251618 0.048215363 0.20054875 0.14091441 0.38298082 0.047502164 -0.13021629 0.15312946
0.2641475 0.015490632 -0.2270553 -0.22702889 -0.18201655 0.27557993 0.25584376 -0.2965418
0.021189732 0.17521906 -0.21199448 -0.23531057 0.14905928 0.28935784 -0.10982144 0.24447699
0.17919455 0.2953835 0.22021203 0.1843839 0.285908 -0.029858278 -0.059818204 -0.01470399
0.37639722 -0.085975654 -0.1264445 0.026142662 0.1164063 -0.13154238 0.064983524 -0.16504188
-0.10918883 -0.2902719 -0.05037529 0.36649463 0.033221085 0.1416407 0.324817 -0.1759498
-0.13255858 -0.006321192 -0.0691462 -0.16916364 -0.20742254 -0.096458085 -0.09195765 0.35971478

0.module.0.bias f4 [64]
00000000: 2a18 e73d fd16 c3bd ef4c 16be 1fad 9d3e
00000010: 172a d53c f2b9 343e bbd5 743e 4017 a0be
00000020: 5d18 41be 5914 e63d 1b25 94bd 8771 8b3e
00000030: f266 acbe e6f0 4fbd 4e9d 303e 7367 13be
00000040: d755 7e3e 585d 05be 976f 853e ad3a 89be
00000050: d857 87be 9fc1 05bd f6ae ad3e c95f d5bc
00000060: 0167 4c3d 5b4f 7ebd abf3 ea3c 776e 76be
00000070: c445 5d3d 6168 523e 7f06 45be 7489 63be
00000080: 6efe 85be be3c 763e 2aec 6bbd 35a1 f7bd
00000090: 5ce1 95be ec3c 6b3e 9aa1 80be aea7 49be
000000a0: f9b2 993e ea13 273e 46a7 35be 5d29 e83c
000000b0: b65f 763e d10c 313e dbe9 60be 6265 9cbe
000000c0: 6109 2cbe 8e71 8cbe 5881 83be f1c4 e9bc
000000d0: e9f5 6cbd 2d20 68be bf05 5dbe 93a7 29be
000000e0: 6106 8fbc a429 623e 750f 16be ae2b e03d
000000f0: e233 0e3d ee0a 27be 67e6 8d3e eacb a13d
0.11283906 -0.09525869 -0.14677785 0.30796143 0.026021047 0.17649058 0.23909657 -0.31267738
-0.1885695 0.1123435 -0.0723364 0.27235052 -0.3367229 -0.050766848 0.17247507 -0.14394931
0.24837433 -0.13023889 0.260617 -0.2680258 -0.26434207 -0.032655355 0.33922547 -0.02604665
0.04990292 -0.062087398 0.028680643 -0.24065576 0.05402161 0.2054763 -0.1924076 -0.22220403
-0.26170677 0.24046609 -0.05759827 -0.12091295 -0.29273498 0.22972459 -0.25123292 -0.19692871
0.30019358 0.1631619 -0.17739591 0.028340036 0.24059948 0.17290045 -0.21964209 -0.305461
-0.16800453 -0.27430385 -0.2568462 -0.028536292 -0.057851706 -0.22668524 -0.21584223 -0.1656783
-0.017459096 0.22086197 -0.14654334 0.10945831 0.034717448 -0.16312763 0.27714846 0.07900222

0.module.2.weight f4 [64, 64]
00000000: e0eb 08bc 348a 463d 77ad 043e e3fc 593d
00000010: 2057 c4bd 234e 083c 9c75 4fbd a82c 0cbc
00000020: 09c2 603d 1b02 8c3c 3466 d03c e330 cfbd
00000030: 4c4f cb3d 6238 fe3c 52dc 283d 9f73 e93c
00000040: a843 f2bc b226 a63d 8cf9 17bd c705 87bd
00000050: 2a71 e2bd 284f b23d e8c2 15be 7acf 2e3d
00000060: 6234 0cbd 89ff 813d 0054 7b3d 4001 8d3d
00000070: 12a2 263d 2fb8 a73d 52ee a83b f926 4a3c
00000080: 1276 97bd 2123 263d 2c64 fd3d 8686 c4bd
00000090: 306b 99bd 200c 5f3d 821c 19bc 220b 333d
000000a0: f86e 8bbd 8b9a ee3c 68d7 43bd 2e3d 59bd
000000b0: 1846 b1bb cc83 f73d ffa5 8c3d 511d ecbd
000000c0: 92f6 bc3d ee6e be3d 1415 dfbd bbd9 90bd
000000d0: a0d8 19be e819 bfbb 4bc0 2d3d 6795 b7bd
000000e0: 6f88 063e e0e3 083d 7021 0d3e d784 ad3d
000000f0: cebb 133e a56d 803c 446b b43c d69d f3bd
00000100: ba08 893d 501a 95bd eeff 663d 077a 91bd
00000110: 8486 423d 86fc 06be 32de 013e 5f61 473d
00000120: de56 313d d0b6 4dbd 53c7 223d 9a12 c4bd
00000130: 4c75 14be 5af6 36bd 1183 8b3d 0d50 833d
00000140: 121f c4bd 6a3a d9bd db85 053e e4c7 ad3d
00000150: eb4a 94bd 5df4 f5bb 291a 953d 6bf8 123e
00000160: 10fc 3bbd ee9d a6bb c0d3 d63d c09b dc3c
00000170: 36b8 04be 344d 043d 59e6 1bbd 364c 0ebd
00000180: 32b1 a0bd fc2c fe3c 46dd 22bd 1577 693c
00000190: ec25 e13b 03bd 80bd 5208 2dbd e443 043e
000001a0: 1c20 abbd 4305 8a3d c02e 2e3d 21ad 5b3b
000001b0: 1bb7 f2bc 34b7 c93d 5ae7 7f3d 789e ccbd
000001c0: d535 b8bd 0216 45bd 179e f4bd d3f5 fdbc
000001d0: 9118 42bd 79a7 acbd e426 8f3d ccb1 03be
000001e0: c019 76bc 5003 cebd e9f9 b83d 1ace 38bd
000001f0: 392a fc3d a4f3 f03d 550a cebd eb25 81bd
00000200: 6d8d 2b3e a22d 0fbe f0cd 963a e2e4 af3d
00000210: 628e 133e 1dc6 a9bd 8b8e e93c 6229 703d
00000220: 5e2a 20bd c899 d5bd 2dd9 82bd 005c c0bd
00000230: 4d06 2ebe 56d0 8ebb 592c a8bd f5ba cabd
00000240: 9405 943d 32a0 13bd 0032 7f3d 53b5 1abd
00000250: fb53 253d e1d7 2c3d d031 06be 8262 0e3e
00000260: b010 bf3d 7fda bd3d 3bd0 873c a506 313c
00000270: 1212 083c 6bda 8bbd d8c8 b0bd 9962 1b3c
00000280: 22b9 febc 4c5a c53d 0004 043d f529 eabb
00000290: ba3a 62bd 9825 b23d 7622 023d ea2a 0dbd
000002a0: 8ab5 f93d 256f 8a3c 5bb2 b9bd aad9 6abd
000002b0: de5b ab3d a460 733d 4b0e 2b3e 8e48 edbd
000002c0: 6976 c93d e441 aebd 6f4b 83bd bbdc c83d
000002d0: 5c88 17be 5e14 b2ba 5a44 123e 9ac4 01bd
000002e0: b5e8 f03d 354e 103e 7d4d f3bd f663 c83d
000002f0: 97e4 e0bd 0b86 f63d d515 1dbe f78a e53d
00000300: c30a cd3c d316 89bd a895 fabb 1065 e43d
00000310: 6998 dc3d 598f 713c 8d5b 143c eeb2 18bd
00000320: 3e0e 143c b709 8abc ce63 b9bd 4e51 a1bb
00000330: 5154 473c c7b7 14bd 3dcb 073e 1a02 64bc
00000340: 8325 c4bd 8b26 09bd 0a59 5d3d a9a8 b4bd
00000350: 0530 8cbd 21bd e6bd d7e1 fd3d 3d5e dbbc
00000360: 3d68 c43d cdfb 7f3d eb37 c3bc 88c2 2b3b
00000370: 85eb a2bd 2528 a73c c4d7 36bd 035a ed3c
00000380: 0f34 6b3d b401 7c3d dc63 963d 9b88 823d
00000390: a223 be3d 85cb 023e 3308 ed3c a780 d53d
000003a0: 02b6 8fbd 8fa5 873d 8f16 ba3c c9ed 6dbd
000003b0: 089c 943d 39a2 a0bd 374b 45bd bd24 c7bd
000003c0: 9589 053b edb8 a43c 2bcc 933d a1c8 6c3d
000003d0: 3ebe 01bd beba 76bd 6090 be3d d39f 343d
000003e0: ea50 aebd 707c a3bd 1434 b63d 364a f63d
000003f0: b971 c93d 6e2d fcbd e9e8 9ebd 7d8e c13d
-0.008357018 0.048471645 0.12956797 0.053219687 -0.0958693 0.0083194105 -0.05064927 -0.008555569
0.054872546 0.017090848 0.02543936 -0.10116746 0.09927234 0.031032745 0.04122574 0.028497515
-0.029573277 0.08112849 -0.03710322 -0.06592899 -0.110567406 0.08706504 -0.14625132 0.042678334
-0.034229644 0.063475676 0.061359406 0.06885004 0.040681906 0.08189427 0.005155363 0.012338393
-0.07395567 0.040560845 0.12372622 -0.09595971 -0.074911475 0.054454923 -0.009345176 0.04371179
-0.06808275 0.029126426 -0.04781285 -0.05303686 -0.005409967 0.12085685 0.06867599 -0.11529029
0.09226717 0.09298502 -0.10892692 -0.07072779 -0.15024042 -0.0058319457 0.042419713 -0.08964043
0.13137983 0.033420444 0.13782287 0.08472603 0.1442711 0.015677283 0.022023804 -0.11895339
0.066911176 -0.07280409 0.056396417 -0.07103353 0.047491565 -0.13182268 0.12682417 0.048676845
0.043295734 -0.05022317 0.03974087 -0.095738605 -0.1449787 -0.044668533 0.06812108 0.06411753
-0.09576239 -0.10606845 0.13039343 0.08485392 -0.07240852 -0.007505937 0.0728038 0.14352576
-0.045894682 -0.0050847447 0.10489607 0.026929736 -0.12960896 0.03230019 -0.038061474 -0.03474065
-0.07846297 0.03102731 -0.039761804 0.014249583 0.0068709757 -0.06286051 -0.042244263 0.12916523
-0.08355734 0.06739285 0.042525053 0.003351994 -0.029628327 0.09849396 0.062476493 -0.09991163
-0.08994643 -0.04811669 -0.11944216 -0.031001007 -0.04738671 -0.084303804 0.0698984 -0.12860793
-0.015020788 -0.100592256 0.090320416 -0.04511843 0.12312741 0.11765221 -0.100605644 -0.063060604
0.16753168 -0.13982251 0.0011505466 0.08588578 0.14409783 -0.0828974 0.028510353 0.058633216
-0.039102904 -0.10429722 -0.06389079 -0.093925476 -0.16994591 -0.0043583317 -0.08211584 -0.098989405
0.072276264 -0.036041446 0.062303543 -0.03777058 0.040363293 0.042198066 -0.1310494 0.13904765
0.09329355 0.092701904 0.016578784 0.010804807 0.00830509 -0.06828769 -0.08632058 0.009483957
-0.031094138 0.096363634 0.032230377 -0.007146115 -0.055231787 0.08698577 0.031771146 -0.034464754
0.12192829 0.016898701 -0.09067222 -0.057336487 0.08367132 0.059418336 0.16704671 -0.11586104
0.09837038 -0.085086614 -0.06410872 0.09807726 -0.1479811 -0.0013586392 0.14283887 -0.031681634
0.11763135 0.14092334 -0.11880014 0.09784691 -0.109811 0.120372854 -0.1534036 0.11208146
0.025029546 -0.066938065 -0.007647235 0.11152089 0.107712574 0.014743649 0.0090550305 -0.037280016
0.009036599 -0.016850336 -0.09052239 -0.0049230224 0.012166099 -0.036308076 0.13261123 -0.013916517
-0.09577467 -0.033484023 0.054039992 -0.08821232 -0.068450965 -0.11266542 0.12396591 -0.026778335
0.095901944 0.062495995 -0.023830375 0.002620848 -0.07955078 0.020404885 -0.044639364 0.028973585
0.057422694 0.06152506 0.073432654 0.06373712 0.0928414 0.12772949 0.028934574 0.10424929
-0.07017137 0.06623375 0.022715835 -0.058088098 0.07256323 -0.078434415 -0.048167434 -0.09723804
0.0020376195 0.02010771 0.07216676 0.057808522 -0.03167557 -0.060236685 0.09304881 0.044097733
-0.08511527 -0.07982719 0.08896652 0.12025873 0.09836144 -0.123133525 -0.07759268 0.094510056

0.module.2.bias f4 [64]
00000000: d47f 963d 9cd8 d3bd 4ea4 853d 732d fc3c
00000010: 2c3f 613c 4a52 15bd b0ca 0abe e43f d43c
00000020: 8bd5 2c3b ce91 1bbb 83b1 a33d 6da7 de3c
00000030: d2e1 1cbd 7d81 e0bd 9008 3cbd 0585 58bd
00000040: 2e78 81bc e9ab bbbd a1b2 d13d cb11 82bd
00000050: a9ef 88bd 9011 41bd b8d8 873d cd51 b3bd
00000060: cfae 21bc 48bb 063e ae19 d33d 3ffd ad3d
00000070: 9d63 af3c 7254 e03d fad0 e73b 05cc 993c
00000080: ca42 073d 54c2 5e3b cfd9 213e 92fb 003e
00000090: fe94 653d bf45 bc3c 47d2 833d 7271 aabd
000000a0: 690e 94bb 787c b6bd 3cd9 89bd 61f9 4cbd
000000b0: 536c d2bd 6aff 0f3e c4a1 243e 6e5f 1f3d
000000c0: 9af2 7a3d f057 0c3e f146 23bd 8557 fc3c
000000d0: bb11 a1bd e83c 1f3e 4996 833c 6a9a b83c
000000e0: 769b ecbd 4e6b 8e3c efdc 9e39 c036 39be
000000f0: 1c1b 1fbd f0a4 293d 86df e43c efd4 073e
0.073486 -0.10344049 0.06525479 0.03078339 0.0137479715 -0.03645543 -0.13553882 0.025909372
0.0026372399 -0.002373803 0.07992842 0.027179444 -0.038301297 -0.10962198 -0.045906603 -0.052861232
-0.015804376 -0.09163649 0.10239149 -0.0635105 -0.066863365 -0.04713589 0.06633133 -0.08755837
-0.009868338 0.1315738 0.103076324 0.084955685 0.021409804 0.10953607 0.0070744725 0.018774042
0.03302268 0.003399034 0.15805744 0.12595966 0.056050293 0.022982476 0.064365916 -0.08322419
-0.0045183194 -0.08910459 -0.06730887 -0.050042514 -0.102745675 0.14062276 0.16077334 0.03890937
0.06126652 0.1370542 -0.039862577 0.030803451 -0.0786471 0.15550578 0.016062872 0.022534568
-0.11553089 0.017385151 0.00030300717 -0.18087292 -0.038844213 0.041417062 0.027938616 0.13264821

0.module.4.weight f4 [64, 64]
00000000: 424e ce3d 3905 a1bd 470e b03d 4be9 a33d
00000010: c238 fb3d f263 753d 2855 ccbd 9820 2e3c
00000020: a7f7 913d 9882 813d 0854 a9bd 9433 d9bb
00000030: a1d9 30ba 6e44 0b3d 9b99 c5bc c112 8e3d
00000040: dc2e cebc 15ee f73d 2c5c a23c ae16 f73c
00000050: 789e e33d 275b 6bbc 30b4 543d ae39 963d
00000060: e016 c03d e77b a9bd 0b34 c63c 6c6e b23d
00000070: 740b 98bd 5666 b03d 3d62 a9bd 58ed 83bd
00000080: cbf2 0dbd e64e 3d3d c515 56bd b76a e13d
00000090: 895f b7bc 4e16 013e fe5b a4bd 482d 923c
000000a0: aca9 8fbd 5ca2 91bd 06bb b2bd be3d 3cbc
000000b0: 4622 9e3d 8d09 a23d c672 bc3d 6b86 c73d
000000c0: 1b7d ea3c 3538 d03b ab5a a3bd a53c 943b
000000d0: 218e b4bd 2071 ddba 806d 593d fcb5 fcbd
000000e0: b5d5 41bd 8370 8fbd 353d 83bd c39a 203e
000000f0: aa5e 3f3c 59b7 94bd 6adf 8cbc 86dd 7abd
00000100: b5a5 0fbe d4d1 cb39 2bd6 dc3d b6eb c03b
00000110: f603 a23d 8103 5d3d b5f5 0abe 18d4 39bd
00000120: d971 113e 8f5d b9bd 9934 7dbd 8150 e53d
00000130: 8b95 1b3d 0985 ddbc 9c7a ee3d 03ae 013d
00000140: 3c84 a43d c9f0 eabd 016d 0a3e 61bd 02bd
00000150: d164 233d 4c92 c13d c467 c6bd 3ada d0bd
00000160: 9ff1 2c3d e6a1 fabc e6c7 1b3e 9e1d 143e
00000170: 28eb d13c 6acb 383e d86b 173e f1d3 7e3d
00000180: b40d 57bc c75a dbbb 11d8 efbc a75f 933d
00000190: 2f9e a1bd 9499 103d b31f 343d 3c8a f4bd
000001a0: 0f11 20bb 6736 e2bd e4f3 77bd 59db debd
000001b0: 0754 d1bc 470e abbd 7149 a13d 7621 623d
000001c0: 3e23 923d 8796 de3d 3c90 993a 3506 edbc
000001d0: f274 b13d d659 3d3e 2164 0abe 0dd0 9eba
000001e0: d8e3 813b 716c 61bd 1329 883c fe9c c0bd
000001f0: 200a b6bc 53e8 ff3c a5e4 1cbd be16 3b3d
00000200: f3e7 37bc 5b4a 21bc cb35 83bd defd 90bd
00000210: 5c36 06be b04c 2e3e 563e 313e 3a65 fcbc
00000220: 12e5 783c 32c4 bc3c f9e9 68bc 0b00 223c
00000230: df12 973d 75d5 bbbd 83bd 31bd ccdf 9dbd
00000240: ab29 10be 34f7 c63d b244 08bd ac97 023e
00000250: 82a2 4cbc dae7 2abd c1e9 003b c304 523d
00000260: f8ff 00bd dc88 b9bd 7dec f6bc 2181 f83d
00000270: 7db8 dd3d 583d 19be 01b3 1cbd 38da 103d
00000280: f98f 92bc f5fc e53d 676a e1bd 1e3c ce3d
00000290: 8aa1 b53d 7c11 26be f816 ebbc eb2c 8b3c
000002a0: 9fd9 bd3d 103c c9bd 82b6 9e3d 6b02 f9bd
000002b0: 687b e8ba e2ac 823d de86 663d ca7d cb3d
000002c0: a3df 88bd 857a 4cbc 00e8 5e3d c025 83bb
000002d0: 525c 6e3d ba2c 85bd ccd4 003c 9404 91bd
000002e0: a438 0f3e d6b6 283e 6b36 30bc e43b d0bc
000002f0: 959d db3d 6b3d 88bd 993f 7abd a7b9 b63d
00000300: f12e 673d 1f93 113d 0558 15bd 2fe6 05bd
00000310: 5c2a 423d 2275 48bd 9dd1 18bc 7b43 82bd
00000320: 1726 77bd 91b9 e4bd 4efb 9cbd 0858 273d
00000330: fd15 4cbd 64fb f33d 5ff0 393d ae31 4bbd
00000340: fe9b f13d cdca 023e 2a78 dd3d 3001 44bd
00000350: e3c5 1bbc ebc8 08be 3ce5 113d f55b 893d
00000360: a3c3 9b3d 49c7 0ebe 5751 b03d 1386 913d
00000370: 904f 613c 05f3 30bd dd96 cc3d cd99 c13d
00000380: 788f c8bd 0165 a03c 6f12 98bc 791c 6a3d
00000390: 504f abbd a785 47bd cc1a 7fbd 9e41 9cbd
000003a0: 45a3 a43c c886 d53d b921 e9b9 76d0 4fbd
000003b0: 7bf0 ed3c 5c95 0fbc 643f 50bd 48a4 c5bc
000003c0: e690 853c 139d 923d 2b2b 2abd 85d1 e7bd
000003d0: d388 a8bd 2912 803d 08ee 4fbc c1e3 a43d
000003e0: d3db 35bd 70f8 b33d 0df1 4dbd 3b28 7e3d
000003f0: 47d5 9e3c 3b7a ecbc 08d2 653c c41b b6bc
0.1007352 -0.07862324 0.08596473 0.080034815 0.12266685 0.05990977 -0.0997718 0.010627888
0.07127314 0.06323737 -0.08267981 -0.006628463 -0.00067462964 0.034000807 -0.024121096 0.06937171
-0.025168829 0.121059574 0.019819342 0.030162182 0.1111421 -0.014364994 0.051929653 0.0733522
0.09379363 -0.082755856 0.024194738 0.087124676 -0.074240595 0.08613269 -0.082706906 -0.06441754
-0.034655374 0.04621782 -0.052266855 0.11006682 -0.022384422 0.12606165 -0.080253586 0.017843857
-0.07014784 -0.07111046 -0.08727078 -0.01148933 0.07721381 0.07911978 0.09201579 0.09742435
0.028624108 0.0063543567 -0.07976278 0.004523831 -0.088161714 -0.0016894676 0.053082943 -0.12339398
-0.047322948 -0.07003882 -0.06408159 0.15684037 0.0116802845 -0.07261533 -0.017196376 -0.061246417
-0.14028056 0.0003887551 0.10783037 0.005887474 0.07910912 0.05395842 -0.13570292 -0.045368284
0.14203586 -0.09051048 -0.06181774 0.111969955 0.037984412 -0.027040975 0.1164448 0.03166009
0.08033034 -0.114717074 0.13518144 -0.031918887 0.039891068 0.09451732 -0.096877605 -0.101978734
0.042222615 -0.030594777 0.15212974 0.14464423 0.025624827 0.18046346 0.14787233 0.06221384
-0.013125826 -0.006694171 -0.029277833 0.071959786 -0.07891499 0.035302714 0.043975543 -0.119404286
-0.002442423 -0.11045533 -0.060535327 -0.10881681 -0.025552763 -0.083523326 0.07875336 0.055207692
0.07135628 0.108685546 0.0011715959 -0.028933624 0.08664884 0.18491301 -0.13514759 -0.0012116447
0.0039639287 -0.05503506 0.016621148 -0.09404944 -0.022221625 0.03123871 -0.03830399 0.045675986
-0.011224735 -0.009844388 -0.064067446 -0.07079671 -0.13106674 0.17021441 0.17308936 -0.030809987
0.015191333 0.023042772 -0.01421594 0.009887706 0.07376646 -0.09171573 -0.043393623 -0.077087015
-0.14078395 0.09715119 -0.033268638 0.1275317 -0.012489917 -0.041725017 0.0019670578 0.051274072
-0.03149411 -0.09059307 -0.030142063 0.121340044 0.10826204 -0.14964807 -0.03825665 0.03536436
-0.017890917 0.11229888 -0.11006623 0.1007006 0.08868702 -0.16217607 -0.028697476 0.016989192
0.092700236 -0.09825909 0.07749654 -0.12158664 -0.0017736973 0.06380631 0.056280963 0.09936102
-0.0668328 -0.012480383 0.05442047 -0.004002303 0.058193512 -0.065026715 0.007863235 -0.07080951
0.1398645 0.16475996 -0.010755162 -0.025419183 0.10723416 -0.066523395 -0.061095808 0.08922129
0.05644125 0.035540696 -0.036460895 -0.032690223 0.04740368 -0.04893983 -0.009327319 -0.06360527
-0.06033906 -0.111682065 -0.0766512 0.040855438 -0.049825657 0.11913183 0.04539525 -0.049607925
0.11797331 0.12772675 0.10813935 -0.047852695 -0.009507629 -0.13357894 0.035619006 0.067069925
0.07605674 -0.13943209 0.08609264 0.07105651 0.013751879 -0.04320051 0.099897124 0.09453163
-0.097929895 0.019579412 -0.018563477 0.05715606 -0.08364737 -0.048711445 -0.062281415 -0.07629703
0.020097384 0.10426098 -0.00044466348 -0.050735913 0.029045334 -0.008763637 -0.050841704 -0.024126187
0.016304445 0.07158866 -0.041545074 -0.113192596 -0.08229222 0.06253464 -0.012691028 0.08051253
-0.044399094 0.0878762 -0.050278712 0.062050086 0.019388808 -0.028866878 0.014027126 -0.022230037

0.module.4.bias f4 [64]
00000000: 8204 c9bc 5376 0b3d 31d1 a53d a701 a73c
00000010: 4822 eabd 9875 9d3d c6da 40bd 6f4a 003d
00000020: 3dcb 123e 5330 e4bc 4af3 79bb 1252 303e
00000030: abab 713d b911 80bd 6194 dd3d 3ec2 f5b9
00000040: 307e c7bc 06d0 f9bd 53f7 acbd ec95 d03d
00000050: ae0e 68bc e58a 893d 44fd ec3d 9d0b 52bd
00000060: 4504 2abe 99db cd3d 0e7c 1ebe 2490 e3bd
00000070: 082c 3a3c 272a 243d 80fa fc3d 3af8 1dbe
00000080: 82bc b93d da7a d5bd 2cca 063e 051a b33d
00000090: 192d 04bd ea6d 76bd 35d7 993d c091 41be
000000a0: 5128 623d 55a1 12b7 59ee 223e 56d4 293d
000000b0: da0c 393e e7fa fd3d 5a08 0f3e f91a 13be
000000c0: 6685 4dbd 4474 74bd dfc5 3fbd b70a bcbd
000000d0: 749c bfbd 4cf9 143e 5cac 2f3e fc25 61bd
000000e0: 7585 7b3a 2469 f63c c1f6 933d f84f b1bd
000000f0: 876e 0e3d 3453 603c 14eb de3a a710 2d3c
-0.024538282 0.03404839 0.08096541 0.02038653 -0.1143232 0.07688445 -0.04708364 0.031320985
0.14335342 -0.027855074 -0.0038139396 0.17218807 0.059001606 -0.0625338 0.10819317 -0.00046874763
-0.024352163 -0.121978804 -0.08445611 0.10184845 -0.014163656 0.06715945 0.11571744 -0.051280607
-0.16603191 0.100516506 -0.1547701 -0.11111477 0.011363037 0.040079262 0.123524666 -0.15426722
0.09069158 -0.10423823 0.1316306 0.08745197 -0.03226957 -0.060163416 0.075117506 -0.18903255
0.05521423 -8.739841e-06 0.15911235 0.041462265 0.18071309 0.124013714 0.1396803 -0.14365758
-0.050176047 -0.059681192 -0.046819564 -0.09181731 -0.09356013 0.14548224 0.17155594 -0.054967865
0.0009594777 0.030079432 0.07224799 -0.08657831 0.034773376 0.013691712 0.0017007315 0.010563052

0.module.6.weight f4 [2, 64]
00000000: d231 9abd 170a ffbc 2976 8c3d d9c5 3abd
00000010: aaea be3d 0f30 023d d9b7 213d 6c3e 9d3d
00000020: d35f 8fbd fafd f23d 09e8 f9bd 1e65 25bd
00000030: c8f5 393b 5e32 193e b51b c43d 20cf e1bd
00000040: e0e5 e03d 896f bebd 82fc dcbd 41ae 83bd
00000050: 0b9b f5bd 8ffc 27bd 2ea3 f5bd 3145 ccbd
00000060: 6b3e e6bc 747c 3abd d755 d6bc 2bf0 edbc
00000070: 98c1 4cbd 0612 913d bba7 b83d e992 933d
00000080: 1d04 34bd d3a2 cbbc 85f0 b7bd 057d 00bc
00000090: 1a8d cabd e849 d7bc 5bbd cabc 798e 97ba
000000a0: 50a2 6cba 5caf b63d 0e2d 213d 63fb dabd
000000b0: 350c f63c 4c76 8e3d caba 543d 25a7 153d
000000c0: b8ff fe3d 8269 90bd 07b8 e73d 8065 84bd
000000d0: 81a7 c23c 4e84 e73d 223e db3c 4fbc 01be
000000e0: 90ff e03d f913 0a3e c5bc 88bb 42eb b83d
000000f0: b10b bbbc 0a10 dd3d bf52 5dbd bbf0 163e
00000100: add5 9fbd 5ffd c43d 066e abbd da60 853c
00000110: c9c9 8fbe 129e 1c3e bf49 a1bd 3656 b33d
00000120: a742 543e a00d b43c b0ff f83a 1497 423e
00000130: 8cfb 0fbe ed85 f3bd fa1d 833d b096 b5bd
00000140: bad9 c4bd 9b48 4abe 0ae4 2f3e 07c5 d73d
00000150: 637c 1c3e 86f1 483e cb41 95bd bfff a83c
00000160: 2e41 57be eb4f 443e ecfa 20be da29 36be
00000170: 157c 4abd 2369 36bc 5054 433d bc34 6abe
00000180: 0b9e 3a3e 4e89 0bbe d68a fe3d b268 173e
00000190: 20bc b8bd 7167 bb3d b055 b4bd 6307 03be
000001a0: fa56 3dbc 006a 35be 98b6 5d3e 731b 59bc
000001b0: 9c5a 863e 6d31 093e 3681 393e c3bb 94be
000001c0: c679 8f3d 7212 b53c a959 153d 5995 603d
000001d0: ea7c a6bd f404 3c3e 746c 863e dc7c a03d
000001e0: c76a 4dbe 19d1 263e f788 0c3e bd83 f03d
000001f0: d990 23be a450 3abe a3c3 b1bd 3c81 20be
-0.07529034 -0.03113274 0.06858475 -0.04559884 0.09322102 0.031784113 0.03948197 0.07677922
-0.07000699 0.118648484 -0.1220246 -0.040379636 0.0028375257 0.1496062 0.09575597 -0.11025834
0.10981345 -0.092986174 -0.107903495 -0.06429721 -0.11992463 -0.041012343 -0.11994015 -0.09974135
-0.028105935 -0.045528844 -0.026163979 -0.029045185 -0.049989313 0.07083516 0.09016367 0.07205755
-0.043949235 -0.024857914 -0.08981422 -0.007842307 -0.09890194 -0.026280358 -0.024748495 -0.0011562846
-0.0009026872 0.08920166 0.039349608 -0.106924795 0.030035118 0.06956157 0.05193595 0.036536355
0.12451118 -0.07051374 0.11314397 -0.06464672 0.023761513 0.11304532 0.026763026 -0.1266949
0.10986245 0.13484181 -0.0041728937 0.09029247 -0.022832723 0.10794075 -0.05403399 0.14740269
-0.07804427 0.09618639 -0.08370595 0.016281534 -0.28083637 0.15294674 -0.07875394 0.08756678
0.20728551 0.021979153 0.0018997099 0.19002944 -0.14060801 -0.11890779 0.06402202 -0.08866632
-0.096118405 -0.1975426 0.17176834 0.10535627 0.15281825 0.19623384 -0.0728794 0.020629762
-0.21020958 0.19171111 -0.15720719 -0.17789403 -0.04943474 -0.011133465 0.04768783 -0.22871679
0.18224351 -0.13626596 0.124288246 0.14786032 -0.09020257 0.09150589 -0.08805406 -0.12795787
-0.011556381 -0.17716217 0.21651685 -0.013251173 0.26241004 0.1339776 0.18115696 -0.290495
0.07005648 0.022103522 0.03646246 0.05482993 -0.08129294 0.18361264 0.26254618 0.07836315
-0.20060264 0.16290702 0.13724123 0.11743877 -0.15973224 -0.18194824 -0.08679893 -0.15674299

0.module.6.bias f4 [2]
00000000: efea eabd ac66 8abc
-0.11470591 -0.01689466
