datas/policy.pth (torch, 151860 bytes, 8 tensors)

0.module.0.weight f4 [128, 24]
0	0x3bdc80e4	0.006729232
1	0xbd954442	-0.0728841
2	0x3d98a919	0.07454128
3	0x3cc5228d	0.024064327
4	0x3e3fd702	0.18734363
5	0xbdb42ae8	-0.08797246
6	0x3de374a9	0.111062355
7	0xbe43f903	-0.19137959
8	0x3e0eec43	0.13957314
9	0x3d5dc7ed	0.054145742
10	0x3bde7cab	0.006789764
11	0xbe809ea6	-0.2512104
12	0xbda3c8fe	-0.079973206
13	0xbe05ac60	-0.13054037
14	0x3dfb5bfc	0.12273404
15	0x3df4465d	0.11927483
16	0x3e2fe2ea	0.17176405
17	0xbde05b4b	-0.10954913
18	0x3dd735ac	0.10508284
19	0xbc29be94	-0.010360379
20	0xbe30a8bf	-0.17251872
21	0xbdd86554	-0.10566202
22	0x3e01adfa	0.12664023
23	0xbc816610	-0.015795738
24	0xbd15dd8b	-0.036588233
25	0x3ca057bd	0.019573087
26	0x3b632cef	0.0034664234
27	0xbe49706a	-0.19671789
28	0xbafa5c2c	-0.0019100956
29	0xbe166161	-0.14685585
30	0x3c851557	0.016245527
31	0xbb5134db	-0.0031922373
32	0x3c9ec360	0.019380271
33	0x3e4daa4e	0.20084497
34	0x3c0c34b2	0.008557485
35	0xbda1e0b1	-0.079041846
36	0xbe028fd0	-0.12750173
37	0x3e00bfef	0.12573217
38	0xbc834208	-0.016022697
39	0xbe4c5e76	-0.19957909
40	0x3d8c44fd	0.06849096
41	0xbe1109fe	-0.14163968
42	0xbde37d5b	-0.11107894
43	0xbde9a707	-0.11408811
44	0x3d9f4f71	0.07778824
45	0x3c8fbad2	0.017545138
46	0xbdf31a45	-0.11870245
47	0x3dc099d3	0.0940434
48	0xbe1e4ea1	-0.15459682
49	0xbca997ae	-0.02070221
50	0x3e0e39f8	0.13889301
51	0x3e8b45af	0.27201602
52	0x3e4d7d03	0.2006722
53	0xbc522916	-0.012827178
54	0x3cedd406	0.029031765
55	0x3e251a02	0.16123202
56	0x3e5dc1eb	0.21656005
57	0xbd2cd068	-0.04219094
58	0xbe16afae	-0.14715454
59	0xbdb7b8a8	-0.08970767
60	0xbd2ceffb	-0.04222105
61	0xbe0ec6f8	-0.13943088
62	0xbe0a257a	-0.13490859
63	0xbd6ed4e3	-0.058308493
64	0xbe20dace	-0.15708467
65	0x3d65707f	0.056015488
66	0x3e2005f0	0.15627265
67	0x3d03b41e	0.032154195
68	0xbdb2c625	-0.08729199
69	0xbdb68821	-0.08912683
70	0xbe04aac3	-0.12955765
71	0xbd93e409	-0.07221229
72	0xbe21c257	-0.15796791
73	0xbdfb7c25	-0.12279538
74	0x3dd39e12	0.10332884
75	0xbe4ca624	-0.19985253
76	0x3e26bfba	0.16284075
77	0x3cda88f6	0.026676636
78	0x3d9ba678	0.07600111
79	0x3cad1ca7	0.021131827
80	0x3cc06c72	0.02348921
81	0xbe308b3e	-0.17240617
82	0x3e00ec74	0.125902
83	0x3d578e53	0.052625965
84	0x3e625460	0.22102499
85	0x3d566ed4	0.052351788
86	0xbcab6a21	-0.02092463
87	0xbddf4e14	-0.10903564
88	0x3c802ae2	0.015645448
89	0xbd7f016d	-0.06225722
90	0xbe4e4be6	-0.2014614
91	0x3cee4d31	0.029089542
92	0x3e2af2a9	0.1669413
93	0x3e31ba41	0.17356206
94	0x3dc2d803	0.09513857
95	0x3dc5233e	0.096258625
96	0xbb1fec98	-0.0024402495
97	0xbd25a336	-0.040438853
98	0x3e41cee9	0.18926586
99	0xbd00cdaa	-0.031446137
100	0xbe50afe6	-0.203796
101	0x3c80d555	0.015726725
102	0xbdb1e23e	-0.086857304
103	0xbcd0b065	-0.025474736
104	0xbd3f9e59	-0.04678187
105	0x3e82a570	0.25516844
106	0xbdd09106	-0.10183911
107	0x3da02066	0.078186795
108	0x3e231cab	0.15928905
109	0xbda5e349	-0.08099992
110	0xbe2f05ce	-0.17092058
111	0x3dd90dab	0.1059831
112	0x3da6fdd5	0.08153883
113	0xbd0ca024	-0.03433241
114	0x3c9488bc	0.018131606
115	0xbd9d4e54	-0.076809555
116	0x3e170725	0.14748819
117	0x3dc97f99	0.098387904
118	0xbd72a541	-0.05923963
119	0x3db73f69	0.089476414
120	0x3e3dfa4c	0.18552512
121	0xbde3d74b	-0.11125048
122	0x3d68e3f2	0.05685801
123	0x3d757000	0.059921265
124	0xbe4db7ed	-0.20089693
125	0xbe088a60	-0.13334036
126	0xbd7ac356	-0.061221443
127	0xbd9d6d4b	-0.076868616
128	0x3e0375a6	0.12837848
129	0x3e1ed6f9	0.15511693
130	0x3e2be60e	0.16786978
131	0x3e2a3fdd	0.16625924
132	0x3c8b0f01	0.016974928
133	0x3e10bd45	0.141347
134	0xbd992a14	-0.07478729
135	0xbe3d6f11	-0.184994
136	0x3dd5a9fe	0.10432814
137	0x3dd5f98b	0.10447987
138	0x3c2a2740	0.0103853345
139	0x3d1ba18f	0.03799587
140	0x3ddd8c24	0.10817745
141	0xbd5b7675	-0.053579766
142	0x3e0d9920	0.13827944
143	0x3d5032f7	0.050829854
144	0xbd68f60d	-0.056875277
145	0x3de280e9	0.11059744
146	0xbda65412	-0.08121504
147	0x3deadbc1	0.11467696
148	0xbe0fb0fe	-0.14032361
149	0xbd38f808	-0.045158416
150	0x3e01728a	0.1264135
151	0xbd67e28f	-0.056612547
152	0x3dbe8a62	0.09303738
153	0x3c13a4ac	0.009011429
154	0x3d5c03fc	0.053714737
155	0x3e464055	0.19360478
156	0x3ce048f9	0.027378546
157	0x3c708dc7	0.01468224
158	0xbdaf042c	-0.085457176
159	0x3dbb27ba	0.091384366
160	0x3e2fc70d	0.17165776
161	0xbe3770ac	-0.17914075
162	0x3d12a657	0.035803165
163	0x3da4372a	0.08018334
164	0xbdb8731e	-0.09006332
165	0xbd8a69b4	-0.067584425
166	0x3e3a749c	0.18208545
167	0xbb7e2f12	-0.003878538
168	0xbd8aee66	-0.06783752
169	0xbe1f4459	-0.15553416
170	0x3d6b3263	0.0574211
171	0x3e6d6495	0.231829
172	0xbda6626d	-0.08124242
173	0xbdbe58a3	-0.0929425
174	0x3be8f7cb	0.0071096173
175	0x3e074d12	0.13212994
176	0xbe0ca12b	-0.13733356
177	0xbcecb836	-0.028896432
178	0x3cc3bf65	0.023894975
179	0x3d68298e	0.056680255
180	0xbd6f4f9d	-0.058425535
181	0x3d3692bd	0.044573534
182	0xbd975d07	-0.073907904
183	0x3de4d32b	0.111730896
184	0xbe271b2b	-0.16318958
185	0x3da09beb	0.07842239
186	0x3e17c0e4	0.14819676
187	0xbbb29564	-0.0054499377
188	0x3e2b2fab	0.16717403
189	0xbce2c5d2	-0.027682219
190	0x3de00e9b	0.10940286
191	0xbde22bf3	-0.11043539
192	0x3e12746f	0.14302228
193	0xbca92c3f	-0.020650981
194	0xbd9686f1	-0.07349957
195	0xbe13a975	-0.14420111
196	0xbdf44a95	-0.11928288
197	0x3c08fa38	0.008360438
198	0x3d469e43	0.048490774
199	0x3c9f5876	0.019451361
200	0x3d4182a3	0.047243726
201	0xbe33fee0	-0.17577696
202	0x3ddae1e0	0.106876135
203	0x3d220760	0.039557815
204	0xbba9b1a6	-0.005178648
205	0xbe44528a	-0.19172111
206	0x3dff263f	0.12458467
207	0xba992fc0	-0.0011687204
208	0xbdfb9095	-0.12283436
209	0x3e3ab851	0.18234374
210	0x3e27815c	0.1635794
211	0xbe50f40c	-0.20405596
212	0xbdea2d28	-0.11434394
213	0x3c9de6cd	0.019275093
214	0x3e055531	0.13020779
215	0xbe364e84	-0.17803389
216	0xbd06bf12	-0.032897063
217	0xbd486cca	-0.048931874
218	0xbd2efa12	-0.042718954
219	0x3de917b6	0.113814756
220	0x3d6b73b7	0.0574834
221	0x3dc1dda6	0.09466104
222	0x3df457ff	0.119308464
223	0xbce0580a	-0.02738573
224	0x3d54f63a	0.051992632
225	0x3dddf13e	0.10837029
226	0x3cbd44a1	0.023104014
227	0x3d8c714c	0.06857547
228	0x3d0517d0	0.032493412
229	0xbd29e7d1	-0.041480843
230	0x3e2d8e63	0.16948847
231	0xbdda0421	-0.10645319
232	0xbdee179e	-0.11625598
233	0x3e65e413	0.22450285
234	0xbcd7e5bc	-0.026354663
235	0x3d3933b5	0.045215327
236	0xbd225a6b	-0.03963701
237	0x3e0bd4d2	0.13655403
238	0xbe18bee8	-0.14916575
239	0xbe26106a	-0.16217199
240	0xbdac0b37	-0.084005766
241	0x3e27a31d	0.16370817
242	0x3c7072fb	0.014675851
243	0x3e7bdeb7	0.24596678
244	0x3e288a25	0.16458948
245	0x3cf43dc1	0.029814603
246	0x3ddc07b6	0.10743658
247	0x3cb903b1	0.022584768
248	0xbdac2108	-0.08404738
249	0x3d37ef3e	0.044905894
250	0x3dc92300	0.09821129
251	0xbe3dd42d	-0.1853797
252	0xbd02bb84	-0.03191711
253	0x3b93d4f0	0.004511468
254	0xbd975f84	-0.07391265
255	0x3e0c0d6c	0.13676995

0.module.0.bias f4 [128]
0	0x3dda32bf	0.1065421
1	0x3d5097d4	0.050926045
2	0xbde3a440	-0.111153126
3	0xbd4c91e9	-0.04994384
4	0x3e41a264	0.18909603
5	0x3e10a35b	0.14124815
6	0xbe042e9a	-0.12908402
7	0xbde6f06d	-0.11276326
8	0x3e15fcc5	0.14647205
9	0x3b62d95d	0.0034614422
10	0xbdb4be9b	-0.088254176
11	0xbe1d95cf	-0.15389179
12	0xbe43557c	-0.19075578
13	0xbc17ab0a	-0.0092570875
14	0xbced8ddd	-0.02899831
15	0x3dd11618	0.10209292
16	0xbdf5381b	-0.11973592
17	0xbe44cd84	-0.19219023
18	0x3dda1dd7	0.10650223
19	0xbce743da	-0.028230596
20	0xbe3b14bc	-0.18269628
21	0xbe0d380e	-0.13790914
22	0xbd011343	-0.03151251
23	0xbd835d05	-0.064142264
24	0x3dba3ba1	0.090934046
25	0x3e2167b3	0.15762214
26	0xbc9a534a	-0.018838543
27	0x3e21f007	0.1581422
28	0xbe48532e	-0.1956298
29	0xbe415213	-0.18878965
30	0x3e1bf900	0.15231705
31	0xbdcf9ed8	-0.10137719
32	0xbdf07e2f	-0.117428176
33	0xbd587f31	-0.052855674
34	0x3c38684a	0.011255333
35	0xbd745d69	-0.059659395
36	0x3e2a79d9	0.16648044
37	0xbdcbb149	-0.09945924
38	0x3e035244	0.1282435
39	0x3df77df5	0.12084571
40	0x3dde0718	0.10841197
41	0x3e4cc32c	0.19996327
42	0xbe421516	-0.18953356
43	0xbe2f4a4e	-0.17118189
44	0x3ce6970e	0.0281482
45	0x3cd1e606	0.025622379
46	0xbe427185	-0.18988617
47	0xbcf6e946	-0.03014053
48	0xbd91dec9	-0.07122571
49	0x3cfb0586	0.030642282
50	0xbe30b3b4	-0.17256051
51	0xbd501a9e	-0.050806634
52	0xbc137b25	-0.009001528
53	0xbe0e7a53	-0.1391385
54	0x3e18823e	0.14893433
55	0x3e05b131	0.13055874
56	0x3d965d43	0.07342007
57	0xbda26663	-0.07929685
58	0xbd589ed0	-0.05288583
59	0x3cf1f2f7	0.0295348
60	0x3dda4939	0.10658497
61	0x3d286fd6	0.04112228
62	0x3b19c644	0.0023464123
63	0x3dec1cd8	0.11528939
64	0x3bcaf59d	0.00619383
65	0xbe59665d	-0.21230455
66	0x3e0feca5	0.14055116
67	0xbb08b667	-0.0020860673
68	0xbd3c5cfd	-0.045987118
69	0xbe06b7e5	-0.13156088
70	0x3e401fb1	0.1876209
71	0x3e199664	0.14998776
72	0x3e063ae5	0.13108404
73	0x3dc147a0	0.094374895
74	0x3e44f83b	0.19235317
75	0xbd66532e	-0.05623167
76	0x3cddb204	0.027062424
77	0xbce191b3	-0.027535295
78	0x3d92cc27	0.07167845
79	0xbe2c9db4	-0.16857034
80	0xbd6f7be7	-0.05846777
81	0xbe098e64	-0.13433224
82	0xbe39b6be	-0.18136117
83	0xbd0cc79d	-0.034370054
84	0xbe2d3e2c	-0.16918248
85	0xbc461ecf	-0.012092306
86	0xbd8bd1a0	-0.06827092
87	0x3e395afe	0.18101117
88	0xbd13199c	-0.035913095
89	0x3e011cd7	0.12608658
90	0xbbe299b1	-0.006915294
91	0xbe271827	-0.16317807
92	0x3e42c56f	0.19020627
93	0xbe030518	-0.12794912
94	0xbe1e9d9a	-0.15489808
95	0xbe2b5916	-0.16733202
96	0x3e424cd2	0.18974617
97	0x3da8d85b	0.082443915
98	0xbe3c4b8f	-0.18388198
99	0xbe52e179	-0.20593823
100	0x3dbe8a64	0.0930374
101	0x3e34ff67	0.17675553
102	0xbe33b8fb	-0.17551033
103	0xbc7eb93b	-0.015547092
104	0x3d2683fa	0.040653206
105	0x3d39d881	0.04537249
106	0x3bcc2843	0.0062303855
107	0x3dbd6ebf	0.09249639
108	0xbdaf453c	-0.08558127
109	0xbc17e72f	-0.009271427
110	0xbc2accd1	-0.010424809
111	0x3e2c8110	0.16846108
112	0x3c3df579	0.01159417
113	0xbe03ca64	-0.12870175
114	0x3bbee0ef	0.005825154
115	0xbdecb114	-0.115572125
116	0x3e15b1ce	0.14618608
117	0xbe258a89	-0.16166128
118	0xbe3e1e56	-0.1856626
119	0xbe444bfb	-0.19169609
120	0x3deb580d	0.11491404
121	0xbdf45ab9	-0.119313665
122	0x3d5253f1	0.051349584
123	0xbc9f27b0	-0.019428104
124	0x3ddbdfcc	0.10736045
125	0x3dcd0440	0.10010576
126	0xbd8f9759	-0.07011289
127	0xbdc2dd86	-0.095149085

0.module.2.weight f4 [128, 128]
0	0xbd48b3e7	-0.048999693
1	0xbc88b932	-0.01668987
2	0xbd92664b	-0.07148417
3	0x3bd26cf6	0.0064216806
4	0xbd42a926	-0.047524594
5	0x3bf5c487	0.0075002345
6	0xbd91c509	-0.071176596
7	0x3cc7a31e	0.024369773
8	0xbd87f327	-0.066381745
9	0xbd4d10d8	-0.05006489
10	0x3d4d10df	0.050064918
11	0x3caca490	0.021074563
12	0x3d954528	0.07288581
13	0x3d356cb8	0.044293135
14	0x3d8de7ff	0.06929015
15	0x3d9bb81b	0.07603475
16	0x3d22947d	0.03969239
17	0x3dc2ca1a	0.09511204
18	0x3ccba268	0.024857715
19	0xbd8fc1d7	-0.07019394
20	0xbd38ecb6	-0.04514762
21	0x3c8c275f	0.017108617
22	0xbd8c3034	-0.068451315
23	0xbd46e8f2	-0.048561998
24	0x3d4232d2	0.047411747
25	0x3c8a8a13	0.016911542
26	0x3d168330	0.036746204
27	0xbca4520d	-0.020058656
28	0x3d90edf6	0.070766374
29	0x3d0eea82	0.034891613
30	0x3db15c20	0.086601496
31	0x3bf9729a	0.0076125385
32	0xbd6e75aa	-0.058217682
33	0x3dae393b	0.085070096
34	0xbce6e0a0	-0.028183281
35	0xbd024aef	-0.031809743
36	0x3d828b35	0.06374208
37	0xbc86c9e6	-0.016453695
38	0xbd978869	-0.07399065
39	0x3d720479	0.059086297
40	0x3c074e71	0.008258448
41	0xbb469e55	-0.0030306776
42	0xbdaa26d3	-0.083081864
43	0xbd370156	-0.04467901
44	0xbd921c86	-0.07134347
45	0x3dd8b24c	0.105808824
46	0x3db9c91b	0.09071561
47	0x3db0b7e4	0.08628824
48	0xbc5f5ff6	-0.013633719
49	0x3c9e64a9	0.019335108
50	0xbdaff7e6	-0.08592205
51	0x3d6e774f	0.05821925
52	0x3a53d9d0	0.0008081468
53	0x3c9235d9	0.017847942
54	0xbd5c3631	-0.05376262
55	0x3d184f3c	0.03718494
56	0xbd7eea6f	-0.062235292
57	0xbc351919	-0.011053347
58	0xbda5420e	-0.080692396
59	0x3cf7bc15	0.030241052
60	0xbd9f9010	-0.077911496
61	0xbd8dd817	-0.069259815
62	0xbbdc9431	-0.006731533
63	0x3b1569aa	0.0022798576
64	0xbd74fc3d	-0.059810866
65	0x3d935b05	0.07195095
66	0xbce95e5f	-0.028487382
67	0x3cd845f3	0.026400542
68	0xbd1eaa26	-0.038736485
69	0x3ce6c136	0.028168302
70	0x3d272c20	0.040813565
71	0xbc1d0aa0	-0.009585053
72	0x3cf9aca4	0.03047783
73	0x3cd156fd	0.025554175
74	0xbc499b7c	-0.012305137
75	0x3d38aaea	0.04508487
76	0xbcee808f	-0.029114036
77	0x3cdc1b75	0.026868561
78	0x3d43b999	0.04778442
79	0xbd148f00	-0.036269188
80	0x3d9372ab	0.071996056
81	0xbd8b2a9a	-0.06795235
82	0xbda2d265	-0.07950286
83	0x3c2a7e3c	0.010406073
84	0xbd4f63eb	-0.0506324
85	0xbbc2a37f	-0.0059399004
86	0x3c35a821	0.011087448
87	0xbd8f5bfb	-0.06999966
88	0xbb126375	-0.0022337113
89	0xba91900e	-0.0011105554
90	0xbb0eab37	-0.0021769532
91	0x3dbc1dbb	0.09185358
92	0xbd80422c	-0.06262621
93	0x3d69e562	0.057103522
94	0x3b2c0f6b	0.0026254307
95	0xbde7dc38	-0.113213
96	0xbdc47003	-0.09591677
97	0xbd977d06	-0.07396893
98	0x3bcaedd0	0.0061929002
99	0x3da3a00f	0.07989513
100	0xbdc5c383	-0.096564315
101	0x3d840801	0.06446839
102	0x3d0be9a0	0.03415835
103	0xbd403bfe	-0.046932213
104	0x3dbc1380	0.09183407
105	0xbdc5c5f6	-0.09656899
106	0x3c915af7	0.01774357
107	0x3d5d8ab4	0.054087356
108	0xbd4ffd2a	-0.050778545
109	0xbd7f29ff	-0.06229591
110	0x3da187cb	0.078872286
111	0x3d4ef97b	0.050530892
112	0xbdbd1040	-0.09231615
113	0x3d34d792	0.044150896
114	0xbcb45b05	-0.022016058
115	0x3db43837	0.08799785
116	0x3bb0b331	0.005392455
117	0x3d913e13	0.07091918
118	0xbc89e45f	-0.016832529
119	0x3c969a45	0.018384108
120	0xbd88043b	-0.06641432
121	0xbcbd1a7d	-0.02308392
122	0xbda2ecc3	-0.07955315
123	0xbd3221c4	-0.043489233
124	0xbd289d02	-0.04116536
125	0xbdd7201b	-0.105041705
126	0x3cdccee6	0.026954126
127	0x3c378a37	0.011202387
128	0xbd8ad6c7	-0.06779247
129	0xbdc030cc	-0.09384307
130	0xbd079b15	-0.033106882
131	0x3d95acd9	0.07308359
132	0x3d989647	0.07450538
133	0x3abb7d35	0.0014304282
134	0xbc91c2c9	-0.017793076
135	0xbdba3d04	-0.09093669
136	0x3d17a567	0.037022974
137	0xbdc31498	-0.09525412
138	0xbd73e07d	-0.05954026
139	0x3d26cee8	0.040724665
140	0xbd17d815	-0.037071306
141	0x3d03f0fe	0.03221225
142	0x3d11b25c	0.035570487
143	0xbcc58809	-0.024112718
144	0xbd577483	-0.05260135
145	0x3b7c226e	0.003847267
146	0x3d987c10	0.07445538
147	0xbd0a667e	-0.03378915
148	0x3cc9c300	0.024629116
149	0x3dab73b8	0.08371681
150	0x3c80f5ae	0.01574215
151	0xbe022e4f	-0.12712978
152	0xbb86bdc4	-0.0041119773
153	0x3db1e9bd	0.0868716
154	0xbca46a55	-0.020070234
155	0x3cd3383d	0.025783652
156	0xbc3d0b5d	-0.011538354
157	0xbd5019cc	-0.05080585
158	0x3dca8fb6	0.09890692
159	0xbdb5381b	-0.08848592
160	0x3d1ce2db	0.038302284
161	0xbc5f5e76	-0.013633361
162	0x3c99348d	0.018701816
163	0xbc572c70	-0.013133153
164	0xbd7305e5	-0.059331793
165	0xbd68dfde	-0.05685412
166	0x3c0bcf17	0.008533261
167	0x3ce32b13	0.0277305
168	0x3d65614d	0.056000996
169	0x3dcb0506	0.099130675
170	0xbd908891	-0.07057298
171	0xbd904a1a	-0.07045384
172	0x3d4c8919	0.049935434
173	0xbd7a06af	-0.06104153
174	0x3d1d8903	0.038460743
175	0x3d9f0194	0.07763973
176	0x3d0acfce	0.033889584
177	0xbbd340e1	-0.006446943
178	0xbd45a560	-0.048253417
179	0xbad48ed1	-0.0016216879
180	0x3d610c71	0.054943506
181	0x3db20643	0.086926006
182	0x3d862e66	0.065518185
183	0x3cab6a64	0.020924754
184	0x3d1afac2	0.037836798
185	0xbc5ea116	-0.013588211
186	0xbcad6e7c	-0.021170847
187	0xbd984169	-0.07434351
188	0xbd235687	-0.03987744
189	0xbd1fdbc6	-0.03902795
190	0xbd799436	-0.06093236
191	0xbde02f75	-0.10946552
192	0xbde9b559	-0.114115424
193	0x3d5e2595	0.05423506
194	0xbc99c7bb	-0.018771997
195	0xbc93e202	-0.018052105
196	0xbd234672	-0.039862104
197	0xbd908b2b	-0.07057794
198	0xbc835fb7	-0.016036851
199	0xbca8011c	-0.020508341
200	0xbd6b869b	-0.057501417
201	0x3da38ab7	0.07985442
202	0x3dbbf5de	0.09177755
203	0xbca4a59e	-0.020098504
204	0x3d2b313c	0.041795
205	0xbd821230	-0.06351125
206	0x3c39560d	0.01131202
207	0xbd6ddb1a	-0.05807028
208	0x3d8cfbe6	0.06883983
209	0xbd4996f4	-0.049216226
210	0x3d192138	0.037385195
211	0x3b76f952	0.0037685228
212	0xbcfe4643	-0.031039363
213	0x3d347fcb	0.044067185
214	0xbcfeb8bd	-0.03109395
215	0xbcc8d595	-0.024515906
216	0x3ddf9eec	0.10918984
217	0x3d847ccf	0.06469118
218	0x3bac6176	0.0052606417
219	0xbb4f51bf	-0.0031634418
220	0xbd803c0c	-0.06261453
221	0x3cc5a087	0.024124397
222	0x3c63abb4	0.013895918
223	0xbd02acf0	-0.031903207
224	0x3d6c7a6d	0.05773394
225	0x3d970083	0.073731445
226	0xbd69e323	-0.05710138
227	0xbc68466d	-0.014176947
228	0xbdbdcbf5	-0.09267417
229	0x3d244711	0.040106837
230	0xbdda7909	-0.10667617
231	0x3ce7a487	0.028276695
232	0x3c85d329	0.01633604
233	0xbddc8578	-0.10767645
234	0xbd41fd4d	-0.047360707
235	0x3d04faf1	0.03246588
236	0xba0bd9ed	-0.00053349027
237	0x3d50b578	0.050954312
238	0x3b895218	0.0041906945
239	0xbd472a76	-0.04862448
240	0x3d4bcab8	0.049753875
241	0x3cf578fc	0.029964916
242	0xbd8884b3	-0.06665935
243	0xbc0156fa	-0.007894272
244	0x3e00a1bb	0.12561695
245	0x3c0f6bfd	0.008753774
246	0xbdc348a3	-0.09535339
247	0xbdf6f78e	-0.12058936
248	0x3e011883	0.12607007
249	0x3d24768b	0.040152114
250	0x3c9096c7	0.017650021
251	0xbd4dbd8e	-0.0502296
252	0xbd9f1281	-0.07767201
253	0x3ca06c5c	0.01958292
254	0xbd2c51a0	-0.04207003
255	0xbdcff038	-0.1015324

0.module.2.bias f4 [128]
0	0xbdb74d01	-0.08950234
1	0x3de490ea	0.11160453
2	0x3cdcf53c	0.026972406
3	0x3c76cd32	0.015063571
4	0x3dabfd29	0.08397896
5	0x3c5f19e4	0.013617013
6	0x3d64aa48	0.055826455
7	0x3b8c1b91	0.004275747
8	0x3d301ca0	0.04299605
9	0xbc55d96b	-0.013052325
10	0x3c23de58	0.010001741
11	0xbd749a7f	-0.05971765
12	0x3c930a62	0.017949287
13	0x3db6d510	0.08927357
14	0x3db30f15	0.08743111
15	0xbca2915c	-0.019844703
16	0x3d5d4034	0.054016307
17	0x3d93824c	0.072025865
18	0xbcb1d5cc	-0.021708392
19	0x3d3b7806	0.04576876
20	0x3cec8a55	0.028874556
21	0x3d85c9ef	0.065326564
22	0x3d999ba5	0.0750039
23	0x38538c82	5.043718e-05
24	0x3d9f2684	0.07771018
25	0x3d9da20e	0.07696925
26	0x3d3e4fda	0.04646287
27	0x3d5e9b24	0.054347172
28	0x3d43ef2d	0.047835518
29	0x3d993dc1	0.07482482
30	0xbc234c5d	-0.009966937
31	0x3d8aed1b	0.067835055
32	0xbc55440b	-0.013016711
33	0x3c7e0bc5	0.015505736
34	0x3c1953a8	0.009358324
35	0xbcce3c78	-0.025175318
36	0x3c877f4b	0.01654019
37	0x3da4a208	0.080387175
38	0xbd130caa	-0.03590075
39	0x3d83c4b6	0.06434004
40	0x3cb9a85b	0.022663286
41	0xbd601890	-0.054710925
42	0xbda6bda3	-0.08141639
43	0x3c505cee	0.012717469
44	0x3d73b98d	0.059503127
45	0xbd6b5f39	-0.05746386
46	0x3d0cb358	0.034350723
47	0x3d6107d6	0.054939114
48	0xbd87e4b6	-0.0663542
49	0xbdc7866f	-0.09742438
50	0xbd3fb1bf	-0.04680037
51	0x3cf0ce4d	0.029395247
52	0x3d58b67f	0.052908417
53	0xbda7e138	-0.08197254
54	0xbdbcaada	-0.09212275
55	0xbd2164f2	-0.03940291
56	0xbac0ba6e	-0.0014703998
57	0xbd4f1ebd	-0.050566424
58	0xbb9e215f	-0.0048257555
59	0x3dc8eb38	0.098104894
60	0xbd7845d6	-0.060613476
61	0xbd129dfa	-0.03579519
62	0xbdba3de3	-0.09093835
63	0xbd3487ad	-0.044074703
64	0xba3af970	-0.0007132506
65	0x3d888fe7	0.06668072
66	0xbc7ac0c0	-0.015304744
67	0xbc107be2	-0.008818598
68	0x3d6cdb59	0.057826374
69	0xbd4fe08b	-0.05075125
70	0xbd2f13af	-0.04274338
71	0x3b01e4f4	0.0019820305
72	0x3d6962e5	0.05697908
73	0xbc3ec78a	-0.0116442535
74	0xbdb239fa	-0.087024644
75	0x3ce27550	0.02764383
76	0x3d8446b8	0.06458801
77	0x3d8c6b65	0.068564214
78	0x3b84d06b	0.0040531657
79	0xbd67068c	-0.056402728
80	0x3bf90648	0.0075996257
81	0x3d5e31de	0.054246776
82	0xbc558b38	-0.013033681
83	0xbc829d1c	-0.015944056
84	0x3c13a38a	0.009011159
85	0xbda33a2a	-0.07970078
86	0xbcc9b969	-0.024624543
87	0xbdaab49c	-0.0833523
88	0xbdd9e595	-0.106394924
89	0xbb64fc89	-0.0034940562
90	0xbd71cdfa	-0.059034325
91	0x3ce5e10a	0.028061409
92	0xbc977924	-0.018490382
93	0xbd1b68ed	-0.037941862
94	0xbc127d14	-0.008940954
95	0xbd083cd6	-0.033261143
96	0x3b1b3cc3	0.002368734
97	0xbc4c03c2	-0.012452068
98	0xbdae8575	-0.08521549
99	0x3d08a54b	0.03336076
100	0x3d0b4be5	0.034007926
101	0x3d9c19d6	0.07622115
102	0xbcdbc619	-0.026827859
103	0xbc31de58	-0.010856234
104	0x3dca90a3	0.098908685
105	0x3d9d97b6	0.07694952
106	0x3dc0e4ca	0.09418638
107	0xbcbdd1d0	-0.023171335
108	0xbcd9d6b2	-0.026591633
109	0xbcdd7dde	-0.027037557
110	0xbb832564	-0.00400226
111	0xbc598d04	-0.01327825
112	0xbd024daf	-0.031812366
113	0x3cdf3ea9	0.027251558
114	0x3d618d43	0.05506636
115	0x3d1ed35a	0.03877578
116	0x3c5e9388	0.013584979
117	0x3ccedb5b	0.025251081
118	0xbd2a0595	-0.04150923
119	0x3c50e4e6	0.012749886
120	0x3d5cc00b	0.053894084
121	0xbdcd1fb6	-0.10015814
122	0xbd83a097	-0.064271145
123	0x3dc555e5	0.09635524
124	0x3d78b61b	0.060720544
125	0x3d8265a5	0.063670434
126	0x3d4a5d0a	0.049405135
127	0xbd6e116f	-0.058122095

0.module.4.weight f4 [128, 128]
0	0xbd8f4e83	-0.06997397
1	0xbd948c87	-0.07253366
2	0x3cbf1824	0.02332694
3	0x3d76cb61	0.06025255
4	0xbc93719e	-0.017998513
5	0x3be73247	0.007055554
6	0x3d7cc6eb	0.06171314
7	0x3be91707	0.007113341
8	0x3df555ce	0.119792566
9	0x3d470948	0.048592836
10	0x3d615f92	0.055022784
11	0xbb26830b	-0.0025407698
12	0x3d4904a3	0.049076688
13	0xbd209c66	-0.039211653
14	0xbdb680c1	-0.089112766
15	0x3e01cd1e	0.12675902
16	0x3d4dfc71	0.050289575
17	0xbd4cfe07	-0.050046947
18	0x3d03bd14	0.03216274
19	0xbda4189f	-0.080125086
20	0xbdbd1ba4	-0.09233788
21	0x3d320e0d	0.04347043
22	0xbd703823	-0.058647286
23	0x3d993ec7	0.07482677
24	0xbd368c1d	-0.044567216
25	0xbdab795d	-0.083727576
26	0xbbde7665	-0.006789016
27	0x3d995d34	0.0748848
28	0x3cd384c2	0.02582014
29	0xbe10c4f7	-0.14137636
30	0xbda5271c	-0.080641
31	0x3dab5894	0.08366504
32	0xbd80ebef	-0.06295001
33	0xbd461041	-0.048355345
34	0x3c6b176a	0.014348844
35	0x3db993ee	0.090614185
36	0xbdcd5fa6	-0.10028009
37	0x3a86a8db	0.0010273712
38	0x3d3ec79c	0.04657708
39	0xbd737993	-0.059442114
40	0x3d9565bf	0.07294797
41	0xbd567f78	-0.052367657
42	0x3d93bca4	0.07213715
43	0x3d986e67	0.074429326
44	0x3d079cd0	0.033108532
45	0x3d0137a2	0.031547196
46	0x3d98abfd	0.07454679
47	0x3df4b185	0.11947922
48	0xbd5eac2f	-0.054363426
49	0xbd11c795	-0.035590727
50	0xbd685761	-0.056723956
51	0x3daec1d0	0.085330606
52	0xbdd72e11	-0.10506833
53	0xbd5107a3	-0.051032674
54	0xbd05d265	-0.03267135
55	0x3dacb616	0.08433168
56	0xbd9b9157	-0.07596081
57	0xbd5b792c	-0.053582355
58	0xbd777eee	-0.060423784
59	0xbd598ed2	-0.05311472
60	0xbc9c055e	-0.019045528
61	0xbd793499	-0.060841177
62	0xbd9d9b86	-0.07695679
63	0x3d400529	0.04687992
64	0xbd821ebe	-0.0635352
65	0xbda64228	-0.08118087
66	0x3d4e3100	0.0503397
67	0xbaa36e94	-0.0012468868
68	0xbde2484c	-0.11048946
69	0xbcad2269	-0.021134572
70	0x3d24cc52	0.040233918
71	0x3d0bc624	0.03412451
72	0x3cddf84b	0.027095934
73	0x3d8c8a61	0.06862331
74	0xbcedd628	-0.029032782
75	0x3c2fd3c0	0.0107316375
76	0x3c22aaf2	0.009928452
77	0xbb9ce51a	-0.004788053
78	0xbd9804ac	-0.07422766
79	0x3c6c4adf	0.014422148
80	0xbddaa368	-0.106756985
81	0xbd3f4428	-0.04669586
82	0x3ca4e7f1	0.02013013
83	0x3dc51236	0.09622614
84	0xbd4cb0a4	-0.049973145
85	0x3de0e9a6	0.10982065
86	0xbd826e41	-0.063686855
87	0x3c6a0434	0.014283229
88	0x3bfcbd1c	0.0077129733
89	0x3d7c679b	0.061622243
90	0x3d0b67dc	0.034034595
91	0x3c105a25	0.008810555
92	0x3d86ce80	0.065823555
93	0x3d658ae5	0.056040663
94	0xbdb0eb8c	-0.08638677
95	0x3d865c6b	0.06560596
96	0xbc8cabfd	-0.017171854
97	0x3c3d3610	0.011548534
98	0xbc944c4e	-0.018102791
99	0x3dceaf37	0.10092013
100	0xbd285f22	-0.04110635
101	0xbd9784a3	-0.07398345
102	0x3daf1852	0.085495606
103	0x3ce9d64e	0.028544571
104	0x3cd9b409	0.026575105
105	0xbd941a04	-0.072315246
106	0xbde72c21	-0.11287714
107	0x3c93ec15	0.018056909
108	0x3d5a1a69	0.053247843
109	0xbde3457b	-0.11097237
110	0xbbb20c47	-0.0054335925
111	0xbd445bda	-0.04793916
112	0xbde4fa6f	-0.11180579
113	0xbcc76e1e	-0.0243445
114	0xbd84e264	-0.06488493
115	0x3cb48d98	0.022040173
116	0x3d8dafff	0.06918334
117	0xbc99eb6d	-0.018789018
118	0xbcd1bf5f	-0.025603948
119	0xbd01d909	-0.03170112
120	0xbd5b6288	-0.053560764
121	0x3db97559	0.090555854
122	0xbbbd9bf4	-0.0057864133
123	0xbc0314f6	-0.008000603
124	0xbcc5a5d5	-0.024126926
125	0xbce0eef8	-0.0274577
126	0xbd8d1faa	-0.06890805
127	0x3ddc804d	0.10766659
128	0x3beb9f19	0.007190597
129	0x3d85ac8b	0.065270506
130	0x3d56ebe2	0.05247105
131	0xbd76bafa	-0.06023691
132	0x3d1a9d39	0.037747595
133	0xbd782008	-0.060577422
134	0xbd23ba90	-0.03997284
135	0xbc75cf7f	-0.015003084
136	0xbd97c9a4	-0.07411507
137	0x3c926b8f	0.017873554
138	0x3d4df4a6	0.050282143
139	0xbcd6a3ef	-0.026201217
140	0x3cdcd7fa	0.026958454
141	0xbce7de96	-0.02830438
142	0x3dae53cd	0.085120775
143	0xbd4ed0a1	-0.050491933
144	0xbd7d339c	-0.061816797
145	0xbb746366	-0.0037290691
146	0xbc9d4333	-0.019197082
147	0xbd73d7a4	-0.059531823
148	0xbcdc37d4	-0.02688209
149	0xbddabd4a	-0.10680635
150	0xbcf8e782	-0.030383829
151	0x3d453e01	0.048154835
152	0xbd1d5882	-0.038414486
153	0x3b6793cf	0.0035335904
154	0x3d74d0d9	0.059769485
155	0xbdb5ef44	-0.08883527
156	0x3d544d94	0.051831797
157	0x3d638752	0.055548973
158	0xbd32f13c	-0.04368709
159	0xbca1d5a1	-0.019755187
160	0xbd3d06f0	-0.046149194
161	0x3d5ac82d	0.05341356
162	0xbd9d0e3f	-0.07668733
163	0xbdc0d819	-0.09416217
164	0xbbb5a9f2	-0.0055439407
165	0x3ceea8d4	0.029133238
166	0xbba01e19	-0.0048864004
167	0x3a05079e	0.00050746824
168	0x3d6ad15e	0.057328574
169	0xbd092a58	-0.033487648
170	0x3d31bf46	0.043395303
171	0xbb8cc6ab	-0.004296144
172	0x3b8fcfc6	0.004388782
173	0x3d69c75a	0.057074882
174	0x3d9d8551	0.07691444
175	0x3d835ebc	0.064145535
176	0x3cabcf82	0.02097297
177	0x3d8e3075	0.06942836
178	0xbc751e0b	-0.014960776
179	0x3d98ad14	0.07454887
180	0xbd52b759	-0.051444385
181	0x3cee7fa9	0.029113607
182	0xbbff240b	-0.007786279
183	0xbdae0493	-0.08496966
184	0xbb8c8881	-0.0042887335
185	0xbd87de82	-0.06634237
186	0xbd0357b4	-0.032066062
187	0x3d58c3de	0.05292117
188	0x3da6756d	0.08127866
189	0xbd5483d3	-0.05188353
190	0xbd8ef66a	-0.069805935
191	0xbdbe9634	-0.09305993
192	0x3dd2ac66	0.10286789
193	0x3daf5bc0	0.08562422
194	0x3db2fa2a	0.08739121
195	0x3d6f4afa	0.058421113
196	0x378c12a8	1.6697988e-05
197	0xbd3d41ea	-0.04620544
198	0xbdb2e5ab	-0.08735212
199	0xbd481faf	-0.04885834
200	0x3c2745a6	0.010209477
201	0xbd091e56	-0.033476196
202	0x3d2afc8d	0.041744757
203	0xbdc469b3	-0.09590473
204	0xbdacc7b2	-0.08436526
205	0x3caa7ed6	0.020812433
206	0x3db75619	0.08951969
207	0xbd0c84fd	-0.034306515
208	0x3d8a6879	0.06758208
209	0xbd392d8b	-0.04520945
210	0xbd9ba417	-0.07599657
211	0xbd27bf2b	-0.040953796
212	0x3d14af40	0.036299944
213	0xbd54e8bb	-0.05197976
214	0xbc607446	-0.013699597
215	0x3c9c77af	0.019100038
216	0xbd631583	-0.055440437
217	0x3dc9109e	0.098176226
218	0x3d9dcf59	0.07705564
219	0x3d55d843	0.052208196
220	0xbc9deefc	-0.019278996
221	0x3d5dee40	0.05418229
222	0x3d1b9689	0.03798536
223	0x3d099132	0.033585735
224	0xbd15c682	-0.036566265
225	0xbd5d236f	-0.05398887
226	0x3cdfecf0	0.02733466
227	0xbd12d465	-0.035847086
228	0xbd22e214	-0.039766386
229	0xbcfaba4c	-0.030606411
230	0x3d05fbe7	0.032710936
231	0xbd80f766	-0.062971875
232	0xbd087d64	-0.033322707
233	0x3d706f14	0.058699682
234	0xbda3e118	-0.080019176
235	0x3dc204c5	0.09473566
236	0x3dbab46e	0.091164455
237	0x3d7c921b	0.061662775
238	0x3d320adf	0.0434674
239	0x3bd7572b	0.0065716705
240	0x3c3f7865	0.011686419
241	0xbcefb709	-0.029262083
242	0x3d70b20d	0.058763552
243	0xbc017c71	-0.007903204
244	0xbcef6908	-0.029224887
245	0x3cba066b	0.022708138
246	0x3ce36dd8	0.027762339
247	0x3db85a11	0.09001554
248	0xbcfca8fc	-0.030842297
249	0x3c4a96b0	0.012365028
250	0xbca73dd9	-0.020415233
251	0xbcde925d	-0.0271694
252	0xbc46ff2b	-0.012145798
253	0xbd4aa26d	-0.049471308
254	0xbcc09231	-0.02350721
255	0xbd9f1e1e	-0.07769416

0.module.4.bias f4 [128]
0	0xbd848c45	-0.06472067
1	0x3d18a887	0.037270095
2	0xbd3e5f6c	-0.04647772
3	0xbd837dc8	-0.06420475
4	0xbdb2883b	-0.0871739
5	0x3da6efaf	0.08151185
6	0xbce0d8d6	-0.027447145
7	0x3d17cb1e	0.037058942
8	0x3d8d6bd6	0.06905334
9	0xbcc5dd47	-0.024153365
10	0xbd1ec850	-0.03876525
11	0xbd4021a9	-0.0469071
12	0x3cb22487	0.021745933
13	0xbd7c69b3	-0.06162424
14	0xbcab8da2	-0.02094156
15	0xbdd184c7	-0.102304034
16	0x3c207e06	0.009795671
17	0x3d329d87	0.04360726
18	0x3c8b59b1	0.017010542
19	0x3bb202e0	0.0054324716
20	0x3cf3ec24	0.029775687
21	0xbd213998	-0.039361566
22	0x3dc22a48	0.09480721
23	0x3d57ca95	0.05268343
24	0xbcadb0eb	-0.021202525
25	0xbd9aed06	-0.0756474
26	0x3da5b38b	0.08090886
27	0xbd9a23e6	-0.07526378
28	0x3d49752a	0.049184002
29	0x3abcd173	0.0014405682
30	0xbc6297f9	-0.013830178
31	0xbd28c204	-0.041200653
32	0x3ba046b9	0.0048912433
33	0x3c6b4dc3	0.014361802
34	0x3dc967e2	0.09834267
35	0x3c6f2ec0	0.014598548
36	0xbd5af38d	-0.053454924
37	0x3c9e8aef	0.019353358
38	0xbd8feaf7	-0.07027238
39	0x3cef20e1	0.029190483
40	0xbd33481d	-0.043769944
41	0xbcb0cfd9	-0.021583484
42	0x3d9c12de	0.07620786
43	0x3d0aa365	0.03384723
44	0xbda59254	-0.080845505
45	0x3e115da8	0.14195883
46	0x3ce0cd3e	0.027441617
47	0xbdedb5e0	-0.116069555
48	0x3c1c5405	0.009541516
49	0xbc89f38a	-0.016839761
50	0x3d8708d8	0.06593484
51	0xbd25fbfb	-0.04052351
52	0x3d6fac73	0.05851407
53	0x3db03853	0.08604493
54	0xbd9c216d	-0.07623563
55	0xbd798c72	-0.060924955
56	0xbd98ae5c	-0.074551314
57	0xbc88dabd	-0.016705865
58	0xbd941609	-0.07230765
59	0xbdbfd700	-0.0936718
60	0xbccaf81a	-0.024776507
61	0x3cc567fb	0.024097433
62	0xbca2c7e0	-0.019870698
63	0x3bdb72d0	0.0066970363
64	0xbcbe0495	-0.023195544
65	0x3d416f44	0.04722525
66	0x3d126b49	0.035746846
67	0x3c86c85d	0.016452963
68	0xbdccc176	-0.09997837
69	0x3cf0728c	0.029351495
70	0xbd5b3841	-0.053520445
71	0x3d6ec564	0.058293715
72	0x3d8edd08	0.06975752
73	0xbdcf96ea	-0.101362064
74	0x3dc88a2d	0.0979198
75	0x3d8c2bd2	0.068442956
76	0x3d5c5e7a	0.053801037
77	0xbd4872da	-0.048937656
78	0xbd900e5f	-0.07033991
79	0xbce6eaff	-0.028188227
80	0xbc4eeeb1	-0.012630151
81	0xbd0d5846	-0.034508012
82	0x3d1e369c	0.0386263
83	0xbd257952	-0.040398903
84	0xbc5c834a	-0.013459036
85	0xbd843e59	-0.06457204
86	0xbd85e0bf	-0.065370075
87	0xbceaf7af	-0.028682558
88	0xbd57412d	-0.05255239
89	0x3da79ae8	0.08183843
90	0xbd8a8634	-0.067638785
91	0xbd87f9eb	-0.06639465
92	0xbd831c6b	-0.06401905
93	0xbd796e6c	-0.060896322
94	0x3c7af34e	0.015316797
95	0x3d842ee9	0.0645426
96	0xbd9512d8	-0.07278985
97	0xbc4d9b16	-0.012549182
98	0xbda3d4e3	-0.07999589
99	0xbd58ea19	-0.052957628
100	0x3d4d3728	0.05010143
101	0x3b19a52b	0.0023444395
102	0x3d15eee7	0.03660479
103	0x3d3c2a72	0.045938917
104	0x3dc4a133	0.09601059
105	0x3d86c3ec	0.06580338
106	0xbd2df74c	-0.04247217
107	0x3c3b75a7	0.011441625
108	0xbdcd416f	-0.10022246
109	0x3d265caf	0.040615734
110	0x3dbae93b	0.091265164
111	0x3be276ba	0.006911126
112	0xbd8c56f2	-0.06852521
113	0xbd8c4204	-0.06848529
114	0xbb3b2c69	-0.0028560406
115	0x3d8024b1	0.06256998
116	0x3d89a559	0.06720991
117	0xbd1a64f2	-0.037693925
118	0x3da935ce	0.082622156
119	0x3d8d531b	0.06900617
120	0xbd879be3	-0.0662153
121	0x3dc9e852	0.09858765
122	0x3d63d5e5	0.055623908
123	0x3ccf8673	0.025332665
124	0xbd95ddec	-0.07317719
125	0xbcfd503b	-0.030922046
126	0xbc57eeb1	-0.013179467
127	0x3d4aed7b	0.049542885

0.module.6.weight f4 [8, 128]
0	0x3cc7020a	0.024292964
1	0xbd2f4a73	-0.04279561
2	0x3cb8a309	0.022538679
3	0x3d1b6d5c	0.03794609
4	0xbd9cfeb0	-0.07665765
5	0x3c8c47f5	0.017124156
6	0x3c632b21	0.013865263
7	0xba8522bd	-0.0010157448
8	0x3cf8b633	0.030360317
9	0xbc0c5ef1	-0.008567558
10	0x3aeaaa2d	0.00179035
11	0xbd22b9dd	-0.039728034
12	0xbda0fe91	-0.07861055
13	0xbd10d5e6	-0.03536024
14	0x3d880943	0.066423915
15	0xbd4a5327	-0.049395707
16	0xbdbca248	-0.0921064
17	0x3d38d43e	0.045124285
18	0x3d5c3757	0.053763714
19	0x3d1eccc4	0.0387695
20	0x3cb3684e	0.021900322
21	0x3d7105cd	0.058843423
22	0x3d548599	0.05188522
23	0x3d30f791	0.043204848
24	0x3d6c9d87	0.057767417
25	0xbc9aad1a	-0.01888137
26	0xbc94a0b9	-0.018143045
27	0x3c194fa7	0.0093573695
28	0x3c61aece	0.013774587
29	0xbce7012f	-0.028198807
30	0x3c85a174	0.016312338
31	0x3c5a9cf5	0.013343086
32	0xbd94d80a	-0.07267769
33	0xbd5bb502	-0.05363942
34	0x3b0fba50	0.002193112
35	0xbd9ed5a3	-0.07755592
36	0xbd8dc950	-0.06923163
37	0x3ca053ff	0.019571302
38	0xbda30ed5	-0.07961813
39	0x3cfa2c5d	0.030538732
40	0xbc45e828	-0.012079276
41	0xbd0d25c2	-0.034459837
42	0x3dae8df5	0.0852317
43	0x3d1f46a5	0.03888573
44	0xbdac6521	-0.08417726
45	0x3da8df42	0.08245708
46	0x3d9dd0ab	0.07705816
47	0x3b58d695	0.0033086885
48	0xbd54145d	-0.051777232
49	0xbcc2afce	-0.02376547
50	0x3d1f28b3	0.038857173
51	0xbd075a99	-0.033045385
52	0xbccb5e07	-0.02482511
53	0xba11ee62	-0.0005566833
54	0xbbf5839b	-0.0074924952
55	0x3cfb3f1b	0.03066974
56	0xbd2f0b56	-0.04273542
57	0xbcb4e314	-0.022080936
58	0x3d238c02	0.039928444
59	0xbc22b1ad	-0.0099300565
60	0x3d8f141f	0.0698626
61	0xbcdfbf4d	-0.027312899
62	0x3d330789	0.043708358
63	0x3d82659c	0.06367037
64	0x3c793736	0.015210917
65	0xbd2b9d88	-0.04189828
66	0x3d6af692	0.057364054
67	0x3d711828	0.058860928
68	0xbd877683	-0.06614401
69	0xbc081c19	-0.00830748
70	0x3d94ea18	0.07271212
71	0x3d5b8afa	0.053599335
72	0xbd257149	-0.04039124
73	0xbd3bc351	-0.045840565
74	0x3d595a7b	0.053064805
75	0xbd1337a5	-0.03594174
76	0x3d93b3a3	0.07211997
77	0xbd437d35	-0.04772683
78	0x3bc950aa	0.006143649
79	0xbd0fc81b	-0.035102945
80	0xbccd57fe	-0.025066372
81	0xbd4f6753	-0.050635647
82	0x3d21bac7	0.039484765
83	0xbda9d8ae	-0.082932815
84	0x3d817bdd	0.06322453
85	0xbd90d406	-0.0707169
86	0xbd1a41d0	-0.03766042
87	0xbca684f0	-0.020327061
88	0xbc3092a1	-0.010777147
89	0xbcaa2542	-0.020769719
90	0x3d669646	0.056295656
91	0x3c653e60	0.013991922
92	0xbd8e4467	-0.069466405
93	0xbdcb2ab5	-0.09920255
94	0x3c231968	0.009954788
95	0xbd003d17	-0.03130826
96	0xbd973654	-0.07383409
97	0x3cffdace	0.031232264
98	0xbd3eba47	-0.046564367
99	0xbd056eaa	-0.03257624
100	0x3bda284f	0.006657637
101	0x3c5f1ed0	0.013618186
102	0xbaafc9e5	-0.001341161
103	0x3d73d7bd	0.059531916
104	0x3d73981e	0.059471242
105	0x3d8e646a	0.06952746
106	0x3c062a58	0.0081888065
107	0x3c70eecd	0.014705372
108	0xbd16e5ef	-0.036840376
109	0x3cd9c4c0	0.026583076
110	0xbd27d497	-0.040974226
111	0x3d889f12	0.06670965
112	0x3d07b5a5	0.033132214
113	0xbbd5cc90	-0.00652463
114	0x3c9513ee	0.01819798
115	0x3c99eccd	0.018789673
116	0xbd645123	-0.05574144
117	0x3d64ba11	0.05584151
118	0x3d4dcee5	0.050246138
119	0xbd4e633d	-0.05038761
120	0xbd860c46	-0.0654531
121	0x3d71701b	0.058944803
122	0x3cd101f5	0.025513628
123	0xbc26eb20	-0.010187894
124	0xbc5ba693	-0.013406414
125	0xbd78c066	-0.06073036
126	0xbd20f897	-0.039299574
127	0x3d3db7a3	0.046317708
128	0xbd47ea85	-0.04880764
129	0x3d0cb3d7	0.034351196
130	0xbdaa5eb7	-0.08318847
131	0x3ba4ff66	0.0050353287
132	0x3d83c3eb	0.06433853
133	0x3d98d47a	0.07462402
134	0x3d3fadc8	0.04679659
135	0x3da7dd3d	0.08196495
136	0x3c04f2d3	0.008114534
137	0xbcd19273	-0.025582528
138	0xbc8f52f3	-0.017495608
139	0x3d81ea0b	0.06343468
140	0xbdac9f28	-0.08428794
141	0xbc16445a	-0.00917157
142	0xbd16baf0	-0.03679937
143	0x3c93229b	0.017960837
144	0xbcb3a98c	-0.021931432
145	0xbc2d7dcb	-0.010589073
146	0x3d90b266	0.07065277
147	0x3cde348e	0.02712467
148	0x3c87512c	0.016518198
149	0xbb8118b0	-0.0039397106
150	0xbd55a34b	-0.05215768
151	0x3d5b30e8	0.053513438
152	0xbd966ee0	-0.073453665
153	0x3cf08607	0.029360784
154	0x3d39238c	0.045199916
155	0xbd1a7d17	-0.03771695
156	0x3d071414	0.032978132
157	0x3da0173f	0.07816934
158	0xbdacf28c	-0.084447
159	0x3c45b1f7	0.012066356
160	0xbd9e983d	-0.07743881
161	0xbdd104d3	-0.10205998
162	0xbc3c7c13	-0.011504191
163	0x3db2fc1b	0.087394916
164	0xbd61db1f	-0.05514061
165	0x3b3f8131	0.0029221291
166	0x3ccba3e5	0.024858424
167	0x3d9b0b11	0.0757047
168	0xbd48b9d6	-0.049005352
169	0x3d58d8d6	0.052941166
170	0xbd260241	-0.040529493
171	0x3d02ef7b	0.031966668
172	0xbd562b43	-0.05228735
173	0xba5f0388	-0.0008507301
174	0xbd2960e8	-0.041352183
175	0x3c562a9c	0.013071682
176	0x3b871ca0	0.0041232854
177	0xbd73c903	-0.05951787
178	0x3dc800a5	0.09765748
179	0xbd0b019e	-0.03393709
180	0xbdceebd6	-0.10103576
181	0x3ca19da8	0.019728497
182	0x3d8bef79	0.06832785
183	0x3c043df5	0.008071412
184	0xbcfbb588	-0.03072621
185	0xbbd054fb	-0.0063577867
186	0xbbb7645d	-0.005596681
187	0xbd54d92d	-0.051964927
188	0xbd6cda4c	-0.05782537
189	0x3d885e12	0.066585675
190	0xba90d31a	-0.0011049241
191	0xbd02c4af	-0.031925853
192	0x3d6382b6	0.055544578
193	0xbda3fa2c	-0.08006701
194	0x3d9d60c6	0.07684474
195	0x3cb3233b	0.021867385
196	0xbcb9a464	-0.022661395
197	0xbcac9320	-0.021066248
198	0xbd995847	-0.07487541
199	0xbb5a273f	-0.0033287553
200	0x3ceb3084	0.028709657
201	0xbd0fe7f7	-0.03513333
202	0x3c952d72	0.018210147
203	0x3d50d479	0.05098388
204	0x3d921921	0.07133699
205	0x3b8fbb1d	0.0043863193
206	0x3d8a759e	0.06760715
207	0x3c9557d8	0.018230364
208	0x3c27da70	0.010244951
209	0xbd50794d	-0.05089693
210	0x3cc1f342	0.023675565
211	0x3d02eb2f	0.03196257
212	0xbd81bd48	-0.06334931
213	0xbd0aac8e	-0.033855967
214	0x3c8c831f	0.017152367
215	0xbd57112f	-0.052506622
216	0x3c21fb20	0.009886533
217	0xbd56982b	-0.052391212
218	0xbd8f19d9	-0.06987352
219	0x3d8b5371	0.068030246
220	0xbdb1de29	-0.08684952
221	0xbd769e73	-0.060209703
222	0xbd07034c	-0.03296213
223	0xbd200c1b	-0.039074045
224	0x3cf6c638	0.030123815
225	0xbd6a423c	-0.057192072
226	0xbcf33ac4	-0.029691108
227	0xbd98ed67	-0.07467156
228	0x3c1e3173	0.009655344
229	0x3d754917	0.059884157
230	0xbd8339b0	-0.064074874
231	0x3dbac210	0.09119046
232	0x3d6b681b	0.05747233
233	0x3daa8366	0.083258435
234	0xbd870b5f	-0.06593966
235	0xbdafb79e	-0.08579944
236	0xbd8f145a	-0.06986304
237	0x3cd5628b	0.026047966
238	0xbd7d1033	-0.061783027
239	0xbdb64a35	-0.089008726
240	0xbd315636	-0.043295108
241	0xbc9ebeee	-0.019378152
242	0xbd7fb044	-0.06242396
243	0xbc12f7ff	-0.00897026
244	0x3d7ff12a	0.06248585
245	0x3d0fba7c	0.035089955
246	0x3cb208ac	0.02173265
247	0xbd0b9f54	-0.034087494
248	0xbcf2ad44	-0.029623635
249	0xbd9c5c0c	-0.07634744
250	0x3d76da13	0.060266566
251	0xbd6d117c	-0.057878003
252	0x3d5c3196	0.053758226
253	0x3d71fea3	0.05908073
254	0x3d1b6f65	0.03794803
255	0x3d60f962	0.05492533

0.module.6.bias f4 [8]
0	0xbce31728	-0.027721003
1	0x3bfe37dd	0.0077581243
2	0xbd9fe5d0	-0.07807505
3	0x3d950470	0.07276237
4	0x3c411fce	0.011787368
5	0x3deb9e33	0.115047835
6	0x3c8b74f2	0.017023537
7	0x3d058e6d	0.03260653
