datas/policy_gail.pth (torch, 152368 bytes, 8 tensors)

0.module.0.weight f4 [128, 24]
000000 fd 63 cb 3c 07 29 cd 3d 38 9a 22 be d1 0f 13 be
       0.024827952 0.10017591 -0.15879142 -0.14361502
000010 ef b1 cc bd 20 37 39 3d 21 ea 41 bd 5e 76 1c 3e
       -0.09994876 0.045218587 -0.047342423 0.15279528
000020 e2 ab 1f bd 2c df a0 3d 57 07 86 bd d7 da 8e bd
       -0.03898228 0.07855067 -0.06544369 -0.06975334
000030 d0 a6 48 be 97 8a 1f be 33 81 b3 bd df f2 84 3b
       -0.19594884 -0.15580212 -0.08764877 0.004057273
000040 b4 2d 9e 3d 0c f4 f3 3d f1 0d 11 be d1 d1 bc bd
       0.07723561 0.119117826 -0.14165474 -0.09219707
000050 ea 4e 91 3d 1b 58 2a 3e e8 66 3a bd 9b ac 18 3e
       0.0709513 0.16635172 -0.045508295 0.14909594
000060 e3 27 0b 3d 12 29 73 3c 27 72 49 3e 68 93 32 be
       0.033973586 0.014841335 0.19672452 -0.17439044
000070 03 4e 11 be 79 61 81 bd 9b c2 e4 bd c9 c0 35 3e
       -0.14189915 -0.063174196 -0.111699305 0.17749323
000080 c5 2e 15 be f0 5e a5 bd 9f 79 14 be 93 fb 8b be
       -0.14568622 -0.080747485 -0.1449952 -0.27340373
000090 1a 57 fd bd f1 94 16 3e 30 aa b2 3d 7f 99 c2 3d
       -0.12370129 0.14705254 0.08723867 0.09501933
0000a0 6b 35 df 3b 73 3e de bd 20 04 fc 3c 48 20 47 be
       0.006811788 -0.10851755 0.030763686 -0.19445908
0000b0 38 d8 1a be d7 d2 de bd 81 6b 00 3e 64 d9 00 3e
       -0.15121543 -0.10880058 0.1254101 0.12582928
0000c0 57 74 f4 bd 26 49 8d bc 3b b5 01 3e a8 48 75 3e
       -0.119362526 -0.017246794 0.1266679 0.23953497
0000d0 87 ba a7 3d 5e 36 a3 3c 62 45 3f 3e 78 0d d8 bd
       0.08189874 0.019923385 0.18678811 -0.10549444
0000e0 ff ef 37 3d 26 2f 2f be 70 10 0e be 75 8d e4 bd
       0.044906612 -0.1710783 -0.13873458 -0.11159793
0000f0 a3 80 d0 3d 82 83 9d 3d 35 1b 15 be 72 20 17 3d
       0.101807855 0.07691099 -0.1456116 0.036896177
000100 5b 91 b2 3d db e9 4f bd a5 38 8d bc fa 47 b7 3c
       0.087191306 -0.05076013 -0.017238924 0.022373188
000110 79 87 d0 3d 22 b0 2f 3e d2 23 39 be cc 3a b8 bd
       0.10182089 0.17157033 -0.1808007 -0.089955896
000120 60 c8 9e 3d 97 08 22 3e fa ca 41 3e cb 91 33 3e
       0.07753062 0.1582359 0.18925086 0.17536084
000130 00 ae ae 3d 62 d7 30 be 5b 4b 9c 3d d5 25 f8 bd
       0.085292816 -0.17269662 0.076315604 -0.12116591
000140 7b 3d 20 be e5 1d 0f 3e 88 50 28 3e 7e 98 38 be
       -0.15648453 0.13976248 0.1643697 -0.18026921
000150 ef 43 16 3d fb a7 6d 3b 91 66 4c 3b a3 aa 68 bd
       0.03668588 0.0036263454 0.0031189064 -0.056803357
000160 22 c1 eb 3d cc 91 ac bd 0c 2c e4 3d 04 2c 0f 3e
       0.115114465 -0.08426246 0.11141214 0.13981634
000170 f8 ef 3a 3e 5c b0 e6 3d 30 03 2a be 39 8d c2 bd
       0.18255603 0.11264107 -0.16602778 -0.09499592
000180 8e 46 fb 3d 6e d9 b4 bb d0 90 0b be ee a7 bf bd
       0.122693166 -0.0055190837 -0.1362946 -0.09358202
000190 82 3d 45 3e 2c 91 14 3e a0 cd a1 bd 8d 2c 4d bd
       0.19261745 0.14508504 -0.07900548 -0.050091315
0001a0 6f 62 4c be 1f e2 20 bc a6 af 1a be 20 6f 65 be
       -0.19959424 -0.0098195365 -0.15106067 -0.22405672
0001b0 02 80 6e 3c 6e 2c 4b 3b 5a de da bd 31 47 c8 3d
       0.014556887 0.0031001824 -0.106869414 0.09779204
0001c0 43 16 17 be 04 d7 25 3e fa 25 ef 3d 13 cc 47 be
       -0.14754586 0.16195303 0.11677165 -0.19511442
0001d0 a3 8f 96 bd 32 9b 57 bc 93 a5 e8 3b 88 04 1a 3d
       -0.07351615 -0.01315956 0.007099816 0.037601978
0001e0 8d 61 6f 3d 2c ff 37 3d e8 9b f7 bd 9f 94 46 3d
       0.05844264 0.044921085 -0.12090284 0.04848158
0001f0 2a fe 5e be f1 1e fb bd 56 32 cb bd d7 a9 d4 bd
       -0.21776643 -0.12261761 -0.0992171 -0.10383957
000200 62 cc b2 bd 7e 02 0e be bd 57 3b bd 32 2f c8 3d
       -0.08730389 -0.13868138 -0.04573797 0.09774627
000210 9d d1 15 be 2e 83 d3 bb 8c 25 19 3e 28 ca 8e bc
       -0.14630742 -0.006454847 0.14955729 -0.01743038
000220 0b f7 18 3c 06 eb 62 bc c1 81 38 3d 04 a4 08 3e
       0.009336243 -0.013849979 0.045045618 0.13343817
000230 f0 91 49 3e 35 e9 07 3e c9 f5 47 3e 10 84 ed bc
       0.19684577 0.13272555 0.19527353 -0.028993636
000240 47 07 22 be 37 ef da bd cc 44 21 3e 1b a7 05 bd
       -0.15823089 -0.10690158 0.157489 -0.032630067
000250 04 f4 8c bd 4b a9 15 be a5 77 50 be 5f 9a 37 be
       -0.0688248 -0.14615361 -0.20358141 -0.17929982
000260 ff 7a d3 bc 26 84 c2 3d 66 25 ff 3d 60 b8 4e be
       -0.025815485 0.094978616 0.12458305 -0.20187521
000270 9d 52 f1 3d 1f 93 0e be 1e 55 44 b9 1e e3 22 bd
       0.11783335 -0.1392331 -0.00018723725 -0.039767377
000280 fc 91 77 3b 32 9d 4e 3b 97 3c 0f be 49 2d 08 be
       0.0037776222 0.0031526801 -0.13987957 -0.13298525
000290 ed b2 38 3c a5 5e 3a 3d 46 29 50 bd 8a 66 ec 3d
       0.011273128 0.045500416 -0.05082061 0.11542995
0002a0 65 99 39 be 66 f3 2b bd 58 dd 3a 3e 5f 36 b8 bd
       -0.18124922 -0.04198017 0.18248498 -0.089947455
0002b0 f9 16 22 3e 71 5b bb 3d 80 37 5d be df c5 e5 3d
       0.15829076 0.091483004 -0.21603203 0.112193815
0002c0 85 80 3e bd 92 3c 83 bd 5d 1a 31 3e c2 df 38 be
       -0.046509285 -0.06408037 0.17295213 -0.18054107
0002d0 e3 f8 40 3d b3 76 84 bd cb 3c fe 3d f7 ef 10 3d
       0.047112357 -0.064679526 0.12413939 0.0353851
0002e0 60 cd 9c 3d 6c 72 4f 3d 6c 52 90 bd 5d 99 83 bd
       0.0765636 0.05064623 -0.07046971 -0.06425736
0002f0 25 1d 42 be 0f 52 b6 3d 4f 45 0e 3e 14 10 ed 3d
       -0.1895643 0.0890237 0.13893627 0.11575332
000300 5b 10 07 be d0 fc c4 3c ca fb 1e be 7d ef 20 be
       -0.13189833 0.024046332 -0.15525737 -0.15716358
000310 72 67 e9 bd b2 07 93 3d a0 a5 1f be db b8 97 ba
       -0.11396684 0.07179202 -0.15590525 -0.0011575477
000320 23 9a 3d 38 c2 26 0e 3e 6d 24 1f be 38 6b e4 bd
       4.5204662e-05 0.13881972 -0.15541239 -0.11153263
000330 aa d5 07 be c7 5d 1b 3e 2f 5f 3d bd 50 2e 4c 3e
       -0.132651 0.15172492 -0.046233352 0.19939542
000340 12 1f cf 3d 11 54 5a 3d 23 9f d4 3c 86 45 54 bc
       0.10113348 0.05330283 0.025954789 -0.012956029
000350 bc af 58 3d 71 10 a1 bc c2 25 bf 3c 64 d9 23 3d
       0.05290197 -0.01966116 0.023333434 0.04000224
000360 d7 65 27 be 21 7d 04 be 6b 7b 22 3e 8e 36 24 be
       -0.16347443 -0.12938358 0.15867393 -0.16036436
000370 ac bc 06 bc e2 92 51 3e bc e4 a7 3d dc 10 0f 3c
       -0.008223694 0.20466188 0.081979245 0.008732047
000380 99 f5 33 be db a2 d6 3d e8 21 15 be bc ac 7b bd
       -0.17574157 0.10480281 -0.14563715 -0.06144403
000390 54 d4 67 bd ef 28 05 bd fa 9b 46 3c 36 83 36 3e
       -0.056598976 -0.03250974 0.012122149 0.1782349
0003a0 d7 f0 10 3d 29 68 45 3e 78 0e 0a 3e ed cf f3 bd
       0.035385933 0.19278015 0.13482082 -0.11904893
0003b0 9b c5 cf 3d a0 b7 09 be 0d 05 a0 bd 17 93 8e 3d
       0.10145112 -0.13448954 -0.07813463 0.06961649
0003c0 11 13 23 3d 62 6c 0c 3e 76 35 7c bd 1d 41 94 3d
       0.039813105 0.1371322 -0.06157442 0.07238982
0003d0 d9 9d d4 3d 6d 39 56 be 9a 77 48 3e ad 53 25 be
       0.103816696 -0.20920344 0.19576874 -0.16145201
0003e0 09 dd 24 3c b8 bc 33 bd 97 d5 e8 bd 4b 05 68 3c
       0.0100624645 -0.043881148 -0.11368864 0.014161418
0003f0 8f 6d 3a 3e 65 e4 8f bd 48 fa 11 be 35 8c c6 bd
       0.18205856 -0.07025985 -0.14255631 -0.09694711

0.module.0.bias f4 [128]
000000 2d 49 3f 3e 37 ce 24 3e 11 40 46 be 1c a4 2e bd
       0.18680258 0.1609429 -0.19360377 -0.042636976
000010 c8 97 c8 3d 6c 33 06 be a2 9a a0 3d d0 7a e3 bd
       0.09794575 -0.13105553 0.07841994 -0.11107409
000020 b4 23 5e 3d 3b 73 df 3d 03 f7 55 3d d8 92 21 3e
       0.054233268 0.1091065 0.05223752 0.15778673
000030 44 24 f2 bc f2 53 d5 3d f6 e4 6c 3d 65 13 c0 bd
       -0.029558308 0.10416402 0.05783554 -0.09378699
000040 72 55 28 be 45 74 2e 3e 8e ab 8b bd 20 04 32 3e
       -0.16438845 0.17036541 -0.06819831 0.17384386
000050 7d a6 f2 3d d3 11 9c 3a b4 8f 14 be ab ef c6 bc
       0.11848161 0.0011907167 -0.14507943 -0.024284204
000060 e8 d6 ef bd a4 2c 80 3d 4f 33 8a bd b9 10 17 3e
       -0.11710912 0.062585145 -0.067480676 0.14752473
000070 ec a8 49 be 8d 63 81 bd 55 0f 59 3b 2c 9d 87 3c
       -0.19693345 -0.06317816 0.003312071 0.016554438
000080 43 73 f8 3d fc 2a 6c bd cc cb 32 be ee 8f dd 3d
       0.121313594 -0.05765818 -0.17460555 0.10818468
000090 5b f1 3e 3d 2f 2f 00 3e d1 98 03 be 14 6c c4 bd
       0.046616893 0.12517999 -0.12851264 -0.09590927
0000a0 99 56 96 bd 9e c4 ee 3c c6 c0 54 3d a8 3a e1 bd
       -0.07340736 0.029146489 0.051941656 -0.10997516
0000b0 5c 9e 37 bc 92 59 a0 bd 29 9d 68 3e 46 fe 72 bd
       -0.011207189 -0.07829584 0.22716202 -0.059324525
0000c0 f9 d7 59 3e 19 32 f7 bd 07 ac 7a bd 9f 73 f3 bd
       0.21273793 -0.12070102 -0.061199214 -0.11887287
0000d0 74 bd 01 3e 04 57 00 be fb 66 b5 3d 25 4f 61 bd
       0.12669927 -0.12533194 0.088575326 -0.05500712
0000e0 bd a5 39 3e 14 cd 20 3d c5 22 61 be e8 b0 7d 3d
       0.1812963 0.039258078 -0.2198592 0.06193629
0000f0 b8 81 f5 3c dd ee 4c be ff f9 09 3d 7d a0 45 3e
       0.029969081 -0.20012994 0.03368568 0.19299503
000100 ca 74 9a 3d 36 56 56 3c 00 d6 94 bd 71 9d 61 3d
       0.07541807 0.013082078 -0.0726738 0.05508179
000110 c2 d1 c3 bd 74 18 55 3e b9 fe 3f 3e 79 64 b1 3d
       -0.095614925 0.2081011 0.18749513 0.08661742
000120 88 70 d8 bd 17 d5 23 be 67 fd 1b be f4 c0 51 3e
       -0.10568339 -0.15999256 -0.15233384 0.20483762
000130 d9 dd 1e be 77 ec 66 be 12 4f 66 3b be be 03 3d
       -0.15514316 -0.22551142 0.0035142344 0.032164328
000140 57 71 40 be 45 60 2e be 84 a4 b8 3b 48 2b 85 bd
       -0.18793236 -0.17028911 0.005634846 -0.06502396
000150 c7 5e 0c 3e 09 dd f2 3c 4a 18 0a be d9 39 55 be
       0.1370803 0.029646413 -0.13485828 -0.20822848
000160 3a 52 13 3e fc 91 c4 ba 64 ae 78 bd 31 9d 8b 3d
       0.14386836 -0.001499712 -0.060713187 0.06817091
000170 5e 3b 36 bd 66 b7 a4 3d 8b d0 f9 3c 80 84 83 bd
       -0.04449021 0.08042793 0.030494949 -0.06421757
000180 e1 7d 0f be fd 4e 05 3e f1 e9 0a be 74 90 a7 bc
       -0.14012863 0.13018413 -0.13565804 -0.020454623
000190 1e 28 40 3d 9f 78 d9 bd 62 54 de 3d 08 96 00 be
       0.04691326 -0.1061871 0.108559385 -0.12557232
0001a0 b3 a7 27 3d 1b 92 30 3d 0e ba 8a 3d e2 7b 65 be
       0.040931415 0.043108087 0.06773768 -0.22410539
0001b0 d1 10 26 3c ce 1c c0 3d cd 92 15 be a0 eb 78 3d
       0.010135845 0.09380494 -0.14606781 0.060771585
0001c0 ae 1f 41 bc 12 b6 42 3e 3b 0f 50 bd 11 d3 a7 bb
       -0.011787338 0.19014767 -0.050795775 -0.0051215966
0001d0 b8 4b d4 bd 89 99 32 bd d8 28 2f 3d d3 12 3a be
       -0.10366005 -0.043603454 0.04276356 -0.18171243
0001e0 4e 03 19 3e 5e f6 f8 3d 7a 80 a5 3d 41 a2 14 3e
       0.14942667 0.12156366 0.080811456 0.1451502
0001f0 76 7d 81 bd 49 05 7f 3c 35 80 10 bc 40 75 1b be
       -0.06322758 0.015565225 -0.008819629 -0.15181446

0.module.2.weight f4 [128, 128]
000000 7e 2f 22 bd 13 c2 28 bd 76 ab 8b 3b b2 57 a1 bd
       -0.039596073 -0.04120071 0.004262383 -0.07878055
000010 aa 70 a7 bd db c1 e7 bc 66 16 86 bc 2d c4 b3 bd
       -0.08175786 -0.02829068 -0.016368102 -0.08777652
000020 80 37 69 bb 06 d7 1f 3d 54 f8 ad 3d 31 d9 61 3d
       -0.003558606 0.03902342 0.084946305 0.05513877
000030 f1 93 35 bd f3 57 03 bd 8a 96 25 bd f6 59 88 3c
       -0.04433054 -0.032066297 -0.04042677 0.01664446
000040 1e 97 22 3c d9 e2 c4 3b e3 c0 4f 3d c7 c9 4d 3d
       0.009923724 0.0060084877 0.05072106 0.050241258
000050 2d 67 35 bd 24 99 44 3d ad e5 67 3d bf 47 07 3c
       -0.04428785 0.04799761 0.05661552 0.008256852
000060 00 86 c5 bd a6 eb 35 bd 0b 0d 2d 3d 22 be 79 3c
       -0.09644699 -0.044414185 0.042248767 0.015243085
000070 7f 02 e6 3d f8 7f 0b 3b 94 d1 58 3d 75 3c bb bc
       0.11230945 0.0021285992 0.052934244 -0.022855977
000080 65 13 a4 3d eb 1f 09 bd b6 24 86 3d e6 8d 1f bd
       0.08011512 -0.033477705 0.06549971 -0.038953684
000090 e2 80 d7 bc 01 6f 0f 3d 50 6d 58 3d b1 8c b0 bc
       -0.026306573 0.03501797 0.052838624 -0.021551462
0000a0 a0 da 33 3b 98 fc 2f bd 78 41 3d 3d 05 74 50 3d
       0.0027443543 -0.0429655 0.046205014 0.050891895
0000b0 bf 29 16 3d 9b 8e 9f bd ff a9 7e bd a5 9b 80 3d
       0.036660906 -0.07790872 -0.06217384 0.06279687
0000c0 2a d5 c5 bc 05 98 7a 3d 2b d0 7f 3d ab df e6 bb
       -0.024149496 0.061180133 0.062454384 -0.0070457063
0000d0 81 7e 52 bd 52 3c 92 bd ec 21 44 3d 69 df fc 3c
       -0.051390175 -0.071404114 0.047883913 0.030868249
0000e0 69 75 e4 bc b2 b1 bf bd ee e3 65 bd 4c 21 03 bc
       -0.027888017 -0.093600646 -0.056125574 -0.008003544
0000f0 09 ae 25 3d 84 d7 ae bc 8c c4 71 bd a6 9d 8d bd
       0.040449176 -0.021343 -0.059025332 -0.06914835
000100 d4 9f c5 3d 2e e9 d0 3c 22 0d 73 bd 50 74 93 bd
       0.096496254 0.025501814 -0.059338696 -0.07199919
000110 41 4f 64 bd cb 59 b8 3b 81 3d 76 bd 54 81 80 3b
       -0.055739645 0.0056259385 -0.06011725 0.003921667
000120 db a7 e6 3b 85 3f b0 bd 07 18 93 bd 16 ce cb bd
       0.007039053 -0.086058654 -0.07182317 -0.09951417
000130 15 1c 37 bd 1f 56 7d 3c a1 f0 b8 bc 51 ee eb bb
       -0.044704515 0.015462427 -0.022575678 -0.0072000404
000140 54 65 b4 ba 62 3c d0 3d f8 a1 f9 bc a8 33 8d 3d
       -0.0013763108 0.10167767 -0.03047274 0.06894618
000150 f8 71 8e bd 4c e5 8f bd 74 5c d1 3c 4e b3 5e bd
       -0.069553316 -0.07026157 0.02555678 -0.054370217
000160 ea 8f 60 3d 52 90 7e bd 92 e9 84 3d f4 59 c3 3d
       0.054824747 -0.062149353 0.064898625 0.095386416
000170 fa 34 2a 3d 9c 29 d6 3c 93 34 bc 3d b0 7e 08 3d
       0.04155443 0.026142888 0.09189715 0.033323944
000180 b4 9b 9f bd 98 bb 8e bc 5c 34 86 bd 83 15 9e 3d
       -0.0779337 -0.017423436 -0.065529555 0.07718947
000190 03 aa d9 bc 04 ae 38 bb f0 fc 25 bd cf 12 57 bd
       -0.026570326 -0.0028179893 -0.040524423 -0.05250817
0001a0 8c 3b a6 bb a8 02 c2 3d de 2f 2e bd ae 16 b4 ba
       -0.0050730165 0.09473163 -0.04252612 -0.0013739669
0001b0 3d b2 e0 3d 62 6f d6 3d 78 39 9a bc ec 1a b6 3d
       0.10971496 0.10470463 -0.018826231 0.08891854
0001c0 fe b5 4f 3d db 03 92 3d 98 6d 0c 3c 8a 40 90 bd
       0.05071067 0.071296416 0.008571051 -0.0704356
0001d0 32 db 4c bc d7 01 b4 3c aa 39 7f 3d 76 04 a5 bd
       -0.012503432 0.021973534 0.062310852 -0.080574915
0001e0 54 41 88 3d dc a9 9b bd c1 e5 3f 3d 87 02 c5 3d
       0.06653085 -0.076007575 0.04684997 0.09619623
0001f0 39 3c 92 3c 43 f4 60 bc ff a9 86 3d 10 f1 5f bc
       0.017850982 -0.0137301115 0.06575393 -0.013668314
000200 84 5d 97 bd 9c be ab bd b0 9f 52 3d 06 d3 79 3d
       -0.073908836 -0.08385965 0.05142182 0.060992263
000210 c9 92 b9 bc 16 56 d5 bd cd b9 c5 bd 78 16 03 bd
       -0.022653 -0.1041681 -0.09654579 -0.03200385
000220 5e ec 16 3d ba 4c 83 bd b5 60 f3 3c 5a a6 99 bd
       0.03684651 -0.06411119 0.0297092 -0.07502432
000230 60 6a 8d 3d 83 47 8d bc e4 96 1f bc 4e 70 9e bd
       0.06905055 -0.017246014 -0.009740565 -0.07736264
000240 16 e3 b0 bd 20 f1 bd ba f7 21 6f 3c ff ef 34 3d
       -0.08637063 -0.0014491417 0.0145955 0.04417419
000250 3e de 8f bd fd 80 1a 3a bc e5 97 bc b3 0f 48 3d
       -0.07024811 0.00058938545 -0.018542163 0.048843097
000260 91 22 30 bd e0 9c 01 3d ab 47 3d 3d 33 3f 04 3d
       -0.043001715 0.03164375 0.046210926 0.032286834
000270 48 af 9c bb c3 79 22 3c a0 3f d9 b9 5b e6 bd 3c
       -0.0047816373 0.009916726 -0.0004143687 0.023181131
000280 39 6d 3b bd be 8e 93 bd 29 4b 72 bd 7d c5 45 bd
       -0.04575846 -0.0720496 -0.05915371 -0.048284043
000290 96 35 1d bd fd 34 50 3c bf f9 7e bc c6 ad 88 bd
       -0.03838118 0.012707946 -0.015562474 -0.0667377
0002a0 ab 9b 78 3c e8 b5 b5 bc 26 ce 6c 3d 94 fa a8 bd
       0.015173833 -0.022181466 0.057813786 -0.08250919
0002b0 21 90 02 bd 3b 21 53 bd 95 0c e6 3a 35 c0 3e bb
       -0.031875733 -0.051545363 0.0017551357 -0.0029106264
0002c0 56 90 1a bc 02 6b b1 3d 21 71 37 bd 8f 2b 36 bb
       -0.009433826 0.08662988 -0.044785623 -0.002779696
0002d0 33 97 e4 3c 0d a6 b3 3d ae 8c 8a 3d d4 e2 7b 3b
       0.027904129 0.08771906 0.06765114 0.003843476
0002e0 d0 db f7 bc 6c 7d 05 3d c3 ee 51 3d 14 3a 47 bc
       -0.030256182 0.032590315 0.05125309 -0.012159843
0002f0 16 97 69 3d d6 5a 83 3d e3 9a 69 bd 09 7d ff bb
       0.057028852 0.0641381 -0.057032477 -0.007796888
000300 27 d1 96 bd 65 b1 29 3c 41 c7 84 3d 23 e2 09 bd
       -0.073641114 0.010357236 0.06483317 -0.033662926
000310 0a b6 71 3c 7c f4 12 3d 69 54 1b bc 8a 79 ac 3d
       0.014752874 0.03587769 -0.009480574 0.08421619
000320 75 f0 f6 3c 3b 3e cc bd a2 2e 97 bd 95 e5 ba bd
       0.030143956 -0.09972807 -0.073819414 -0.091258205
000330 7e ef 15 bb b1 74 6d 3d 99 80 b6 bc 4a ee 9f 3d
       -0.0022878344 0.057972614 -0.022278117 0.07809122
000340 d3 97 90 bc 0a 43 b8 3c c4 16 9c 3d 2a df 4b 3d
       -0.01765052 0.022492904 0.0762153 0.049773373
000350 2f 14 65 3b 94 87 ae 3d b0 77 5e bd 46 cd 1a 3d
       0.0034954657 0.08521953 -0.05431336 0.03779342
000360 d7 95 87 3d 3a c9 90 bd fd 82 ab bd a9 a1 7e 3c
       0.066203766 -0.07069631 -0.083745934 0.0155414725
000370 ec 3c 9a bc 89 d8 2b bd 4d 90 cd 3c 10 5d 8e bd
       -0.018827878 -0.04195455 0.025093222 -0.06951344
000380 48 62 a1 3d 11 78 86 bc e3 80 de bc 0c ef 8c 3d
       0.07880074 -0.016414674 -0.027161067 0.06881532
000390 8b db 74 3c 0d 3b 0e 3d e3 ab ef bc 73 33 87 3d
       0.014944921 0.034724284 -0.029256767 0.0660161
0003a0 01 47 17 bd 28 cb a8 3d 9d 64 30 bb 09 1a 13 3d
       -0.03693295 0.08241874 -0.002691544 0.0359135
0003b0 19 db 97 3d 9d f2 6e bd a3 09 50 bd f3 c0 9d bd
       0.074148364 -0.058336843 -0.05079044 -0.07702818
0003c0 5c 58 be 3d 12 78 9b 3d 6e 7d 05 bd d3 0e 0e bd
       0.09294197 0.07591261 -0.032590322 -0.034682106
0003d0 f1 fe bb 3c fd cd 20 3d 2a 1b 4c 3c dd 69 d9 bc
       0.022948714 0.039258946 0.012457648 -0.026539737
0003e0 6e 2f 58 bd 19 2f aa 3d 44 81 74 bd 78 11 af bd
       -0.052779607 0.083097644 -0.05969359 -0.08548254
0003f0 f1 40 34 bd 6d 1f be 3c 4d 8b 08 3d 2e 56 5c 3d
       -0.044007245 0.023208344 0.033335973 0.053793125

0.module.2.bias f4 [128]
000000 b8 9e 7b 3d bc db 4e 3d 7d a2 e8 3c 4e 1c 8f bd
       0.061430663 0.050502524 0.028397793 -0.069878206
000010 2c d0 39 3d 70 e3 32 bd 3c 3f 11 3d 75 52 5f bd
       0.045364544 -0.043673933 0.035460696 -0.054521997
000020 ae 78 af 3c b7 94 23 bc f5 71 52 3d 4c 83 c1 3a
       0.02141985 -0.009984187 0.05137821 0.0014763861
000030 b0 1b 44 3d 54 66 b0 bd b3 18 06 3d 2d 8a bf bd
       0.047877967 -0.086132675 0.0327384 -0.09352527
000040 b7 8d 9f bd 26 6d 9a bd d6 3f 82 bd 1d ab a9 bc
       -0.07790702 -0.0754035 -0.06359832 -0.020711476
000050 14 70 0d 3d d7 41 be 3c 38 1a d7 bc 21 19 10 3d
       0.034530714 0.023224754 -0.02625762 0.035180215
000060 63 c1 9c bd 34 90 91 3d 00 e7 5f bd db a9 3c bd
       -0.07654073 0.07107583 -0.05466366 -0.046060424
000070 3c cd bb 3c 88 15 4e bd e2 24 ee 3c 1d db e7 bc
       0.022925012 -0.050313503 0.029070321 -0.028302724
000080 aa 03 35 3d e0 e5 b5 bb d9 44 26 bd b3 6e 1c 3c
       0.044192947 -0.005551085 -0.040593002 0.009547877
000090 1a 59 38 3d 63 1c 65 3d ff 6e b9 ba b5 e4 5f 3d
       0.04500685 0.055935275 -0.0014147459 0.05466147
0000a0 a8 f8 28 bd 50 41 76 bc 75 5f c1 bd ad d4 9e bd
       -0.041252762 -0.01503022 -0.09442035 -0.077554084
0000b0 fb 02 98 bd 79 45 83 bd ca 0b eb 3c 16 45 52 bd
       -0.074224435 -0.06409735 0.028692145 -0.051335417
0000c0 e3 43 b1 bd dc 3d ad bd 7b ca a8 bd b9 7d 5d 3c
       -0.086555265 -0.08459064 -0.08241745 0.013518744
0000d0 3a fc 18 bd 05 97 1a 3c 3e 07 15 3d 6d 33 96 3d
       -0.037349917 0.00943542 0.03638386 0.073340274
0000e0 f1 01 20 bd 15 49 63 3d b9 dc df 3c 7f 33 38 3c
       -0.03906435 0.05548962 0.027326928 0.011242746
0000f0 e8 47 ca bc 78 36 cb 3c 32 70 d4 3b 45 11 f1 3c
       -0.02469249 0.024806246 0.0064831013 0.02942718
000100 e7 31 96 bd dd ad 33 bd e6 ac dd bb 89 42 ad bd
       -0.07333737 -0.04386698 -0.006764996 -0.08459956
000110 68 46 89 bd 6a 54 52 3c 6e 42 c5 bd 73 5d 46 3d
       -0.06702882 0.012837509 -0.09631811 0.048428964
000120 26 5d a9 3d 82 cc 3e bc a1 8c 52 bc a5 aa 65 bc
       0.0826972 -0.011645438 -0.012850911 -0.014017736
000130 a4 b8 0b bd 08 ca 8f 3d 65 b7 0b bd 4a 5f 69 bd
       -0.034111634 0.07020956 -0.034110446 -0.05697564
000140 d6 04 26 bd 8a 02 cb 3a e9 4c 4b bd 11 46 90 bc
       -0.040531956 0.0015488428 -0.049633894 -0.017611535
000150 dd 01 8d bc 52 94 94 3d 5f f6 68 bc ea de a5 3c
       -0.017212803 0.07254852 -0.014218896 0.020247895
000160 d9 88 32 ba eb 71 dc ba dc 12 a3 bd bd 32 92 3c
       -0.0006810553 -0.0016818618 -0.079625815 0.01784646
000170 16 db 81 3d 00 59 ed b8 b1 fb 47 bc 3b fc 27 3d
       0.063406155 -0.00011317618 -0.012206004 0.04101203
000180 49 d2 79 3b 89 76 e8 bc 04 94 05 3d 20 c1 1d 3d
       0.0038119724 -0.028376834 0.03261186 0.038514256
000190 c6 58 25 3d 42 ca 1b bd 62 95 c0 3c b6 4e 56 bd
       0.040367864 -0.038034685 0.023508731 -0.05232116
0001a0 39 bf f7 3c 17 8d 1d bd ec 7c e5 3b 7e ea a1 3c
       0.03024255 -0.038464632 0.0070034172 0.019765135
0001b0 ac 97 67 bb f1 c7 b7 bd 2e 23 95 bd b6 a9 fc bc
       -0.0035338206 -0.08973683 -0.072821006 -0.030842643
0001c0 ef 17 4f bd 79 15 bb bd 2e 5c 5a bd b5 3f 19 bd
       -0.050559934 -0.09134955 -0.053310566 -0.03741427
0001d0 64 15 99 bd 56 7f 2d 3d cd a1 13 3d 6b f6 a1 bd
       -0.07474783 0.042357765 0.036042977 -0.079083286
0001e0 53 13 2c bc 67 c2 b2 3a b0 16 82 3c 79 ba 0d 3d
       -0.010502654 0.0013638259 0.015879959 0.034601662
0001f0 ba 58 38 bd 6c d1 c9 3d 6d c7 84 3d 4d af b3 bd
       -0.04500649 0.09854397 0.0648335 -0.0877367

0.module.4.weight f4 [128, 128]
000000 27 84 ca 3b d4 79 b5 3c cf 59 11 bc c5 69 60 bb
       0.0061803046 0.022152819 -0.00887151 -0.003424273
000010 42 b2 7d bc 38 2e 0d 3d 19 53 79 bd a1 59 82 3c
       -0.0154843945 0.034467906 -0.060870264 0.015911879
000020 f5 68 d1 3d 19 f2 10 3d d1 49 d0 bd 0a 3d f0 3c
       0.10225097 0.035387132 -0.10170329 0.02932598
000030 45 57 3e 3c b4 7c 07 bc 57 36 8d 3d 57 03 4d 3d
       0.011617486 -0.008269478 0.0689513 0.050052013
000040 f9 a9 40 3d 48 66 59 bd f0 05 a8 bd cb fc ba 3b
       0.0470371 -0.05307606 -0.082042575 0.005706405
000050 ad c6 a1 3d 34 af 62 bd be 47 82 3d 66 d8 9f ba
       0.078992225 -0.055342868 0.0636134 -0.0012195229
000060 be b2 1f bc 05 a5 5d bd e9 af 55 3d a3 64 c2 3c
       -0.009747205 -0.054112453 0.052169714 0.023729628
000070 b4 87 92 bd 85 d4 97 3d 66 30 10 bd a2 69 80 bd
       -0.071547896 0.07413582 -0.035202406 -0.06270148
000080 0b 2d 1f bb 54 67 78 3d 85 47 9e 3d 99 47 4a bd
       -0.0024288322 0.060645416 0.07728485 -0.049384687
000090 a0 18 e7 3c a9 3f bf 3c 53 ab 2c 3d ab 60 3a bd
       0.028209984 0.023345785 0.042155575 -0.045502346
0000a0 ed 5e b8 bd 4f 29 64 bd 91 01 77 bc ad fc 2e bd
       -0.09002481 -0.055703457 -0.015076057 -0.04272144
0000b0 da e4 71 3d 2d 45 ac bd 2c d1 8e 3d 2a 4d bb bc
       0.05905614 -0.08411632 0.0697349 -0.022863943
0000c0 ef aa 83 3d 12 d5 b4 bd 29 4c df ba c0 8a 7e bd
       0.06429087 -0.088297024 -0.0017036247 -0.06214404
0000d0 5b 22 93 bd 8d 73 79 3d 25 1b aa 3d 04 0f 01 bd
       -0.07184287 0.060901213 0.08305959 -0.03150846
0000e0 38 30 18 bd 2b 70 af bc ee 79 85 bd c1 06 6c 3d
       -0.03715536 -0.02141579 -0.06517397 0.05762363
0000f0 ab 67 e6 3a 55 8b 8a bc 51 7c 3c 3d 94 5d 1d bc
       0.0017578503 -0.016912142 0.046016995 -0.00960483
000100 0b 0e 1f bd c3 81 73 bd 17 84 ed bc 52 2d 90 3d
       -0.03883175 -0.059449922 -0.02899365 0.07039894
000110 b4 5e 24 3d 52 c6 23 3d f3 bb 4d bd ad 40 a7 bd
       0.04012938 0.039984055 -0.05022807 -0.08166633
000120 98 04 f1 bb b5 32 8f bd 1e e7 f7 3a a9 7e e6 3c
       -0.007355284 -0.069920935 0.0018913483 0.028136568
000130 e2 76 4e 3d 61 36 6d bd 0f 2b da 3c 0f 9d 37 3d
       0.050406344 -0.057913188 0.02663186 0.044827517
000140 6b e4 bd bc f6 24 b9 3d 00 ee 83 3d c9 52 7d bd
       -0.023180207 0.09040253 0.06441879 -0.06184653
000150 d4 de 50 3c e0 f1 8a 3d 68 21 22 bd 97 ff ef 3c
       0.012748439 0.06784415 -0.03958264 0.02929668
000160 e4 84 a5 3c 2b a6 06 3d f5 c7 8a bc 82 e6 50 bd
       0.020204969 0.032873314 -0.01694105 -0.05100108
000170 2e 0a e8 3b 78 8f 09 3d 40 18 90 bc e8 7d 0f 3d
       0.0070812916 0.033584088 -0.017589688 0.035032183
000180 7d 33 10 bc ea 2d 16 bd 60 8b 87 bd 27 c8 66 bd
       -0.008801338 -0.03666488 -0.066183805 -0.056343224
000190 df 98 6c 3d 43 e8 ec bb 02 ee 62 3d 80 be 44 3d
       0.057762977 -0.007229836 0.055402763 0.048033237
0001a0 5a e7 23 bd 46 37 c7 3c 7f 51 9e 3c 32 e4 22 3d
       -0.040015556 0.024318349 0.01932597 0.039768405
0001b0 7b d9 8a bd da 18 09 bd 2c ca 22 3d 16 bc c2 bd
       -0.06779762 -0.033470966 0.039743587 -0.09508531
0001c0 ad 9d b4 3c 4f 0e fe 3c 8d 6b db 3c 90 7b 27 3c
       0.022047842 0.031012682 0.026784683 0.010222331
0001d0 f7 95 f8 3c 0f fe 5b bd c8 da 0b 3c 34 68 53 3d
       0.030344946 -0.053709086 0.008536048 0.051613048
0001e0 6f 96 7e bd a0 db 92 3d 19 54 67 bd 7f a3 6d 3c
       -0.062155183 0.071707964 -0.056476686 0.014504313
0001f0 47 9c 50 bc 6d 28 b9 3b 80 47 ba 3d 41 a1 95 bc
       -0.012732572 0.005650571 0.09095669 -0.018265368
000200 37 9a b6 3d 19 c0 70 bd 90 11 68 bb 88 96 97 bd
       0.08916133 -0.05877695 -0.0035410859 -0.074017584
000210 89 a9 1d bd b5 fe 8c 3d 1b 79 80 bd 13 57 4e 3d
       -0.03849176 0.06884519 -0.06273099 0.05037601
000220 0c 02 75 bd da 26 b8 3d d8 e1 a9 3b 0d a7 55 bb
       -0.059816405 0.08991785 0.0051843934 -0.003260079
000230 3d dd ab 3d 9c 5f 1e bd a9 0c 69 3d 54 bf cb 3c
       0.08391807 -0.0386654 0.05689684 0.024871506
000240 14 9a 6a 3d 25 2e df bc 5d 08 f7 3b de 40 f5 bc
       0.057275847 -0.027243683 0.007538839 -0.029938158
000250 fd 18 22 bd b4 a6 89 bd 63 8e 67 bc ef e2 aa 3d
       -0.039574612 -0.06721249 -0.014133069 0.083440654
000260 7d a6 03 3b bc be bf 3c 0e 65 83 bc 01 35 9c 3a
       0.0020088248 0.023406379 -0.016039398 0.0011917652
000270 b5 d8 9c 3d ad 94 b3 bd 9a a2 22 bc 2b 4d be bd
       0.07658521 -0.08768592 -0.009926463 -0.09292062
000280 a3 d1 e4 bc a3 48 98 3d 7f 86 3f 3d 0f be 1c bd
       -0.027931994 0.07435729 0.046759125 -0.03826719
000290 dd 5d f0 3c 1a a6 bb 3d b9 fd 83 bd 7e 0b 33 3d
       0.029341633 0.09162541 -0.06444878 0.04371213
0002a0 b4 0b 8c bd d5 51 4f bc 70 a5 a6 3b 5c 9b 18 bc
       -0.0683817 -0.012653788 0.0050856397 -0.009314384
0002b0 9c 7e 6b bd 64 04 73 bd 8d 7e ad bc 8e 5d 29 bd
       -0.05749379 -0.05933036 -0.021178508 -0.041348986
0002c0 2b 88 95 bd 65 af 04 3d 0d 88 95 3c 2f 9f 87 bd
       -0.073013626 0.03239383 0.01825335 -0.06622159
0002d0 06 36 70 bd 63 61 93 bd 31 44 2c bd f3 2e 79 3c
       -0.05864527 -0.071963094 -0.04205722 0.0152089475
0002e0 4a df 54 bd ff da 9c 3d 7b a4 ee 3c 5b ec 44 3d
       -0.051970758 0.07658958 0.029131165 0.04807697
0002f0 2c 76 02 3d 1b 55 27 bd 37 1d b4 3b 40 17 9c bd
       0.03185098 -0.040852647 0.0054966467 -0.07621622
000300 ec fc 6d bd 18 b2 12 3d cc ef 9f bd dc c5 49 3d
       -0.058102533 0.035814375 -0.078094095 0.04926096
000310 20 7c 22 3c 5d 9c b5 3b b8 a6 7f bb 66 fe d1 bc
       0.009917289 0.0055423216 -0.0039009284 -0.025634002
000320 ac 70 61 3c 8b 22 d0 3c e4 c8 b1 bc 28 e5 17 bd
       0.013759773 0.025407096 -0.021702237 -0.037083775
000330 f5 4f 1a bd 81 60 4e bd 01 21 a9 bd ee 7c 6e bd
       -0.03767391 -0.050385002 -0.08258248 -0.05822461
000340 c8 e6 d5 bc 3a 7b 52 3d 3a b5 4c 3d c9 7f 0e bd
       -0.026111022 0.05138705 0.04997752 -0.034789834
000350 6c c8 ae 3d f2 00 35 bd 0c cf ee 3c 80 1a c2 3d
       0.08534321 -0.044190355 0.029151462 0.09477711
000360 25 16 5c 3c 8f 70 1e bd 3a af c0 3c a2 ab cf bd
       0.013433014 -0.038681563 0.023521055 -0.10140158
000370 02 d0 46 3d f5 30 52 bd 6c 73 8b 3d 66 1e c0 bc
       0.048538215 -0.05131622 0.06809124 -0.023451995
000380 a1 f6 00 3c 51 b0 3b bd e8 fa a0 bd 66 91 c1 3d
       0.007871301 -0.045822445 -0.078603566 0.09451561
000390 b7 b1 8a 3d d6 cb 89 3d 78 39 81 3d 2c 7a 8f 3d
       0.06772178 0.06728332 0.063097894 0.07005724
0003a0 de 0c 8e 3d 04 be dc 3c 61 9f 05 3b e8 7b a4 bd
       0.06936048 0.026946075 0.0020389187 -0.08031446
0003b0 6c 4a 1d 3d 10 5b 38 bc af dc b9 3b 16 48 41 3c
       0.038401052 -0.01125218 0.0056720595 0.011796972
0003c0 be 52 0e bd 99 2b 97 3d 13 a0 13 3c 22 71 98 bd
       -0.034746878 0.073813625 0.009010333 -0.07443453
0003d0 9f 4d 94 3c 7f 86 b1 3d 86 e0 45 bd 99 19 ae bb
       0.018103419 0.08668231 -0.048309825 -0.00531311
0003e0 38 c2 b4 bb fc c8 b5 bd cf fe 86 3d 37 8d 86 bd
       -0.0055163167 -0.08876225 0.0659157 -0.06569903
0003f0 41 38 ad bc 93 93 5a bc 54 20 67 3d c8 e0 8b bd
       -0.021144988 -0.0133408485 0.056427315 -0.06829983

0.module.4.bias f4 [128]
000000 72 a4 ac 3d f3 70 7a 3d 98 17 72 3d dc 0c 6a bd
       0.08429803 0.061142873 0.059104532 -0.05714117
000010 4e 27 24 3c ad 01 5e 3d 9f d9 cb 39 1a 00 e3 3c
       0.010019137 0.054200817 0.00038881318 0.02771001
000020 8a 84 b1 bd b1 a8 96 bc ea 3e 5a bd 3a 1a d1 3d
       -0.08667858 -0.018390985 -0.053282656 0.102100804
000030 e6 4a 40 bd b4 02 c0 bc 80 dd 31 bd 6c f2 35 3d
       -0.04694643 -0.023438789 -0.04342413 0.044420645
000040 ed e0 5a 3d 01 d6 2e bd a9 9d a1 bd 3e a4 6a bd
       0.053437162 -0.04268456 -0.078913994 -0.05728554
000050 c0 c2 8a bc 2e 57 4a bd 23 02 bd bd a8 9e a7 3b
       -0.016938567 -0.049399547 -0.09228923 0.005115349
000060 90 82 bd bc 8c 63 fa bb fe 40 20 3d 83 db 26 bd
       -0.023133546 -0.0076412614 0.03912448 -0.040736686
000070 86 74 44 bd 06 76 7f 3d 10 2d 88 bd e2 04 87 3d
       -0.047962688 0.062368415 -0.0664922 0.06592728
000080 32 7d 4a bd 5b 07 c2 3b cd e9 1c bd d2 17 4f bd
       -0.0494358 0.005921287 -0.038308907 -0.050559826
000090 ef 43 af 3c d2 12 e0 3d 23 d7 b6 3b f0 71 b0 3d
       0.021394698 0.1094109 0.0055798455 0.08615482
0000a0 53 f7 89 bc a8 c3 ac 3d 19 5c c2 3c 38 df 91 bd
       -0.016841566 0.08435756 0.023725556 -0.07122654
0000b0 cb d6 04 3d a8 ec 16 3d a9 8c e1 bc b9 71 44 3c
       0.032431405 0.036846787 -0.027532892 0.011990004
0000c0 fe 26 20 3d 6f 60 07 bb c1 3f 25 bd 52 9d 9c 3d
       0.039099686 -0.0020656844 -0.040344004 0.07647194
0000d0 a5 fa ca bc 56 3b 35 3d 1e ec 2c bd 3f 96 98 3d
       -0.02477772 0.04424604 -0.042217366 0.07450532
0000e0 78 22 56 bd b5 73 d8 bc 04 0f 7c bd d3 0d 29 3c
       -0.052278966 -0.02642236 -0.061537758 0.010318237
0000f0 48 d0 41 bc ae 8c 47 3d 28 49 34 3d 04 cf f5 bc
       -0.011829443 0.048718147 0.04401508 -0.03000594
000100 b8 2f c9 3c 71 be e0 bc d8 88 90 3c 0d 28 45 ba
       0.024558887 -0.02743456 0.017643377 -0.00075209216
000110 a4 55 65 bd 09 d5 b1 bd 02 d9 a2 3d 5f 46 4c 3d
       -0.055989876 -0.08683211 0.07951547 0.0498718
000120 29 6c 20 bd 9e a1 52 bd e3 16 76 3c cd 0d ed 39
       -0.03916565 -0.05142366 0.015020105 0.00045214445
000130 c7 46 a1 bd 22 0f 39 bc 78 ff 23 bd 70 3e 76 3d
       -0.07874828 -0.011295112 -0.040038556 0.06011814
000140 fb ac 6e 3d 27 16 5f 3d 81 7e 5f 3d 58 5b 86 bc
       0.058270436 0.054464485 0.054564003 -0.016400978
000150 88 c2 98 3c d1 52 50 bd 85 a4 8a 3d 79 e5 35 3c
       0.018647447 -0.05086023 0.06769661 0.011102074
000160 ff 36 85 3d 8c ff ef 3c 90 37 cc 3c 7e af 26 bc
       0.0650463 0.029296659 0.024928838 -0.010173677
000170 63 25 dc bc 65 cb 60 bd 89 b9 49 bd 98 16 29 bd
       -0.026873296 -0.054881472 -0.049249206 -0.041281313
000180 6b aa ce 3d fe a1 81 bd e6 6a a1 bd 37 3f 5f bc
       0.100910984 -0.06329726 -0.078817174 -0.013625911
000190 7c 1e 8f 3d 19 5b 15 bd 4c 34 e2 bc 5c 96 a3 bd
       0.06988236 -0.03646383 -0.027612828 -0.07987663
0001a0 68 87 ad bd 82 81 e4 3c 37 fc 46 bc e9 95 92 3c
       -0.08473092 0.027893785 -0.012145094 0.017893748
0001b0 be 17 f4 bc e6 a1 d2 bb 56 af aa bd c5 e7 63 3c
       -0.029796477 -0.006427991 -0.08334224 0.013910239
0001c0 4e 4f 3d bd 50 3f 65 bd 58 ea 20 bd 3c b7 19 3d
       -0.04621821 -0.055968583 -0.039285988 0.03752826
0001d0 62 d2 21 bd b0 15 ca bd 61 66 34 3d f6 aa 80 3c
       -0.039507277 -0.09867418 0.04404295 0.01570652
0001e0 d7 02 85 bd 2e 8f 82 3d bb 4e a7 bd b8 d2 9b bd
       -0.06494682 0.063749656 -0.081693135 -0.07608551
0001f0 42 16 05 bd 2a 9a 03 bd 11 17 14 3c 01 11 86 bb
       -0.03249193 -0.032129444 0.009038703 -0.0040913825

0.module.6.weight f4 [8, 128]
000000 2a 4f bf 3d 90 94 1c bd cd 32 ca 3d 1a f7 a3 bd
       0.09341271 -0.038227618 0.09872971 -0.08006115
000010 c7 9d d4 3c f4 7c 85 3d fb 77 27 3d bd f4 23 3c
       0.02595414 0.065179735 0.040885907 0.010007081
000020 28 d0 8a 3b 9b 4b 87 3c 73 1a 70 3d 9d a0 00 bd
       0.00423624 0.016515544 0.058618974 -0.031403173
000030 ee c5 79 bd 78 37 18 bd b1 c3 ba bd fe 5f a9 3b
       -0.060979776 -0.037162274 -0.091193564 0.005168914
000040 fe f9 c5 ba ad a4 3f bd 37 f3 95 bd cc 74 1a bd
       -0.0015104411 -0.046787906 -0.0732178 -0.037709042
000050 80 16 eb 3c de f3 11 bc 8b 13 7c bd 57 e9 a6 3c
       0.028697252 -0.00890824 -0.061542075 0.020374937
000060 4f d1 64 bd 25 1d 57 3c 0a dc 34 bc 50 13 a4 3c
       -0.055863675 0.013129507 -0.0110387895 0.02002874
000070 c5 f6 b7 3c e5 7c bf 3b 3a 04 95 bd 7b 17 82 3d
       0.022456536 0.005843746 -0.07276197 0.06352135
000080 25 9d ca 3b a6 5b 77 bb 75 00 30 3d a0 4f 6a ba
       0.006183284 -0.0037743836 0.042969186 -0.00089382567
000090 c6 e1 a1 bb c5 4e c8 3d ac 32 85 bd 44 e3 28 3d
       -0.0049402444 0.09780649 -0.065038055 0.041232362
0000a0 5d f2 7f bc a9 05 b9 3d eb 42 e6 b9 27 3c 89 bd
       -0.015621749 0.09034283 -0.00043918876 -0.06700926
0000b0 a8 e2 dd 3c 7b 31 9e bd 74 63 a0 bd 37 d2 77 bc
       0.027085617 -0.077242814 -0.07831469 -0.015125803
0000c0 f6 40 bf bc 5d b3 dc 3c 78 34 1e bd fc ae 71 bd
       -0.023346405 0.026940996 -0.038624257 -0.05900477
0000d0 e4 31 b5 3d a7 e4 74 3c 5f a4 f6 3c ed c1 5c bd
       0.088474065 0.014947093 0.030107675 -0.05389588
0000e0 69 e6 02 bd a3 cc 7a 3b 18 30 69 3d 7c 14 4d 3d
       -0.031958017 0.0038268946 0.05693063 0.050068364
0000f0 1d 68 60 3d 6f 5a 99 3d 1d 12 43 bd f3 13 91 bc
       0.05478679 0.07487952 -0.047624696 -0.017709708
000100 00 9e 0d bd 72 f7 b0 3b 4a 27 9c 3d de b4 91 bd
       -0.03457451 0.0054005915 0.07624681 -0.07114576
000110 be 8e 0c bd 9f 8c 19 3d 96 09 87 3c 63 29 71 bd
       -0.034315817 0.037487622 0.016484063 -0.05887736
000120 71 4f ed bc 64 ce 8a bd bd 65 50 bd c3 a4 15 3c
       -0.028968545 -0.06777647 -0.050878275 0.009133521
000130 bb 1c c1 bc cf 12 90 bd 1b 00 ab bd be 4f ea 3c
       -0.02357327 -0.070348375 -0.083496295 0.028602477
000140 87 25 97 3c e1 8d 6c bd a3 03 9d 3d 70 c5 f3 3c
       0.018450512 -0.057752494 0.07666709 0.029757231
000150 8f a4 77 bc b1 b6 f1 3c 17 11 88 3d ad dd bb 3d
       -0.015114917 0.02950606 0.06643885 0.09173141
000160 b9 b0 9b 3d 0b 51 96 3d 74 91 49 3d 9b e9 78 3c
       0.076020665 0.073396765 0.04921098 0.015192415
000170 02 8f 7c 3d 4f d6 1a 3d 86 52 4c 3c bc 62 2a bd
       0.06165982 0.037802037 0.012470847 -0.041598067
000180 92 eb c9 3d d0 31 92 bd 4a 98 7e bd 64 12 14 bc
       0.098593846 -0.07138407 -0.062156953 -0.009037588
000190 bf 2e 11 3d dd ee 02 bc 40 b7 91 3c 70 88 2c bd
       0.03544497 -0.00799152 0.017787576 -0.042122304
0001a0 40 a0 05 bd 48 d0 9b 3d dd a4 5a bd df 93 6d 3d
       -0.03262353 0.07608086 -0.053379882 0.05800235
0001b0 eb fd 28 3d 2f df d7 bc 81 58 2a bd 44 a7 e4 bc
       0.04125778 -0.02635154 -0.04158831 -0.02791179
0001c0 0b 48 5c bc 0a 9f 72 bd 5e b0 0e bd 5d 82 10 3d
       -0.013444911 -0.059233703 -0.034836166 0.035280574
0001d0 69 a7 53 bd 26 88 6f 3d fb 50 08 3d 02 0c a9 bb
       -0.051673327 0.05847945 0.033280354 -0.005158902
0001e0 ce 71 bb bd 21 41 1f 3d 03 58 26 bd 02 db 84 bd
       -0.09152566 0.03888047 -0.04061128 -0.06487085
0001f0 93 bf 31 bd 57 64 91 3d fa 27 88 3d 59 d0 a2 3c
       -0.04339559 0.070992164 0.0664825 0.019874739
000200 25 2e 88 3d 45 24 2b bc 55 ff 85 bd 8c 1b 0e bd
       0.06649426 -0.010445659 -0.06542841 -0.03469424
000210 4e 58 e9 3d b7 f0 6d bd 8a fb 81 3c 5a b1 93 bd
       0.11393796 -0.05809089 0.015867013 -0.072115615
000220 1b 7f c9 bd a7 fc b9 3b 97 89 37 3d 2a 22 9d 3d
       -0.098386966 0.0056758705 0.04480895 0.07672532
000230 76 b5 6c bd b3 95 02 bd 1b a0 87 bd dd 66 ff 3b
       -0.057790242 -0.031881046 -0.066223346 0.0077942447
000240 b9 c4 33 3d f2 52 dc bc 74 db 76 3d 5b e0 61 3d
       0.04388878 -0.02689502 0.06026788 0.055145603
000250 3c 08 91 bc 54 45 db bc 06 56 9a 3d fd c7 0c 3d
       -0.017704122 -0.026766457 0.07535939 0.03437041
000260 3e d2 1e bd aa 6b 33 bd 2b 4b 80 3d 21 06 52 bd
       -0.03877472 -0.04380385 0.06264337 -0.051275376
000270 3a 74 5a bd f6 6a c5 3d e2 22 96 3c 20 fd 75 bd
       -0.0533335 0.09639542 0.01832718 -0.060055852
000280 f1 fe 56 3a 5e 7b ad bc 0d db 55 3d 4c ec 29 bd
       0.00082014414 -0.02117699 0.052210856 -0.041485116
000290 f2 9f da 3c e3 97 af bd 8e 5e b7 bb 2b 55 4a 3b
       0.026687596 -0.08573892 -0.0055959886 0.0030873518
0002a0 62 ac 22 bd b5 09 2f 3d f4 22 a2 bd fa 4d b2 bd
       -0.03971518 0.042733867 -0.07916823 -0.08706279
0002b0 c2 37 84 3d 15 ec 3f bd 31 34 7c 3d 3d a3 b0 bd
       0.064559475 -0.046856005 0.06157321 -0.08624885
0002c0 4b 35 f8 3c a2 30 8b 3b 37 44 ce 3c 6b 59 54 bd
       0.03029885 0.004247741 0.025179012 -0.051843088
0002d0 e6 f6 92 3d e8 1b a3 3d 60 a7 36 3d a5 88 59 3d
       0.071759984 0.07964307 0.044593215 0.05310883
0002e0 d9 a1 a6 bd f2 05 4f 3d aa 4f c1 bd 8e 5c 97 3c
       -0.08136339 0.05054278 -0.09439023 0.01847675
0002f0 00 a3 c5 bc 40 5e 12 3d f1 a6 48 bd 4c 5c 37 3c
       -0.024125576 0.035734415 -0.048987333 0.011191439
000300 4c 5f b7 3d 02 60 31 3d 47 b5 59 3c 03 d2 27 3d
       0.08953723 0.04330445 0.013287849 0.040971767
000310 4a ee ac bd 1a ab a0 bc 9d 4a a5 3c 24 80 fe bb
       -0.084438875 -0.019612838 0.02017718 -0.0077667404
000320 44 69 16 3d 13 9f 27 3d 9d b8 fb bc a7 0a 39 3d
       0.036721483 0.04092319 -0.030727679 0.045176174
000330 de 16 54 3c 70 8b 07 bd cd f2 70 3d e9 21 51 bd
       0.012944905 -0.033091962 0.058825303 -0.05105773
000340 87 dc ae 3c 7e f0 18 3d 77 97 de 3b d5 e4 09 bd
       0.02134539 0.037338726 0.0067929584 -0.033665497
000350 40 25 f4 3c f8 91 a6 bd 7a a5 8a bd 45 ef 9e bd
       0.029802918 -0.0813331 -0.067698434 -0.07760481
000360 64 77 25 bd 17 7a 04 bd 4a de a0 ba 0e 25 6f 3c
       -0.040397063 -0.032342996 -0.0012273279 0.014596237
000370 93 fe 90 3d 6d 42 33 bd 82 75 ac bb 79 ef 4d 3d
       0.07079806 -0.04376452 -0.0052630315 0.050277207
000380 a2 38 7d 3d ed 20 85 3b 62 05 76 bb 2a 46 48 3d
       0.061821587 0.004062763 -0.003753983 0.04889504
000390 c8 6d 20 bd df 84 c4 bd 8c 09 6c bd 39 85 7a 3c
       -0.039167196 -0.09595656 -0.057626292 0.015290552
0003a0 f1 9a a5 3d df be f5 3c 8f a1 8d 3b 2a 4b 2e 3d
       0.08086193 0.029998241 0.004322238 0.04255215
0003b0 cd 22 a8 3b 51 84 6f bd f1 17 b4 3b b8 ef 41 bd
       0.0051311017 -0.058475796 0.005496018 -0.047347754
0003c0 ae c6 78 3d 09 fc 41 3d f8 e0 28 bd 39 77 2c 3d
       0.06073635 0.0473595 -0.041230172 0.042105887
0003d0 ad 6d 22 3d 73 11 c7 bc 40 f8 06 bc fc f0 f6 3b
       0.039655376 -0.024300313 -0.008237898 0.007536052
0003e0 0b 11 1a 3d 16 fa be 3d 59 13 a9 bd 05 52 70 3d
       0.03761391 0.09325044 -0.082556434 0.05867197
0003f0 c1 d0 30 bd 60 96 d6 bc af 7d d9 3a 2e b7 c1 bc
       -0.043167833 -0.026194751 0.0016593243 -0.023646917

0.module.6.bias f4 [8]
000000 10 0b d0 3d c7 db bf bc da d8 8d bd 94 26 cb 3d
       0.1015836 -0.023420228 -0.06926127 0.099194676
000010 63 26 9b bd 71 29 84 bd 95 2a e0 3c 4a 0a f8 3c
       -0.07575681 -0.06453217 0.027364055 0.030278344
