datas/policy_gail.pth (torch, 40240 bytes, 8 tensors)

0.module.0.weight f4 [64, 11]
0	0x3ba0d894	0.0049086306
1	0x3e39f729	0.1816069
2	0xbe86cad1	-0.26326612
3	0xbe86bdcf	-0.26316687
4	0xbe214c60	-0.15751791
5	0x3db0593d	0.08610771
6	0x3b8cdcd3	0.0042987852
7	0x3e66cb2a	0.22538438
8	0xbca34f78	-0.019935355
9	0x3da365a1	0.079783686
10	0xbdba9d79	-0.09112067
11	0xbdb8568a	-0.09000881
12	0xbe79de03	-0.24401097
13	0xbe88e8cd	-0.26740113
14	0xbe0e22de	-0.13880488
15	0xbb6ca2ad	-0.0036107705
16	0x3e0bf31e	0.1366696
17	0x3e31d9a0	0.17368174
18	0xbe61de4a	-0.22057453
19	0xbe08fb58	-0.1337713
20	0x3de048eb	0.10951408
21	0x3e8030ae	0.2503714
22	0xbdda2f5c	-0.10653564
23	0x3e829ab2	0.25508648
24	0xbdeed683	-0.116620086
25	0x3d48a986	0.048989795
26	0x3e946fc3	0.28991517
27	0xbe931e43	-0.28734025
28	0xbe4204f7	-0.18947206
29	0xbdc0732b	-0.093969665
30	0xbdf0c2ce	-0.11755906
31	0x3e85610c	0.26050603
32	0xbe481fb9	-0.19543351
33	0xbe3abc36	-0.1823586
34	0xbe36fdac	-0.17870206
35	0xbeb10c73	-0.3457981
36	0xbe1bc890	-0.15213227
37	0x3e90d222	0.2828532
38	0x3e0396fb	0.12850563
39	0x3e14f554	0.1454671
40	0x3899c7c4	7.332818e-05
41	0xbe1efae5	-0.15525396
42	0x3d50f104	0.0510111
43	0xbe902355	-0.28151956
44	0xbe3acbfd	-0.18241878
45	0xbe40f858	-0.18844736
46	0x3e845fbb	0.25854287
47	0x3e17d7cb	0.14828412
48	0xbe25bda5	-0.16185625
49	0xbcc5edb7	-0.024161203
50	0x3e52d56a	0.20589224
51	0x3e9d27c3	0.30694398
52	0x3e01fd5c	0.12694305
53	0x3d26d6a1	0.04073203
54	0x3e4f02d5	0.20215924
55	0xbe613ad2	-0.21995094
56	0x3dbf44b0	0.09339273
57	0xbe9ca998	-0.3059814
58	0xbe35e962	-0.1776481
59	0xbdffb36f	-0.12485396
60	0x3e10493d	0.14090438
61	0x3dee1553	0.11625161
62	0xbe4813b6	-0.19538769
63	0x3dc878f8	0.09788698
64	0x3e297e6a	0.1655213
65	0xbd1be093	-0.038055968
66	0x3ccc393f	0.02492964
67	0x3d52192a	0.05129353
68	0x3e79879a	0.24368134
69	0x3e9df089	0.30847576
70	0xbe59e0e4	-0.21277195
71	0xbe0bfd66	-0.13670883
72	0x3e10a43b	0.14125149
73	0x3e7ac6bc	0.24489874
74	0x3e86dada	0.26338845
75	0x3e883678	0.26604056
76	0x3d75c7f4	0.060005143
77	0xbe9c39fb	-0.30512986
78	0x3d6e41cb	0.058168214
79	0xbe8403a5	-0.2578403
80	0xbe92a59c	-0.28641975
81	0x3e8628e0	0.2620306
82	0x3e6a531e	0.22883269
83	0xbe9ad788	-0.30242562
84	0x3d15147a	0.03639648
85	0xbd4c4b39	-0.049876425
86	0xbd4b3b41	-0.049617056
87	0xbe0d54d3	-0.13801889
88	0x3df31b5f	0.11870455
89	0xbe584fd1	-0.21124198
90	0x3e0c5818	0.1370548
91	0x3e2ba4a9	0.16762032
92	0x3e6c37d7	0.23068176
93	0x3dd259bb	0.10271021
94	0xbe9de4e7	-0.308387
95	0xbe36363b	-0.17794125
96	0x3e191787	0.14950381
97	0x3d813e1a	0.06310673
98	0xbe70d95d	-0.23520418
99	0xbe1e9db9	-0.15489854
100	0x3e97bf09	0.29637936
101	0x3e512353	0.20423631
102	0xbe3303dd	-0.17481942
103	0xbdf45ed4	-0.119321495
104	0xbe877e5d	-0.26463595
105	0xbc4780d5	-0.012176712
106	0xbe6367de	-0.22207591
107	0xbe6cfec2	-0.23144057
108	0xbc881851	-0.016613157
109	0x3d396d7f	0.04527044
110	0xbe1bbbb8	-0.15208328
111	0x3e383683	0.17989545
112	0xbe5a8aed	-0.21342058
113	0x3e93f791	0.28899816
114	0x3e634935	0.22195895
115	0xbe8600bb	-0.26172432
116	0xbda82290	-0.08209717
117	0x3c45f10d	0.012081397
118	0x3d222a19	0.03959093
119	0x3d927438	0.07151073
120	0x3df25296	0.11832158
121	0x3d559899	0.05214748
122	0xbe25c7ef	-0.1618955
123	0x3e35d600	0.17757416
124	0xbea9babe	-0.33150285
125	0xbe622df8	-0.22087848
126	0xbd9098ea	-0.07060416
127	0xbe12121d	-0.14264722
128	0xbdcfcd60	-0.10146594
129	0xbe7ddd8b	-0.24791543
130	0xbd8359c0	-0.06413603
131	0x3d83fe5c	0.064449996
132	0xbe22e851	-0.15908934
133	0xbd7a0932	-0.061043926
134	0x3e959145	0.29212394
135	0xbcccfad1	-0.025021942
136	0x3c711677	0.014714829
137	0xbd170d27	-0.036877777
138	0x3d838e87	0.06423669
139	0x3e58ce1a	0.21172372
140	0x3e944a9a	0.28963166
141	0x3e44126e	0.19147655
142	0x3e929089	0.28625897
143	0xbd6c999f	-0.057763692
144	0xbe6cdcf5	-0.23131163
145	0xbe60ed06	-0.21965417
146	0x3e47f330	0.19526362
147	0xbc4a7a0d	-0.012358201
148	0xbe0ded78	-0.13860118
149	0xbe734076	-0.23755059
150	0xbe9a796a	-0.30170757
151	0xbe847327	-0.25869104
152	0xbd7a8060	-0.061157584
153	0x3e2951ad	0.16535063
154	0x3e3d5375	0.18488868
155	0xbe9599f4	-0.2921902
156	0x3e612bed	0.21989413
157	0xbe89bb5a	-0.2690075
158	0xbdc56047	-0.09637504
159	0xbe048165	-0.12939985
160	0xbd1d1d1b	-0.038357835
161	0xbd8b3ee1	-0.067991026
162	0xbe8a8c3b	-0.27060112
163	0xbe854acd	-0.2603363
164	0xbd41402c	-0.04718034
165	0x3cf06294	0.02934388
166	0xbe32b4ee	-0.17451832
167	0x3e361d99	0.17784728
168	0xbe79f8da	-0.24411336
169	0x3bf2a898	0.007405352
170	0x3e75eef6	0.24016938
171	0xbdd8f692	-0.105939046
172	0x3e929151	0.28626493
173	0x3de214e1	0.110391386
174	0xbe8b50fb	-0.2721022
175	0x3e435803	0.19076543
176	0xba856be7	-0.0010179252
177	0xbe2e8dbc	-0.17046255
178	0x3ea16ae9	0.31526878
179	0xbe5d073a	-0.21584788
180	0x3d77fe5d	0.060545314
181	0xbd8cb481	-0.06870366
182	0x3e5e7b1e	0.21726653
183	0x3dcd80e1	0.10034347
184	0x3e0867e2	0.13320878
185	0x3dda12f0	0.10648143
186	0xbd947df3	-0.072505854
187	0xbdd9d49b	-0.106362544
188	0xbe5b7283	-0.21430402
189	0x3dcdadeb	0.10042938
190	0x3e8758ba	0.2643488
191	0x3e6ce1bc	0.23132986
192	0xbe500739	-0.20315255
193	0x3bd6972d	0.0065487833
194	0xbe6b1622	-0.22957662
195	0xbe2de0db	-0.16980307
196	0xbe33e8b0	-0.17569232
197	0x3dd306a3	0.10304
198	0xbe251b34	-0.16123658
199	0xbce8537e	-0.028360125
200	0x3d89d17b	0.06729408
201	0x3e5082d4	0.20362407
202	0xbe5f5fe1	-0.21813919
203	0xbe71d955	-0.23618062
204	0xbe1662de	-0.14686152
205	0x3e52d77b	0.20590012
206	0xbdf0db43	-0.11760571
207	0x3e82366b	0.25432143
208	0x3ddf4a7b	0.10902878
209	0x3d62a11e	0.055329435
210	0xbb493545	-0.0030701917
211	0xbd61339c	-0.05498086
212	0x3ccb7e87	0.024840606
213	0xbda86185	-0.082217254
214	0x3c7a9de8	0.015296437
215	0x3cd887c8	0.026431933
216	0xbe61edda	-0.2206339
217	0xbe1fd76d	-0.15609522
218	0x3e794fbc	0.24346823
219	0xbe7a9028	-0.24469054
220	0xbd541fbb	-0.051788073
221	0x3eaaeb7f	0.33382794
222	0x3d19858f	0.037480887
223	0xbca7fab2	-0.020505283
224	0xbe94d59c	-0.2906922
225	0x3e1dad13	0.15398054
226	0xbe5aa9a9	-0.21353783
227	0xbddbf228	-0.10739547
228	0xbdb57906	-0.08860974
229	0xbd36e2f2	-0.044650026
230	0x3b58238e	0.0032980177
231	0x3e6226ae	0.22085068
232	0x3d8cfcb7	0.06884139
233	0x3e4eac10	0.20182824
234	0x3e1bd27c	0.15217012
235	0xbe64c17a	-0.2233943
236	0x3e1bf111	0.15228678
237	0xbe6657d8	-0.22494447
238	0xbe0ce0d5	-0.13757642
239	0x3dc15930	0.09440839
240	0x3dcbe45d	0.09955666
241	0x3e67a191	0.22620226
242	0xbe0c974d	-0.13729592
243	0x3cf4ec2c	0.029897772
244	0x3dcdd0aa	0.10049565
245	0xbe8c463d	-0.27397338
246	0x3e7197b6	0.2359303
247	0xbe7f842f	-0.24952768
248	0x3b8568ae	0.0040713167
249	0xbd8cbe90	-0.068722844
250	0xbe22cab4	-0.15897638
251	0x3d233adf	0.039851066
252	0x3e7f4f27	0.24932538
253	0xbdd7f056	-0.10543887
254	0xbe17b02d	-0.148133
255	0xbe2e23ed	-0.17005892

0.module.0.bias f4 [64]
0	0xbe6dae32	-0.23210981
1	0xbd3f354b	-0.046681684
2	0x3d634b4d	0.055491734
3	0x3e8f84fe	0.28031152
4	0xbe300d3e	-0.17192551
5	0x3e657075	0.2240618
6	0xbc9bd1c9	-0.019020932
7	0xbe18a2bd	-0.1490583
8	0xbe7d94ed	-0.24763842
9	0xbea3cdd6	-0.31992978
10	0x3e9e7364	0.3094741
11	0xbdefe62b	-0.11713823
12	0x3caefbe1	0.02136034
13	0x3d92322a	0.07138474
14	0x3e309ea9	0.17248024
15	0x3e91d943	0.2848607
16	0x3e8b8835	0.27252355
17	0xbe4b97d0	-0.1988213
18	0xbd1e60d5	-0.038666565
19	0xbe440774	-0.19143468
20	0xbe4e3b80	-0.20139885
21	0x3d1f98c6	0.038964055
22	0x3e99baf6	0.30025452
23	0xbe7ed8ae	-0.24887344
24	0x3e61b05c	0.22039932
25	0xbe305b98	-0.1722244
26	0xbd9e0575	-0.077158846
27	0x3e8081cf	0.25099036
28	0xbdd2c6ce	-0.10291825
29	0x3c887fe8	0.016662553
30	0xbe4eed7b	-0.20207779
31	0x3e9587c9	0.29205158
32	0xbd9c189b	-0.076218806
33	0xbe83f83b	-0.25775322
34	0x3db91b22	0.09038378
35	0xbe4f7a73	-0.20261554
36	0xbe7aab40	-0.24479389
37	0xbc248bcf	-0.010043099
38	0x3e7b184b	0.24520986
39	0xbd80fd10	-0.06298268
40	0x3deff1c3	0.11716034
41	0x3e848a0c	0.2588657
42	0x3e770dcd	0.24126358
43	0xbe39d1e3	-0.18146472
44	0xbaa01ce1	-0.0012215638
45	0xbd7f6413	-0.062351298
46	0xbe7b4706	-0.24538812
47	0x3d0d922a	0.03456322
48	0x3e8783e8	0.26467824
49	0x3e8e24ab	0.2776235
50	0x3d473e4e	0.048643403
51	0x3d3b7c15	0.04577263
52	0xbddf1ecb	-0.10894545
53	0x3e876963	0.2644759
54	0xbdb1a330	-0.08673704
55	0xbe780be1	-0.24223281
56	0x3d90d2de	0.0707147
57	0x3e454e21	0.19268085
58	0xbe9506f9	-0.29106882
59	0x3e826e0f	0.25474593
60	0x3df8302c	0.12118563
61	0xbe642f48	-0.22283661
62	0xbce50b91	-0.027959617
63	0x3e90fecd	0.28319398

0.module.2.weight f4 [64, 64]
0	0xbdf456ba	-0.11930604
1	0xbd754c45	-0.05988719
2	0x3d903d2e	0.07042919
3	0xbdadfcfa	-0.08495517
4	0x3da4d487	0.08048349
5	0x3d18b60a	0.03728298
6	0x3de79a37	0.11308711
7	0xbdbdf6cf	-0.09275591
8	0x3e077e2c	0.13231725
9	0xbdd4bb5b	-0.10387298
10	0x3e214a50	0.15751004
11	0xbe1d53d7	-0.15364014
12	0xbdb294f9	-0.087198205
13	0x3db07b22	0.08617236
14	0x39b36f5b	0.00034224507
15	0x3c6221cf	0.013802006
16	0xbd3c7cde	-0.04601752
17	0xbd2475c2	-0.040151365
18	0xbcc3d0cf	-0.023903279
19	0xbe181920	-0.14853334
20	0xbcc74f37	-0.024329765
21	0x3c92d5ca	0.017924208
22	0x3ca19598	0.019724652
23	0x3b7bb605	0.0038408053
24	0x3e1a79a9	0.15085472
25	0xbc247553	-0.010037738
26	0xbdb1c19b	-0.086795054
27	0xbcdb824f	-0.026795534
28	0xbd82528c	-0.06363401
29	0xbdd9ee07	-0.10641103
30	0xbc815f6d	-0.015792573
31	0xbc26eae2	-0.010187836
32	0x3d53caf6	0.05170723
33	0xbd9f7adc	-0.077871054
34	0x3dfa4b1a	0.12221356
35	0xbdf39f74	-0.11895648
36	0x3c91601d	0.017746026
37	0x3d9b1acf	0.07573473
38	0x3de58b7f	0.112082474
39	0xbceffda7	-0.029295756
40	0x3cbe19c1	0.02320564
41	0x3cb0f60d	0.021601701
42	0xbca5b0c9	-0.0202259
43	0xbd8a0ec8	-0.067411005
44	0x3d94c6a6	0.07264452
45	0xbd65fb7d	-0.05614804
46	0xbc8ffc33	-0.017576313
47	0x3d229f5d	0.039702762
48	0xbbf75ac5	-0.0075486624
49	0x3dd1f098	0.10250968
50	0xbc907691	-0.017634662
51	0x3da67752	0.08128227
52	0x3e2727d3	0.16323785
53	0xbc9a3a73	-0.018826699
54	0x3dba8125	0.091066636
55	0xbd47d7ce	-0.04878979
56	0xbd207c0a	-0.039180793
57	0x3c7be9eb	0.015375595
58	0xbb75493c	-0.0037427684
59	0xbc4acbda	-0.012377704
60	0x3d055d70	0.032559812
61	0x3d0766c6	0.033056997
62	0x3dd370b0	0.10324228
63	0xbc93e099	-0.018051432
64	0xbc8d7c72	-0.017271254
65	0xbd53c5e3	-0.05170239
66	0xbda3fa84	-0.080067664
67	0x3d9a5158	0.07535046
68	0x3ca1f6b1	0.019770952
69	0xbd81d918	-0.063402355
70	0xbc8746ea	-0.016513307
71	0x3af35ba5	0.0018566741
72	0xbd08ea15	-0.033426363
73	0x3d923454	0.07138887
74	0x3d08c909	0.033394847
75	0x3cb9d531	0.022684665
76	0x3d88404f	0.06652891
77	0xbc978f13	-0.01850084
78	0x3d84438e	0.064581975
79	0x3dab7ec9	0.08373792
80	0x3d3e8e76	0.04652258
81	0x3d440a19	0.047861192
82	0xbab4a8d3	-0.0013783224
83	0x3da1295a	0.07869215
84	0xbdb5fa23	-0.088856004
85	0xbdaf3c07	-0.08556371
86	0x3da927ee	0.08259569
87	0xbe09ae4e	-0.13445398
88	0x3ccbb2f4	0.024865605
89	0xbdc38889	-0.095475264
90	0x3d6c498e	0.057687335
91	0xbdb525db	-0.08845111
92	0x3da54b25	0.08070973
93	0x3dda076a	0.10645945
94	0x3ccec204	0.025238998
95	0x3c63cdd9	0.013904058
96	0x3dd24cff	0.10268592
97	0xbd635dd1	-0.055509392
98	0x3c9aaa98	0.018880174
99	0xbd843c61	-0.06456829
100	0xbc91b69a	-0.017787267
101	0x3c47907f	0.012180447
102	0x3ca995f9	0.020701395
103	0x3b438937	0.0029836425
104	0xbe11e356	-0.14246878
105	0x3cdb1bf0	0.02674672
106	0x3cb38a09	0.021916406
107	0x3c4c09ae	0.01245348
108	0x3deb27a4	0.1148217
109	0x3e1e89f4	0.15482312
110	0xbde428cc	-0.11140594
111	0xbd04a9ab	-0.03238837
112	0xbcdf97c8	-0.027294055
113	0xbdc9e34d	-0.09857807
114	0xbdbcdbbd	-0.09221599
115	0x3e0013fd	0.12507625
116	0x3dca65b4	0.098826796
117	0x3dbec3ad	0.09314666
118	0x3d935c88	0.07195383
119	0xbe00a56b	-0.12563102
120	0x3c47ea5a	0.01220187
121	0x3e0afb03	0.13572316
122	0xbdb820df	-0.08990645
123	0x3e01e1ec	0.12683839
124	0x3cbd7238	0.023125753
125	0x3dcea96f	0.10090911
126	0xbc984b7a	-0.018590678
127	0x3d979dd2	0.07403149
128	0xbdb55fa7	-0.08856135
129	0xbc85bd25	-0.016325543
130	0x3c333b5f	0.010939448
131	0x3bbbc256	0.0057299538
132	0x3e188880	0.1489582
133	0x3dd25d6e	0.102717265
134	0x3e1d1737	0.15340887
135	0x3d997527	0.07493048
136	0x3d8eb80a	0.069686964
137	0xbc0998cb	-0.008398245
138	0xbdf8ea42	-0.12154056
139	0xbcc6bb25	-0.02425916
140	0x3c894881	0.016758205
141	0xbdd6dd81	-0.10491467
142	0x3dbf2228	0.09332687
143	0x3d531338	0.051532
144	0x3d32f3b9	0.043689463
145	0x3c964771	0.018344613
146	0x3e006314	0.12537795
147	0x3d26cd2c	0.04072301
148	0xbdcaf50c	-0.0991002
149	0xbdc770e1	-0.09738327
150	0x3d3a0c32	0.045421787
151	0x3cc9801a	0.024597216
152	0x3d04eec0	0.032454252
153	0xbe2bcaf2	-0.16776636
154	0xbde21317	-0.11038797
155	0x3d8111d6	0.0630223
156	0x3df3d89b	0.119065486
157	0xbd94a6ca	-0.07258375
158	0x3dbd3188	0.09237963
159	0xbdf9621e	-0.121769175
160	0x3dc077dc	0.09397861
161	0x3d50f631	0.051016036
162	0x3dd199d3	0.10234418
163	0xbdfc6afd	-0.12325094
164	0xbded17ce	-0.11576806
165	0x3dab0ac7	0.08351665
166	0x3dbd4954	0.09242502
167	0x3db7323f	0.089451306
168	0x3da23d9a	0.07921906
169	0xbdf913b3	-0.121619605
170	0x3d918ade	0.07106565
171	0xbdf7b9d0	-0.12095988
172	0x3cdca1d1	0.026932629
173	0xbdbea6a1	-0.09309126
174	0xbd6cbb58	-0.057795852
175	0xbc7090a0	-0.014682919
176	0xbd4ffa35	-0.050775725
177	0xbcc4d7fb	-0.024028769
178	0xbdbb3246	-0.09140448
179	0xbdd38c33	-0.10329475
180	0x3daf6d1c	0.08565733
181	0xbda307f2	-0.079605
182	0xbdd78201	-0.10522843
183	0xbd150772	-0.036384054
184	0xbdf1d909	-0.11808974
185	0xbdddbbbb	-0.10826822
186	0x3da36240	0.07977724
187	0x3d30fa52	0.043207474
188	0x3cea1346	0.028573643
189	0xbd53ae62	-0.051679976
190	0x3d500811	0.050788943
191	0xbcd2e58c	-0.025744222
192	0xbdf538e4	-0.11973742
193	0x3d11cb8c	0.035594508
194	0x3e1c0243	0.15235238
195	0xbdb7356c	-0.08945736
196	0xbe257cce	-0.1616089
197	0x3d02653b	0.031834822
198	0x3d88bf9b	0.06677171
199	0xbd9e8695	-0.07740513
200	0x3d230b4b	0.03980569
201	0x3daa7182	0.08322431
202	0x3d89c39e	0.06726764
203	0x3b3f2e16	0.0029171756
204	0x3dcf071b	0.10108777
205	0x3df95973	0.12175264
206	0xbdb4ed25	-0.08834294
207	0xba36f6f6	-0.0006979549
208	0x3d53b496	0.051685892
209	0x3e078b76	0.13236794
210	0xbe0cf929	-0.13766922
211	0x3d97722f	0.07394826
212	0xbd6e1764	-0.058127776
213	0xbdfed876	-0.124436304
214	0x3d4c2c02	0.049846657
215	0xbd9dfa3e	-0.077137455
216	0x3d429297	0.04750308
217	0xbd55361e	-0.052053563
218	0xbdd403b6	-0.1035227
219	0x3c5f7543	0.013638797
220	0xbd9b981a	-0.075973704
221	0x3cda046f	0.026613442
222	0xbceb0cc1	-0.028692605
223	0x3dff640d	0.12470255
224	0x3c7ee073	0.015556443
225	0xbd38bd97	-0.045102682
226	0x3de3bf63	0.111204885
227	0x3bf326eb	0.007420411
228	0x3c831882	0.016002897
229	0xbd2b1080	-0.041763783
230	0x3c8e2262	0.01735038
231	0xbce55dc4	-0.027998812
232	0xbc755f1d	-0.01497629
233	0xbd9dc74c	-0.077040285
234	0x3ccda5c2	0.025103454
235	0xbdcaef8a	-0.0990897
236	0xbcc1665d	-0.02360838
237	0x3dc30254	0.095219284
238	0xbdb9460a	-0.09046562
239	0xbd64911a	-0.055802442
240	0xbcb9c954	-0.022679009
241	0xbcc5c454	-0.024141468
242	0x3b6f072e	0.0036472785
243	0x3c0166bf	0.007898032
244	0x3d1f472e	0.03888624
245	0xbd69e444	-0.057102457
246	0x3c57ef07	0.013179547
247	0x3d4be2eb	0.049776953
248	0x3df75bba	0.12078042
249	0xb9b6dcb9	-0.00034878196
250	0xbdac7097	-0.08419912
251	0x3d6e6ecf	0.058211144
252	0x3d60bbd8	0.05486664
253	0xbdbb0613	-0.09132018
254	0xbd8f0c10	-0.069847226
255	0x3db14018	0.08654803

0.module.2.bias f4 [64]
0	0xbd995fd0	-0.07488978
1	0xbd86a282	-0.06573965
2	0xbdf5d3a4	-0.12003258
3	0x3d9a211e	0.07525848
4	0x3df4695c	0.11934158
5	0x3d59bbf7	0.053157773
6	0x3d8f79cf	0.07005655
7	0x3da4d256	0.08047931
8	0x3ddf54bd	0.109048344
9	0x3da21444	0.079140216
10	0x3d3b0dbb	0.04566739
11	0x3cd3ae10	0.025839835
12	0x3dc0e398	0.0941841
13	0xbddccb2f	-0.10780942
14	0xbd339d9d	-0.043851484
15	0x3c9eefdf	0.019401489
16	0x3d21fa6d	0.039545465
17	0xbdbf1353	-0.09329858
18	0xbdfe1308	-0.12405974
19	0xbd9a590b	-0.07536515
20	0x3e027541	0.12740041
21	0x3db6bc6b	0.089226566
22	0xbd4babc4	-0.049724355
23	0x3d172992	0.03690488
24	0x3bfbb863	0.0076818927
25	0x3da95f5b	0.08270141
26	0xbdf996a7	-0.12186938
27	0xbe02fa22	-0.1279073
28	0xbdb9c69d	-0.090710856
29	0x3d5021d2	0.050813504
30	0xbdc48063	-0.095948
31	0x3de1b404	0.110206634
32	0x3d8db902	0.06920053
33	0xbd86296c	-0.06550869
34	0xbc94fb2b	-0.018186172
35	0xbcb579c1	-0.022152783
36	0x3d5010be	0.050797217
37	0xbc55c0e3	-0.013046476
38	0x3d10649c	0.0352522
39	0x3d31afc5	0.043380518
40	0xbdc82819	-0.09773273
41	0xbd24a122	-0.04019273
42	0xbd8513be	-0.06497906
43	0x3d037717	0.032095995
44	0xbbd9ae58	-0.006643098
45	0xbc4bdd54	-0.012442905
46	0xbd4a6ad8	-0.0494183
47	0xbdd7b77c	-0.10533044
48	0xbd2e9288	-0.04262021
49	0xbdfd7c65	-0.12377242
50	0xbdb6b4be	-0.089211926
51	0xbdf00c29	-0.11721069
52	0xbdeaae2a	-0.114590004
53	0xbe21f4f0	-0.15816092
54	0x3cba70f8	0.022758946
55	0x3d8bae8c	0.068204015
56	0x3da6be0d	0.08141718
57	0xbddbef7a	-0.10739036
58	0x3dbec84b	0.093155466
59	0x3d37709c	0.044785127
60	0x3cf79f98	0.030227467
61	0x3bdff3de	0.006834491
62	0x3d9582b4	0.0730032
63	0xbdb6d747	-0.0892778

0.module.4.weight f4 [64, 64]
0	0x3cdb28c6	0.02675284
1	0x3de84dd6	0.11342971
2	0x3dadf782	0.08494474
3	0xbe0bee42	-0.13665107
4	0xbd82a560	-0.06379199
5	0xbd365d73	-0.044522714
6	0x3d986630	0.07441366
7	0xbcf94d9b	-0.030432513
8	0xbbe7b12f	-0.0070706825
9	0xbd9079d0	-0.07054484
10	0x39b4a2c5	0.00034453548
11	0x3cb17123	0.021660393
12	0xbd7f4640	-0.062322855
13	0xbd91b496	-0.07114522
14	0x3dcc29f7	0.09968942
15	0x3dd506fa	0.10401721
16	0xbd002840	-0.031288385
17	0x3dade144	0.08490232
18	0x3e00a682	0.12563518
19	0xbd88f12c	-0.06686625
20	0xbd12a048	-0.035797387
21	0xbdae7e83	-0.08520224
22	0x3d873309	0.06601531
23	0x3c771fda	0.015083278
24	0xbcbe76b2	-0.023249958
25	0x3dedc308	0.11609465
26	0xbd85e619	-0.06538028
27	0xbd5c5ca5	-0.05379929
28	0xbd9aecee	-0.07564722
29	0xbda9ee7d	-0.08297441
30	0x3e14ed1e	0.14543578
31	0xbdb21994	-0.08696285
32	0xbd30f38b	-0.04320101
33	0x3d27b829	0.040947113
34	0xbe0168b2	-0.12637594
35	0xbd88b7bd	-0.0667567
36	0x3d9c274a	0.07624681
37	0xbd4a81a2	-0.049440034
38	0xbd1f18d8	-0.038842052
39	0xbd0f672f	-0.035010513
40	0xbc3852a6	-0.011250174
41	0x3c993437	0.018701656
42	0x3d06bf90	0.032897532
43	0xbdb29c39	-0.08721203
44	0x3de1a3d3	0.11017575
45	0xbdcc2852	-0.09968628
46	0x3cbd2db2	0.023093078
47	0xbd939bca	-0.07207449
48	0xbd02599e	-0.031823747
49	0x3e073086	0.13202104
50	0xbe16e345	-0.14735134
51	0x3d068c9b	0.032848936
52	0x3dbb1feb	0.09136947
53	0x3e05d305	0.13068779
54	0xbe073e00	-0.13207245
55	0xbc062c02	-0.008189203
56	0x3de87cb0	0.11351907
57	0xbe100d32	-0.14067534
58	0x3c041890	0.008062497
59	0xbdc0d34f	-0.09415304
60	0x3ca15d05	0.019697675
61	0xbe00370b	-0.12520997
62	0x3d1d18da	0.03835378
63	0xbce3a719	-0.02778964
64	0x3dd98c6a	0.10622485
65	0x3bfbf142	0.0076886723
66	0xbd5455ce	-0.051839642
67	0xbaab8132	-0.0013084768
68	0xbd9513d3	-0.07279172
69	0xbcdf29da	-0.027241636
70	0xbb006e4f	-0.0019597
71	0xbdf0a7b8	-0.1175074
72	0x3e135e8d	0.14391537
73	0xbd620de1	-0.055189017
74	0xbd8c46b1	-0.06849421
75	0xbd4a0e67	-0.04933014
76	0xbdbb291b	-0.091386996
77	0xbce0270c	-0.027362369
78	0xbd3a6495	-0.04550608
79	0xbdb1f6d5	-0.086896576
80	0x3cc2106e	0.023689475
81	0x3e169906	0.14706811
82	0xbc0d8d48	-0.008639641
83	0x3dbf7092	0.09347643
84	0xbb1a4c29	-0.002354393
85	0xbd03ef05	-0.03221037
86	0x3dac1528	0.08402473
87	0xbd952de8	-0.072841465
88	0xbdab1ef7	-0.083555155
89	0xbc092ef2	-0.008373009
90	0x3d8331bb	0.0640597
91	0xbddb8ec6	-0.10720591
92	0x3d0efdad	0.034909893
93	0xbceeaa14	-0.029133834
94	0xbd572a66	-0.05253067
95	0x3c1ca7aa	0.009561459
96	0x3a984944	0.0011618515
97	0xbdbfcd69	-0.09365351
98	0x3d89b468	0.06723863
99	0xbceb8fa9	-0.028755026
100	0x3dc579fd	0.09642408
101	0x3d08238a	0.033237018
102	0xbe0d4fa7	-0.13799916
103	0xbd89f9e1	-0.06737114
104	0xbd73da68	-0.05953446
105	0x3db4b339	0.088232465
106	0xbd8f9b81	-0.07012082
107	0xbdb2369b	-0.087018214
108	0x3c0eaeb5	0.008708646
109	0xbdc675a7	-0.09690409
110	0xbd298010	-0.041381896
111	0x3e19d8e2	0.1502414
112	0xbda9ded4	-0.08294454
113	0xbd91f6c6	-0.071271464
114	0x3e0051b2	0.12531164
115	0x3b93c59d	0.0045096413
116	0x3d92f1ad	0.07175002
117	0xbe13707b	-0.14398377
118	0x3da6eade	0.08150266
119	0xb9c7c613	-0.00038103815
120	0xbd544927	-0.051827576
121	0xbd247ba6	-0.040156983
122	0xbdb752ba	-0.08951326
123	0x3de37925	0.11107091
124	0xbd08edba	-0.03342984
125	0xbdbcb348	-0.09213883
126	0x3e0aa2da	0.13538685
127	0x3db4eb6f	0.08833968
128	0x3da33534	0.07969132
129	0x3e008008	0.1254884
130	0x3da5b5ba	0.08091302
131	0x3e124415	0.14283784
132	0x3e19a9c9	0.15006174
133	0x3e01c21a	0.126717
134	0x3cd08f2a	0.025458891
135	0xbcf0c44a	-0.029390473
136	0x3d142986	0.036172412
137	0xbcd91ef1	-0.026504012
138	0x3d2428fe	0.040078156
139	0xbcd55872	-0.02604315
140	0x3d0bf9cf	0.034173783
141	0xbdd46924	-0.103716165
142	0xbd135df7	-0.035978284
143	0x3dde78cb	0.10862883
144	0x3d05d746	0.032676004
145	0x3d9d95f5	0.07694618
146	0xbe159a34	-0.14609605
147	0xbd81c21d	-0.06335852
148	0xbbeb1c4c	-0.007175004
149	0xbb696f39	-0.0035619272
150	0x3d75244b	0.059849065
151	0xbd3a020c	-0.04541211
152	0x3e060063	0.13086085
153	0xbd66773d	-0.05626606
154	0x3d5a8364	0.05334796
155	0xbdee9575	-0.116496004
156	0x3c47d6b4	0.012197185
157	0xbdda0515	-0.106455006
158	0xbe10ae99	-0.14129104
159	0xbd3d7fe3	-0.04626454
160	0x3d705de4	0.05868329
161	0x3ca05fe3	0.019576972
162	0x3d3ecb7e	0.046580784
163	0xbc500cad	-0.012698335
164	0x3ddf19c5	0.10893587
165	0x3e0645bc	0.13112539
166	0x3ca38445	0.019960532
167	0x3dfe8ee8	0.12429601
168	0xbb324bf3	-0.0027205914
169	0xbcb7c409	-0.022432344
170	0x3d0be575	0.034154374
171	0x3d69b1d5	0.05705436
172	0xbce7eeb2	-0.028312061
173	0xbdda5d4f	-0.106623285
174	0x3d753ac3	0.059870493
175	0x3b6ee36e	0.0036451477
176	0xbd9dd1b6	-0.07706015
177	0x3d5916e8	0.05300036
178	0x3ceac274	0.028657176
179	0xbdbfe983	-0.09370711
180	0xbdc56438	-0.09638256
181	0x3db33066	0.08749466
182	0x3dce21d8	0.10065049
183	0xbd9274a3	-0.07151153
184	0x3cc425e8	0.023943856
185	0x3c2e6f25	0.010646616
186	0x3db37c68	0.08763963
187	0xbdaf1b09	-0.085500784
188	0xbb9207e6	-0.004456508
189	0x3d8b63f7	0.06806176
190	0x3db7e49a	0.08979149
191	0x3c90403d	0.017608756
192	0xbdbd299c	-0.09236452
193	0xbe22d13e	-0.15900132
194	0x3d59a9b4	0.053140357
195	0x3dbfb76d	0.093611576
196	0xbd5e678b	-0.054297965
197	0xbdbcdd60	-0.092219114
198	0x3d07b92c	0.033135578
199	0xbdb5e20d	-0.088810064
200	0xbdd0733e	-0.10178231
201	0x3d50407c	0.050842747
202	0xbca54e72	-0.020179007
203	0x3c0ed97b	0.008718844
204	0x3da5aa31	0.08089102
205	0x3af9ae09	0.0019049059
206	0x3d68993d	0.056786764
207	0xbd8e7c57	-0.0695731
208	0x3df30756	0.118666336
209	0x3ca970ca	0.020683665
210	0x3e0175d5	0.12642606
211	0x3d292674	0.041296437
212	0xbda59153	-0.08084359
213	0x3cc7b7aa	0.02437957
214	0x3d92afd8	0.07162446
215	0xbac93e67	-0.001535368
216	0x3cd04342	0.025422696
217	0xbd8171b3	-0.063205145
218	0x3dd2fce7	0.103021435
219	0xbdabe25c	-0.08392784
220	0x3dc3dd4d	0.09563694
221	0x3d934d90	0.07192528
222	0x3d10cfc4	0.03535439
223	0xbe0c3cea	-0.13695112
224	0x3da3b33f	0.07993173
225	0x3dd738e3	0.10508897
226	0x3dcfc478	0.10144895
227	0x3c9fda5f	0.019513307
228	0x3d953247	0.0728498
229	0xbd5eabec	-0.054363176
230	0xbd0123ff	-0.03152847
231	0x3d29fbc7	0.04149988
232	0x3cd01c77	0.025404198
233	0xbd217ad0	-0.039423764
234	0x3cdc884e	0.026920464
235	0x3d9ceb37	0.07662051
236	0xbdbb0620	-0.091320276
237	0xbe08072e	-0.13283989
238	0xbcd65117	-0.026161714
239	0x3ddd4a41	0.108051784
240	0x3d2762be	0.040865652
241	0xbdb7bedc	-0.089719504
242	0xbd73c554	-0.05951436
243	0xbcf76b93	-0.030202663
244	0x3d76ee03	0.06028558
245	0x3e07843a	0.13234034
246	0x3d133dc9	0.035947595
247	0xbd9dd8aa	-0.07707341
248	0xbcb489d6	-0.022038382
249	0xbd0da95b	-0.034585338
250	0xbdbc977c	-0.09208581
251	0x3d552e0b	0.052045863
252	0xbb7142e1	-0.0036813545
253	0x3cbfc058	0.023407146
254	0x3dbfb10c	0.09359941
255	0x3b06ab34	0.0020548822

0.module.4.bias f4 [64]
0	0x3d3ee51f	0.046605226
1	0x3dd879c7	0.10570102
2	0x3d0cf53d	0.034413565
3	0xbbb39ed2	-0.0054815793
4	0xbd856473	-0.065133
5	0xbcc323d7	-0.0238208
6	0x3dbc3f22	0.09191729
7	0xbd338818	-0.04383096
8	0xbca8baa9	-0.020596819
9	0x3ae33335	0.0017333986
10	0xbcc43932	-0.023953054
11	0xbb3d9f75	-0.0028934155
12	0x3bd4c64e	0.0064933663
13	0x3d04cf72	0.032424398
14	0xbc1ca3e7	-0.009560562
15	0x3e09c9ed	0.13455935
16	0xbd6fb0ee	-0.058518343
17	0xbd7ac616	-0.061224066
18	0xbc31defb	-0.010856385
19	0xba530014	-0.0008049023
20	0x3dcf2fbf	0.10116529
21	0x3d7ee5f7	0.06223103
22	0x3cd029dd	0.025410587
23	0xbe1a34c8	-0.15059197
24	0xbda138fc	-0.07872197
25	0x37c52a26	2.3503857e-05
26	0xbd6e8c08	-0.058239013
27	0xbdd34c10	-0.10317242
28	0x3d2b4025	0.04180922
29	0x3de6cbc5	0.11269335
30	0x3a2fb9aa	0.00067033863
31	0x3d898e3c	0.06716582
32	0x3df83d70	0.12121093
33	0x3b5df6ba	0.0033868984
34	0x3e1ebb36	0.15501103
35	0x3c22130c	0.009892236
36	0x3d9862f2	0.07440747
37	0x3d931bdb	0.071830474
38	0xbe02c68b	-0.1277105
39	0x3dafc7c3	0.085830234
40	0x3dcafb85	0.09911255
41	0x3d2277d3	0.039665055
42	0xbcce6a1a	-0.025197078
43	0x3c69c689	0.014268526
44	0xbde0db0c	-0.1097928
45	0x3d498f51	0.049208943
46	0x3cfcc83b	0.030857196
47	0x3ccb3ba6	0.024808716
48	0x3e160934	0.14651948
49	0xbd20e4af	-0.03928059
50	0x3df16aa8	0.11787921
51	0xbd4510b5	-0.048111636
52	0xbd4c4524	-0.049870625
53	0xbdbdf2bf	-0.09274816
54	0xbd81b737	-0.063337736
55	0x3c86d7c1	0.016460301
56	0xba942caa	-0.0011304815
57	0x3d4c72c9	0.049914155
58	0xbdd3d75b	-0.1034381
59	0xbd9e6288	-0.07733637
60	0x3d2e83ad	0.042606045
61	0xbdb3528f	-0.08755981
62	0x3db91fdb	0.09039279
63	0xbdb82082	-0.089905754

0.module.6.weight f4 [2, 64]
0	0xbdc01d8a	-0.09380634
1	0x3dd40438	0.10352367
2	0x3e007b8f	0.12547134
3	0x3d767ab1	0.0601756
4	0x3d55a196	0.052156053
5	0xbda57246	-0.080784366
6	0x3d2dc2e7	0.0424222
7	0x3a20aa60	0.00061289035
8	0xbd930342	-0.07178356
9	0x3ce94689	0.028476017
10	0x3d500485	0.05078556
11	0xbdd06f9b	-0.10177537
12	0xbc159fee	-0.0091323685
13	0x3ca34394	0.019929685
14	0x3dde5321	0.10855699
15	0xbdb14885	-0.0865641
16	0x3e0887b4	0.13333017
17	0xbb35ee73	-0.0027760535
18	0x3cdc3949	0.026882784
19	0xbe0ca195	-0.13733514
20	0xbdea8327	-0.114507966
21	0xbd9d3451	-0.07675994
22	0xbd0e5c85	-0.034756202
23	0x3d2ef29a	0.04271183
24	0x3de2366a	0.11045535
25	0xbd2f202b	-0.042755287
26	0x3de0a2a5	0.10968522
27	0xbddc732c	-0.10764155
28	0x3da5e413	0.08100142
29	0xbdcf7247	-0.101292185
30	0xbe02233b	-0.12708752
31	0x3dc10162	0.09424092
32	0xbdde7189	-0.10861499
33	0xbdb8f5c7	-0.09031253
34	0xbd8657c0	-0.06559706
35	0xbd4da5fb	-0.05020712
36	0x3d6529e8	0.055948168
37	0x3d8f4292	0.06995119
38	0xbda159db	-0.07878467
39	0x3bdf9ab4	0.006823862
40	0xbdfdcd99	-0.1239273
41	0xbe055d61	-0.13023902
42	0xbc9e1465	-0.019296834
43	0x3c171a69	0.009222605
44	0x3d9d750d	0.07688341
45	0x3d3bf8e2	0.04589165
46	0x3d44a92c	0.048012897
47	0x3ddca9a3	0.10774543
48	0xbc21bcbf	-0.009871661
49	0xbcb9a11d	-0.022659833
50	0x3e14ca0b	0.14530198
51	0x3c51c9b7	0.01280444
52	0x3d9a79ce	0.07542764
53	0xbda1fdf6	-0.07909767
54	0x3d895147	0.067049555
55	0x3db0314a	0.08603151
56	0x3de07cf7	0.10961335
57	0xbdad4203	-0.08459856
58	0xbe0f43a8	-0.13990653
59	0x3bffd4d9	0.007807356
60	0xbca387f1	-0.019962283
61	0x3ddd7641	0.10813571
62	0xbd7a07a7	-0.061042454
63	0xbd645a06	-0.055749916
64	0x3d87beb7	0.06628173
65	0xbe13f3d9	-0.14448489
66	0xbe1702ca	-0.14747158
67	0x3d925421	0.071449526
68	0x3d852d92	0.065028325
69	0x3d8ba2db	0.068181716
70	0xbd637d31	-0.055539314
71	0x3df724f0	0.12067592
72	0xbd8c2469	-0.06842882
73	0x3d89dacc	0.06731185
74	0x3d1d40a0	0.03839171
75	0x3bba45fb	0.005684612
76	0xbe091d35	-0.13390048
77	0xbdd9cd42	-0.10634853
78	0xbdb88b61	-0.090109594
79	0xbe1d039a	-0.15333405
80	0xbe0483a0	-0.12940836
81	0xbda49942	-0.08037044
82	0xbb096093	-0.0020962104
83	0x3c50c894	0.012743134
84	0xbdd9b531	-0.10630263
85	0xbe046c5c	-0.12931961
86	0xbd322235	-0.043489654
87	0x3dfa4888	0.122208655
88	0x3de23f5a	0.110472396
89	0x3e13d378	0.14436138
90	0x3d5e4d31	0.054272834
91	0x3e0ada1c	0.13559765
92	0xbd2c5599	-0.04207382
93	0xbdffa590	-0.124827504
94	0x3d5761ea	0.052583613
95	0x3e059124	0.13043648
96	0xbd88d134	-0.06680527
97	0xbcc624a9	-0.024187403
98	0xbe23314c	-0.15936774
99	0x3dfc50b7	0.12320083
100	0xbe198f1c	-0.14995998
101	0xbdd79b27	-0.1052764
102	0x3d1da170	0.038484037
103	0xbdae62fc	-0.085149735
104	0x3c3577f2	0.0110759605
105	0xbdcf1658	-0.101116836
106	0x3e2cc677	0.16872583
107	0xbdcc3295	-0.09970585
108	0x3d6d7220	0.057970166
109	0xbe29ca6a	-0.16581121
110	0x3d5b325d	0.053514827
111	0x3dfb7292	0.12277712
112	0xbdfd71da	-0.12375231
113	0xbd9b172f	-0.07572781
114	0xbceb4978	-0.028721556
115	0x3d24b1a0	0.04020846
116	0x3d8fa469	0.070137806
117	0x3e10337a	0.14082137
118	0xbd88508a	-0.066559866
119	0x3c06afd6	0.0082206335
120	0xbe0eaccd	-0.13933106
121	0xbe03e1e3	-0.12879138
122	0xbdc1d614	-0.0946466
123	0x3daae698	0.083447635
124	0x3c32190e	0.010870231
125	0x3e2dde5b	0.16979353
126	0x3d8c8e2c	0.06863055
127	0x3d0f2fb7	0.034957614

0.module.6.bias f4 [2]
0	0xbd3adea8	-0.045622498
1	0xbcc2a45f	-0.023760019
