datas/value_gail.pth (torch, 39908 bytes, 7 tensors)

module.0.weight f4 [64, 11]
000000 49 9e 07 be 3b 60 29 3d e7 11 97 bd 5b 3e 50 be
       -0.13243975 0.04135154 -0.073764615 -0.20336287
000010 70 59 0f 3c 01 bf 00 3e 9d 86 82 bd 49 3a ac 3b
       0.008749351 0.12572862 -0.06373332 0.0052559716
000020 aa 3d 99 be e7 c7 d2 bd 18 a7 99 be c5 46 a7 3e
       -0.29929858 -0.102920346 -0.30010295 0.3267118
000030 31 fa 85 3e b3 f3 88 be 76 1c 7f be 8e 00 8b be
       0.26167443 -0.26748428 -0.249132 -0.2714886
000040 58 a4 50 3e 5c e3 46 3d 1d da 89 be 7c 21 be bd
       0.20375192 0.04855667 -0.2692422 -0.092837304
000050 d1 eb 67 3e 16 8a 45 bb af 63 99 be 3e a3 e3 3d
       0.2264855 -0.003014212 -0.29958865 0.1111512
000060 28 3b 9d 3e c3 e1 92 3e 60 87 17 3d ff f5 ec bd
       0.30709195 0.28687868 0.036994338 -0.115703575
000070 1b e4 55 3d 4e bb 5b 3e 00 d0 04 3e 33 0c 80 be
       0.05221949 0.2145817 0.1296997 -0.25009307
000080 c7 ab 22 3e 2d d0 3a 3e ec c8 82 be b0 e3 63 be
       0.1588584 0.18243475 -0.25543916 -0.22254825
000090 fa e7 4e 3e 15 7b 1b 3e 7b d3 9a be 5d 05 d0 3d
       0.2020568 0.15183671 -0.30239472 0.10157273
0000a0 6e ef 2a 3e bd d2 89 3d c4 af 24 3e ae 66 c7 3d
       0.16692898 0.06729648 0.16082674 0.097363815
0000b0 46 17 e1 3d 19 18 65 3e 4c dc 0f be 4e 61 46 bb
       0.10990767 0.22372474 -0.1404888 -0.00302704
0000c0 56 71 9a bd ac aa a0 3c 64 7d 9c 3d 6d 20 e2 bd
       -0.07541148 0.019612633 0.07641104 -0.11041341
0000d0 29 e3 5e bc 12 84 83 3e b2 d8 ca 3d 60 6d 97 3e
       -0.013603964 0.256867 0.099046126 0.29575634
0000e0 60 8a 43 3c a4 a5 f6 bd 20 e3 8e 3e b2 f8 34 be
       0.011934847 -0.12043312 0.27907658 -0.17672995
0000f0 18 fb 2b 3e f7 39 7d 3e a6 69 28 be 50 cc 84 bd
       0.16795003 0.24729143 -0.16446552 -0.06484282
000100 2f 60 8b 3e 1f 7f c7 bc 7b cd 84 be 37 5f 41 be
       0.2722182 -0.024352608 -0.2593802 -0.18883978
000110 60 d2 8e be 36 c1 8d bd a4 63 20 3e 95 a4 42 bd
       -0.27894878 -0.06921618 0.1566301 -0.04752024
000120 a5 d3 73 bd c6 35 cb 3c 53 7d 5b bb c3 63 5b bd
       -0.05952801 0.024805915 -0.0033491447 -0.053561937
000130 6e a3 c3 bd 00 ba 44 37 a3 0a f6 bc f6 30 47 bd
       -0.09552656 1.1725817e-05 -0.030034369 -0.048630677
000140 e4 9c 8e bd b1 02 b0 3d 2c 18 14 be 91 f2 3b bc
       -0.06963518 0.08594263 -0.14462346 -0.011471407
000150 0c b8 53 bd 61 9a 5e 3e 26 6c 01 3e e7 5e 01 3e
       -0.051689193 0.21738578 0.12638912 0.12633859
000160 08 4d 2b bc 12 2c 51 be de 8b 96 3b 7f 9d 64 be
       -0.010455377 -0.20426968 0.00459431 -0.22325705
000170 4c 86 b1 3c d5 44 ab 3e 8c 82 6b bd 95 51 81 3e
       0.021670483 0.33450952 -0.057497546 0.25257555
000180 3f 31 41 be 24 97 72 3e b3 d7 e7 3d d7 dd 35 be
       -0.18866442 0.23690468 0.11320438 -0.17760406
000190 9c a4 a8 be 91 d8 17 be 9a bf 08 3e f1 0a 90 3e
       -0.32938087 -0.14828707 0.1335434 0.28133348
0001a0 cf ac 91 be d2 2a 0a be cc e9 d0 3d 2d b1 a7 bd
       -0.28452155 -0.13492897 0.10200843 -0.081880905
0001b0 87 94 83 be 71 bb cf bd 2d 66 a2 3d 1a ff 94 be
       -0.25699255 -0.101431735 0.07929645 -0.29100877
0001c0 e8 b9 e7 bd 40 80 4d 3e ba 71 28 3e ca ac 23 be
       -0.11314756 0.20068455 0.16449633 -0.15983883
0001d0 cb 40 96 3e 6b c5 57 3d 2c bb 0f 3e 81 ec d4 bc
       0.29346308 0.052678507 0.14036244 -0.02599168
0001e0 a4 9f ea bd 23 a1 96 3e 6c b0 a0 be 53 b0 eb 3d
       -0.1145623 0.29419813 -0.313846 0.115082406
0001f0 17 0a 23 be d8 dd f8 bd 13 46 7d 3e 09 5a 95 be
       -0.15921818 -0.12151688 0.24733762 -0.29170254
000200 a2 0b 42 bd 69 7f a0 bd 00 50 62 3e ed e7 69 be
       -0.047374375 -0.078368016 0.2210083 -0.22842379
000210 b8 01 ad bd b2 97 af bd c3 2f 4f 3e 00 5f 81 3e
       -0.084475935 -0.085738555 0.20233063 0.25267792
000220 2b 67 b7 3c 1e 56 09 3e 91 d4 94 3e 53 31 80 be
       0.022388062 0.13411757 0.29068425 -0.2503763
000230 cd f5 6d 3b 28 d4 8c 3e 4b 70 a1 bd 10 06 80 be
       0.0036309839 0.27505612 -0.07882746 -0.25004625
000240 a2 b4 8e 3e ca 6d 6d 3e b9 2f 32 3e 2e 91 61 3e
       0.27872187 0.23186412 0.17401017 0.22028038
000250 d4 54 72 bc d5 c5 69 be 83 dc 8e be 77 1f e1 3d
       -0.014790732 -0.22829373 -0.27902612 0.109923296
000260 51 f6 ac bd 98 f1 96 3e 31 02 9d 3c d2 90 4e 3e
       -0.084454186 0.29481196 0.019166084 0.20172432
000270 65 97 78 bb b9 d7 68 bd 1f 9c d4 bd 80 06 78 be
       -0.0037932035 -0.056846354 -0.1038134 -0.2422123
000280 2d bf 9c be b5 a5 8a bd 5d 37 91 be d8 41 9a be
       -0.30614606 -0.06769887 -0.2836255 -0.3012836
000290 7b e5 19 3e cd e3 dd bd b4 1f 46 bc 18 fe ab bd
       0.15028946 -0.10834465 -0.01209252 -0.08398074
0002a0 0a 2b 65 be 79 60 b4 bd 19 6a 2a be ae 97 16 3d
       -0.223797 -0.08807463 -0.16642036 0.036765747
0002b0 71 d0 92 3e 78 ec a5 bd 14 06 30 3d ea 35 30 3e
       0.28674653 -0.081017435 0.042974547 0.17208067
0002c0 34 3e 1d 3e 64 7a eb 3a 7f 2d b9 bd be bd 9f bd
       0.1535576 0.0017965552 -0.09041881 -0.07799862
0002d0 05 d9 77 bd 41 1e 9b 3e 50 df 1d 3d 8c 74 47 3e
       -0.0605097 0.3029652 0.038543046 0.19478053
0002e0 b5 22 39 3e b6 60 7e 3e 76 1d 55 3d 46 cf be 3b
       0.18079646 0.2484158 0.05203005 0.0058230488
0002f0 18 cc d6 bd 9d 18 46 3e f0 41 67 3e 81 ea 6e 3e
       -0.104881465 0.19345327 0.22583747 0.23331644
000300 8c e4 97 be af a0 a1 3c 90 54 31 be 44 ef 48 be
       -0.29666555 0.01972994 -0.17317414 -0.19622523
000310 ac bc 86 be fc ca eb bd d7 be 86 3e 12 d8 4c 3e
       -0.2631582 -0.115133256 0.26317474 0.200043
000320 f6 79 63 be 35 d2 2c bd 49 4a 1b 3e a6 39 4c 3e
       -0.22214493 -0.042192657 0.15165056 0.19943866
000330 46 d3 5a 3e 3a 7e 1e be 79 08 01 be 22 15 27 3e
       0.21369657 -0.15477839 -0.12600888 0.16316655
000340 60 f5 86 3d 5c cb 39 be 1f 1f 51 be 65 75 65 bd
       0.0658977 -0.18143982 -0.20422028 -0.05602016
000350 c2 a0 8d 3e 08 e1 ca bd 28 28 08 bc 03 79 b4 3d
       0.2766171 -0.099062026 -0.008310355 0.08812144
000360 cb 4c 85 be e5 95 00 be c1 23 2f 3d 3a ec 0c be
       -0.2603515 -0.1255718 0.042758707 -0.13761988
000370 7b f5 60 3e 9d a0 ea bc cd aa e5 3d 97 08 55 bc
       0.21968643 -0.02864104 0.11214218 -0.013002536
000380 d0 2c e1 3b 41 1f 95 3e 50 0f 7a be 97 13 5b be
       0.006871797 0.29125407 -0.24419904 -0.21394192
000390 97 58 01 be 5a d4 6a 3d b6 40 b5 bd 16 62 dc 3d
       -0.1263145 0.05733142 -0.08850233 0.10760896
0003a0 ba 86 1b be 3e 4d d3 3d bf 4a 8b be ec 3f b1 3c
       -0.15188113 0.10317467 -0.27205464 0.021636926
0003b0 03 01 3d 3e 3d d1 16 3d 9c b5 07 be 6e 53 01 be
       0.18457417 0.03682064 -0.13252872 -0.12629482
0003c0 28 77 86 3d ce 10 55 be f7 68 75 be 0c 86 a8 3c
       0.06565696 -0.20807192 -0.23965822 0.020571731
0003d0 11 1c 77 be 8d 5c 36 3d 9d 73 64 be b2 a4 06 3e
       -0.241318 0.044521857 -0.22309728 0.13148764
0003e0 ea c9 54 3e 51 4c 78 3e c2 c4 50 be a9 99 66 3c
       0.20780149 0.24247862 -0.20387557 0.014074721
0003f0 71 46 8f 3e 28 ae ad bd 81 18 0d 3e 27 af 11 3e
       0.2798343 -0.08480483 0.13778879 0.14226972

module.0.bias f4 [64]
000000 ab e0 df bd 62 66 ce 3d f1 91 10 be c3 44 be 3d
       -0.10931524 0.10078122 -0.14118172 0.09290459
000010 07 f7 d8 bd 1a d9 18 be a0 2d 8d be d9 b6 df 3d
       -0.10593992 -0.14926568 -0.27573872 0.10923547
000020 cd 4e 68 3d ff 3c aa 3d 5d 20 17 be 16 01 2e 3d
       0.056715775 0.08312415 -0.1475844 0.042481504
000030 56 71 e6 bd 45 0b 9a 3d 49 7e 94 3e 6a e3 7e be
       -0.11252086 0.07521681 0.29002598 -0.24891439
000040 32 09 cf 3d 99 5a 48 be 80 8c dc 3d 5b 9f 47 bd
       0.10109176 -0.1956581 0.10768986 -0.048735958
000050 df 5c 25 3e ba 6c 5c be e9 96 44 3e f6 1a 33 3e
       0.16148709 -0.21525851 0.19198193 0.17490754
000060 60 9c 51 be 22 cf 55 be 3c 0b 31 3e 07 ea 70 be
       -0.20469809 -0.20879796 0.17289442 -0.23526774
000070 e1 67 00 3e b4 27 29 be 9d 8e 84 be b6 c3 e6 3d
       0.12539627 -0.16519052 -0.25890055 0.11267798
000080 6e ae 03 be 87 c8 30 be d2 d4 be 3d c2 f9 04 3e
       -0.12859508 -0.17263995 0.09317936 0.129859
000090 e5 f8 83 3e dc 3c 98 3e 02 33 a5 3d bc ac 87 bd
       0.2577583 0.29733932 0.080663696 -0.06624743
0000a0 51 27 31 bd 4c 32 77 3e 12 74 7f be a6 0f 68 3e
       -0.043250386 0.2414028 -0.24946621 0.2266222
0000b0 79 54 0b 3e be 71 f8 3d a4 4a cf 3d 03 7a 81 be
       0.13606443 0.121310696 0.101216584 -0.252884
0000c0 a0 ed 08 3e 24 7e ff bc 74 1c 83 bb 54 99 10 be
       0.13371897 -0.031188078 -0.0040011946 -0.1412099
0000d0 1b 6a 55 3e 55 b0 84 bd bf fa 89 3c ea 51 8f be
       0.20841257 -0.06478945 0.016843198 -0.27992183
0000e0 f9 52 6a 3e 13 be 91 be 8c cf 31 3e 9f 89 f9 3d
       0.22883214 -0.28465328 0.17364329 0.12184452
0000f0 0e 8e 57 3d a0 de 96 be 47 26 08 be 6d 0e bc bc
       0.05262571 -0.29466724 -0.13295852 -0.022956097

module.2.weight f4 [64, 64]
000000 a8 d9 ca bd c2 69 5e bd 72 32 95 bc 76 c1 c0 bc
       -0.09904796 -0.054300077 -0.01821253 -0.02352975
000010 9e de a9 3d f5 89 e4 3d 88 c7 66 bd 31 8b 89 3d
       0.08294414 0.11159126 -0.05634263 0.06716002
000020 25 30 4d bb 3a 87 d7 3d 82 9c c8 bd b5 e2 9d bd
       -0.0031309214 0.10523839 -0.097954765 -0.077092566
000030 98 ab 91 bc e8 f3 08 3e bd c8 d7 3d 90 8e 3d bd
       -0.017782018 0.13374293 0.10536335 -0.046278536
000040 c9 44 a0 bd eb c7 41 bd 62 93 d6 3c b8 18 11 3d
       -0.0782562 -0.047309797 0.026193324 0.035423964
000050 fc 99 50 bd 60 b2 df 3c 4e e2 06 bc 8c 64 c9 3d
       -0.0509281 0.027306736 -0.008232666 0.09833631
000060 45 ff 75 bd 8a de a9 bd 87 51 0a 3d 39 f8 0a 38
       -0.060057897 -0.08294399 0.033769157 3.313294e-05
000070 8f 3a a8 3d fa 0c d9 3d 50 cf 82 bd bc bc ff 3d
       0.08214294 0.10598178 -0.06387198 0.1248717
000080 5d 2c 49 3d c8 70 01 3e 38 7c bf 3c fd 2d b5 bc
       0.049114574 0.12640679 0.023374662 -0.022116655
000090 de 4f 6f 3c 4b 8e 01 3c 10 e0 d3 bd 4e 62 2b bd
       0.014606444 0.00790746 -0.10345471 -0.041841798
0000a0 4c f6 b7 3d 88 a0 2e 3d 48 6d a3 3c 14 9b af 3c
       0.08982524 0.042633563 0.01994957 0.021436252
0000b0 9f 2a 06 3d 49 3c e0 bd 82 02 e9 bc 99 6f 02 bd
       0.03275549 -0.109489985 -0.028443579 -0.03184471
0000c0 f3 9e 1d bd 5b 59 85 bd a5 09 b8 bc a8 b6 51 bc
       -0.038481664 -0.06511184 -0.022465536 -0.012799896
0000d0 bf 1b e8 bc 11 0b 37 bd af ec c0 bc 4d 79 12 bd
       -0.028333543 -0.044688288 -0.02355036 -0.035760213
0000e0 e8 0b bb bd 48 0f b5 3d d6 97 6a bd 6a 32 a2 3d
       -0.0913313 0.08840805 -0.05727371 0.07919772
0000f0 16 d0 f9 bd e4 d9 5a bc c8 2a ba bc 39 cb b9 bd
       -0.12197892 -0.013357613 -0.022725478 -0.09071965
000100 ac 5e 79 bc 9d 6d ee bd 71 44 94 3d 99 58 e9 3d
       -0.015220325 -0.11642001 0.07239617 0.11393852
000110 a4 64 18 bc 0f 73 ad 3c 3f 53 52 bd e5 74 95 3d
       -0.009301338 0.021173028 -0.05134892 0.072976865
000120 ef 45 18 be 3e 22 11 3e f8 1f 18 3d 44 92 a1 bc
       -0.14870428 0.14173219 0.037139863 -0.019723065
000130 dc 10 f2 3d 87 1c d9 bd 00 61 92 bd b1 e2 f6 3c
       0.11819622 -0.10601144 -0.071474075 0.030137392
000140 06 69 1d be 49 d4 8c 3d 0c 87 48 bc 32 50 cd bd
       -0.15372095 0.06876428 -0.012239229 -0.10025062
000150 77 cf 83 bd f6 d3 d3 bd 5c 1a a7 3c 5d 15 b9 3d
       -0.06436055 -0.10343163 0.020398311 0.09037278
000160 c2 a3 ee 3d 2e 39 f5 bd 8a 3d 20 3d ad c2 b8 bd
       0.11652328 -0.11973797 0.03912119 -0.090215065
000170 be 23 47 3d 7c ba 9d 3d 7b da 28 be ae 08 82 bd
       0.04861807 0.07701585 -0.16489594 -0.06349312
000180 01 b6 fb bd 6b 34 1a bd 38 88 8c 3d 85 89 f6 bd
       -0.12290574 -0.037647646 0.06861919 -0.120379485
000190 47 fd 09 bd eb 71 3b bd 13 84 08 3e 4e b0 18 be
       -0.03368881 -0.045762938 0.13331632 -0.14911005
0001a0 d8 7d bb bd 59 82 25 3d 70 19 b8 bd 08 8d 0a 3e
       -0.09154862 0.040407512 -0.08989227 0.13530362
0001b0 84 f8 c0 bd c4 b4 19 bd c7 f1 39 bd 62 b4 2a 3b
       -0.094224006 -0.037525907 -0.045396592 0.0026047458
0001c0 7a ee 70 bc cf e7 88 3d fd 1d 0b be dd e1 90 bd
       -0.014705295 0.06684839 -0.13585658 -0.0707433
0001d0 c2 fb 8f bd 18 e1 c8 bd b7 ff f2 bd 10 ec 7d 3b
       -0.07030441 -0.09808558 -0.1186518 0.003874544
0001e0 e9 86 dd 3d de f9 df bc 55 9f 6b bc 59 e2 a8 3d
       0.10816748 -0.027340826 -0.014381249 0.082462974
0001f0 ca 12 2e 3d 30 f8 f1 bd 14 2f 8e bd d4 6c 16 3e
       0.042498387 -0.11814916 -0.06942573 0.14689952
000200 16 de 80 3d 61 32 d2 bd 20 cf 22 bc 37 fa e4 bd
       0.062923595 -0.10263515 -0.009937078 -0.11180537
000210 2e e7 c2 bd 23 0b 75 bd df 56 fb 3d 33 55 9c bd
       -0.0951675 -0.059825074 0.12272429 -0.07633438
000220 d6 e2 ca 3d 06 9d 00 be f4 2a c9 bc f0 b1 07 3e
       0.09906547 -0.125599 -0.024556614 0.13251472
000230 5c d7 0c bd 76 88 54 bd 50 87 6b bd 88 c7 a9 bd
       -0.03438507 -0.05188795 -0.05750209 -0.08290011
000240 38 f0 33 3d ce e0 de bd a7 20 b3 bd e0 25 d2 3d
       0.043930262 -0.10882722 -0.08746462 0.1026113
000250 77 94 b6 3d a2 64 71 bd f9 cd 9e bb 39 c6 14 bd
       0.08915036 -0.05893386 -0.004846331 -0.036321852
000260 5f da d4 3d 14 78 d3 bd 7e c9 fa bd 17 21 83 3d
       0.103932135 -0.103256375 -0.12245463 0.06402796
000270 cc d2 81 bb ea 0d cc bc 6d c2 a4 3d cc 91 26 3d
       -0.0039618965 -0.024908978 0.08044896 0.040666386
000280 23 51 9e bd 92 b7 75 3d 16 b9 a4 3d 03 49 3e bc
       -0.07730319 0.05998952 0.08043115 -0.011614087
000290 a1 6f d2 bd 70 e5 45 3d 77 f0 a3 3d 51 b6 ef bd
       -0.10275198 0.04831451 0.080048494 -0.11704696
0002a0 de aa e2 bd 33 ff 0e bd 2e 9f cd bd 1f 0e 98 bd
       -0.110677466 -0.034911346 -0.10040127 -0.074245684
0002b0 30 c1 bb 3d aa 23 1e 3d ac 52 a0 3d 7f ff fd 3c
       0.09167707 0.03860823 0.078282684 0.03100562
0002c0 d0 64 e4 3d ea 9c 36 3d 99 a7 41 3d e7 65 d1 3d
       0.11152041 0.04458324 0.047278974 0.102245145
0002d0 d8 04 69 bd d5 3e ea 3d 85 8f 74 3a a7 3d 09 3e
       -0.056889385 0.114377655 0.00093292474 0.13402425
0002e0 8b 8f a2 bd 39 ef 98 bd bd 85 a1 3d 43 95 b2 bd
       -0.07937535 -0.07467503 0.07886837 -0.08719876
0002f0 8b a1 19 3d 48 a2 fd 3d 1f 80 01 3d c4 d3 d9 bd
       0.037507575 0.12384468 0.031616326 -0.10636094
000300 3c b8 a4 bd 75 b5 a4 bd 67 dd 9d bd 47 84 9f 3d
       -0.080429524 -0.08042423 -0.07708245 0.07788902
000310 98 47 45 3c 2f 38 50 bc 2d 52 02 3d 14 16 94 3d
       0.012040995 -0.012708708 0.03181665 0.072307736
000320 c3 57 8a 3b 4e e5 bb 3d 0f 79 21 bc 4a 77 18 3d
       0.004221888 0.09174596 -0.009855523 0.037223138
000330 62 e4 08 3d 7f 6c 64 3c c5 ca c0 3d 81 cc dc 3d
       0.033420928 0.013941883 0.09413675 0.107811935
000340 3a 53 d4 3d d7 39 ba bc 7b db f1 bc 05 d4 dc 3d
       0.10367437 -0.022732658 -0.029523602 0.10782627
000350 51 b1 28 bd 0e 28 e7 3b 32 76 84 bd f0 64 da bc
       -0.041184727 0.0070543354 -0.064678565 -0.026659459
000360 b7 44 6f bd e2 50 8b 3d a7 54 1f bd 75 14 7d bd
       -0.05841514 0.068025365 -0.03889909 -0.061787087
000370 01 5a 85 3d 63 d9 cb bc 6f d0 9c 3b a3 76 b2 bd
       0.065113075 -0.024883932 0.0047855894 -0.087140344
000380 0a 5e 82 bd 4e 87 b0 3d f4 9b 25 3d 58 d6 f2 bd
       -0.06365593 0.08619557 0.04043193 -0.11857289
000390 c4 2c b4 bd e0 8c 38 3d c0 b4 e4 bd ab 33 7a bd
       -0.08797601 0.045056224 -0.11167288 -0.06108443
0003a0 e8 13 94 bd 26 57 ab bd 56 87 9c bd e7 66 b9 3d
       -0.07230359 -0.083662316 -0.07643001 0.0905283
0003b0 93 7d e6 bd 5f fc 81 3d 40 cc e6 bd b6 e9 1f bd
       -0.1125442 0.06346964 -0.11269426 -0.039041243
0003c0 f7 5c 31 bd 73 ff c3 3d 35 6b db bd b4 aa 94 bd
       -0.04330155 0.095702074 -0.107138075 -0.072591215
0003d0 e1 da df bd 40 a8 57 bd 6d a6 7b 3d a7 54 da 3d
       -0.1093042 -0.05265069 0.061438013 0.106606774
0003e0 8f 7b f6 3d 4d 30 38 bd 50 d4 7f bd 97 31 20 3d
       0.12035286 -0.04496794 -0.062458336 0.039109793
0003f0 d9 ab 99 3d ff 45 d5 3d 01 ef 9e 3d 8b e0 fd 3b
       0.075034805 0.10413741 0.0776043 0.007747715

module.2.bias f4 [64]
000000 91 fd 60 bd 95 25 b7 3d 4e d4 26 3d 8b 62 ab 3d
       -0.05492932 0.08942715 0.040729813 0.08368405
000010 4d 98 d4 3d 51 4a 42 3d 43 45 d0 bd aa cd 93 3c
       0.103806116 0.047434155 -0.101694606 0.018042404
000020 ce 7a 93 3d 81 a4 10 bd f6 10 b5 3d 30 fb 8c bd
       0.072011575 -0.035313133 0.08841126 -0.06883848
000030 40 66 f3 bd 27 cc ec 3d ef b3 9e 3d 8b f8 c1 3d
       -0.11884737 0.115623765 0.07749163 0.09471234
000040 6d 97 8d 3d 4a 69 cf bd c4 11 10 3d 3c ae f1 3d
       0.06913648 -0.10127504 0.035173193 0.11800811
000050 30 3d 9d bd be 87 d2 3c d0 a7 de 3c ff c3 e9 bd
       -0.07677686 0.025699493 0.027179629 -0.114143364
000060 d6 d7 78 3c 0a da 29 3d 18 94 79 bb 58 79 d9 bd
       0.015188178 0.041467704 -0.0038082656 -0.106188476
000070 a7 86 7b 3d 25 8d c3 bd 6d 2b 2f 3d 1d ab 05 bc
       0.06140771 -0.095484056 0.042766023 -0.008158472
000080 d3 60 d5 3b 9b a3 aa bd 07 ba 4b bd 19 d1 1a bd
       0.0065117865 -0.083319865 -0.049737956 -0.037797067
000090 71 98 45 bd ec 76 4c bd 5a 91 a4 3c 30 4a 00 3e
       -0.048241083 -0.0499181 0.02008884 0.125283
0000a0 54 32 2e bd 97 31 cf bd 7e 52 bb 3c 36 15 f3 3d
       -0.042528465 -0.101168804 0.022866484 0.1186928
0000b0 62 c3 f2 bd 8e 42 ec 3d fe e4 bc 3d c9 d6 e5 3c
       -0.118536726 0.11536132 0.09223364 0.02805652
0000c0 25 c4 9e 3d 30 65 a0 bd 37 6e f3 bd 2e b7 e5 3d
       0.07752255 -0.078318 -0.11886256 0.112165794
0000d0 7d b2 6e 3d 67 26 9d bd 43 b1 b0 bd d1 0c 19 3d
       0.05827569 -0.0767334 -0.0862756 0.03736574
0000e0 2f f4 b2 3d b5 bc e9 3d bc 85 a0 3c c8 c9 6f 3d
       0.087379806 0.11412946 0.01959502 0.058542043
0000f0 8d be 33 3d d0 64 2a 3d 46 a9 75 bd 80 e3 bb bd
       0.043882895 0.04160005 -0.059975885 -0.091742516

module.4.weight f4 [64, 64]
000000 2a 18 0b 3e 0e 01 26 3d 92 bc 00 be df 6a 29 bd
       0.13583437 0.04052835 -0.12571934 -0.041361686
000010 a3 ea de 3c f8 47 2b 3c ef 96 c9 bd 6f 57 fb 3d
       0.027211493 0.01045417 -0.098432414 0.12272536
000020 3c 1a 0a be e1 a9 93 3d b1 82 69 bd bf 51 97 bd
       -0.1348657 0.07210136 -0.057009403 -0.07388639
000030 f1 c4 3c 3d 13 54 da bc 36 7e 48 bd bd e2 56 bc
       0.046086255 -0.026651418 -0.04894849 -0.013115582
000040 29 e0 fc bc be 9d fc 3d 39 75 fc bd 8f 0f 05 bd
       -0.030868607 0.123347744 -0.12327046 -0.03248554
000050 37 33 ca bc ac a1 2d bd 35 27 96 bd 6a 16 97 3b
       -0.024682624 -0.04239051 -0.07331697 0.0046108263
000060 91 2f 70 3c 64 8f aa 3d f8 0f cb 3c c5 7c bc 3d
       0.014659778 0.08328131 0.024787888 0.092034854
000070 c2 b6 d2 bd 62 69 d0 3d 78 f8 14 bd 91 58 95 3c
       -0.102887645 0.1017635 -0.03636977 0.018230708
000080 b8 f0 2d 3d a7 f8 d9 bc 84 5a 3d bd d8 93 37 3d
       0.042465895 -0.026607824 -0.0462289 0.04481873
000090 97 c4 aa 3d 6f 68 bd bd 5b 40 95 3d 64 ad 9f 3d
       0.08338278 -0.09248435 0.072876655 0.077967435
0000a0 63 6e 44 3d 82 e2 ef 3c ed 74 a8 3d ce 13 d5 3d
       0.047956835 0.029282812 0.08225427 0.10404168
0000b0 38 5f bc 3d 51 55 6f bc ff 51 9a bd 94 1c a1 3b
       0.09197849 -0.014607743 -0.07535171 0.004916737
0000c0 0b 19 94 bd df 71 c7 3d 02 8f 51 bd 66 00 5a bc
       -0.07231339 0.09738516 -0.051161774 -0.013305759
0000d0 c4 21 35 3d 0e 07 2e 3d ab ab b1 bd e2 ef ae bd
       0.044221655 0.042487197 -0.08675321 -0.08541848
0000e0 fc 1b 28 3d 2b 7a ae bd 36 13 2d 3d 2c 5f 3d 3d
       0.041042313 -0.085193954 0.04225465 0.04623334
0000f0 69 50 4e bd 4b 22 c8 bd a8 73 18 3d 88 81 ab bd
       -0.050369654 -0.09772166 0.037219673 -0.083743155
000100 c4 24 0c 3e ac 48 c9 3d d0 1d 85 3d 4e b3 7c 3d
       0.136859 0.09828314 0.06499827 0.061694436
000110 01 37 87 3d 6b 6c d6 bd 94 f0 e4 3d 03 1e 8e bc
       0.06602288 -0.10469898 0.11178699 -0.017348295
000120 02 ac 5b 3d 9d 5b fd 3d 70 65 f2 3c 50 fc a5 bd
       0.053630836 0.123709895 0.029589385 -0.081047654
000130 91 fc 9a bc fc 8b 9a bd a1 27 d1 bd 26 f9 b4 3d
       -0.018919261 -0.07546231 -0.10212637 0.08836584
000140 ad 9d 1c bd ba 11 d2 3d 00 08 99 bd 3c d7 81 3d
       -0.03823631 0.10257287 -0.07472229 0.06339881
000150 a5 9a c4 bc 83 3a 97 bc e4 2e a1 3d 08 e6 02 be
       -0.023999522 -0.018460518 0.07870272 -0.12783062
000160 8c f9 e9 3d c3 3d ae bc 41 2d 32 3d 9b d8 89 bd
       0.114245504 -0.021269685 0.04350019 -0.06730767
000170 90 9d a1 bd 37 1b 35 bc 5e 5f 91 bc 0d ac 16 bd
       -0.07891381 -0.011053852 -0.01774567 -0.036785174
000180 02 9d 8c 3d 63 47 ae bc 46 ee 7c bd 98 0d e5 bc
       0.06865884 -0.021274274 -0.061750673 -0.027960584
000190 3f 35 e3 3d ba ff e8 bd a5 89 83 bc da 1c e4 bc
       0.1109414 -0.11376901 -0.016056845 -0.027845789
0001a0 56 c2 6c 3d 6e b3 bc 3d 26 31 7e bd 82 c7 09 bd
       0.05780252 0.09213911 -0.06205859 -0.03363753
0001b0 61 7f e5 bd 51 c0 d1 bd 4a 88 6d 3d 01 30 c6 bb
       -0.11205936 -0.102417596 0.057991304 -0.006048203
0001c0 92 62 c3 3d bd bf d1 bc ae c5 8a bd 11 de 7f bd
       0.09540285 -0.025604123 -0.06775986 -0.06246764
0001d0 c6 86 f5 3b d5 30 a0 3d c4 b7 cf 3c 2a 10 bc 3c
       0.007492873 0.07821814 0.025356181 0.022956926
0001e0 3c 85 f1 bc 9a 1f 6c 3d 96 60 c1 bd eb c3 b6 3d
       -0.029482476 0.057647325 -0.094422504 0.08924087
0001f0 6a 3d 4f bc a1 9e e7 3d 0b c5 3a bd 03 a9 e3 3d
       -0.01264892 0.11309553 -0.04559807 0.11116221
000200 4b c6 bd 3d 60 55 b2 bd 93 0a 4d bd 08 6b e9 3d
       0.09266337 -0.0870769 -0.050058912 0.11397368
000210 ba f6 66 3d 39 fb bc 3d 87 47 01 bd ad 5f 22 bd
       0.05638764 0.092276044 -0.031562354 -0.039642025
000220 b5 c1 83 3d 02 36 db bc 90 54 e5 3d 50 eb b5 3d
       0.06433431 -0.026759151 0.1119777 0.08882773
000230 65 91 ec 3d 0f 03 c9 3d 0e b7 16 bd b0 5e da 3d
       0.11551169 0.098150365 -0.03679567 0.106625915
000240 63 3c ab bd 0b 28 03 3e a5 58 b0 bb 54 69 40 bd
       -0.08361127 0.12808244 -0.005381661 -0.04697545
000250 24 99 df 3c 52 63 76 3d 32 6d fc 3b 30 74 9d 3d
       0.027294703 0.060153313 0.007703447 0.07688177
000260 88 e3 7f 3b c3 bf f5 bd e4 11 84 3d b4 ac bc 3b
       0.0039045531 -0.11999466 0.06448725 0.0057578925
000270 d4 c9 5f 3d b5 b4 85 bd eb 84 c8 3d 93 7b 89 3d
       0.054635838 -0.06528608 0.09790977 0.06713023
000280 19 77 9a bd f1 a2 ef bd 9c 34 8f bc 03 f8 40 3c
       -0.07542247 -0.117010005 -0.01748114 0.011777881
000290 0c 4a a9 bd ad 34 32 bd 37 49 ce bc a9 58 e9 bd
       -0.082660764 -0.043507267 -0.025181396 -0.11393864
0002a0 de d3 6a bd 36 08 9c bd 31 82 b3 3c 88 cc df 3d
       -0.05733096 -0.076187536 0.021912666 0.10927683
0002b0 94 ce a6 3d 48 36 35 3d 9c bd f1 3d 0e 9f 92 3c
       0.081448704 0.04424122 0.11803743 0.017898109
0002c0 38 5f da 3c 86 cc a8 bd 9f 38 62 3d a3 27 35 3d
       0.026656732 -0.08242135 0.05522978 0.044227254
0002d0 7e c4 bc 3c a7 69 9f bd 11 d1 46 3d 0c ac 56 3c
       0.023042914 -0.077838235 0.048539225 0.013102543
0002e0 c9 21 c0 3d 13 b2 97 bb c6 1a dc 3d 53 1e 12 bc
       0.09381444 -0.0046293824 0.10747294 -0.008918363
0002f0 44 b2 92 3d b2 03 d9 3c 69 73 a5 bd fc 50 08 3d
       0.07162908 0.02649102 -0.08078653 0.033280358
000300 1b 81 01 be 56 2a f8 bd 61 c1 dc 3d bd a7 a2 bd
       -0.12646906 -0.1211745 0.107790716 -0.0794215
000310 9a 34 c7 bd 07 60 c4 bc f6 be d7 3d e8 f3 e8 3d
       -0.0972683 -0.02397157 0.1053447 0.113746464
000320 f5 5e f7 bc 04 2b 9d bd 0f 40 9d bd 0c 34 95 bd
       -0.030196646 -0.0767422 -0.07678234 -0.07285318
000330 a3 87 e2 bd 78 1a 6d bd fa 06 d4 3c a1 fa 0a bd
       -0.11061027 -0.05788657 0.025882233 -0.033930425
000340 95 ce 08 be fe b0 bc bc 64 79 f3 3d 5b 36 96 3c
       -0.13360055 -0.023033615 0.11888388 0.018336466
000350 3f 0c 53 3d 3d 83 b2 bd 38 33 d5 bd 11 c5 92 bd
       0.05152535 -0.08716438 -0.1041016 -0.07166494
000360 8c c2 38 bd a2 16 a8 bc b4 38 20 bd 49 34 11 3d
       -0.04510741 -0.020518605 -0.039116576 0.035450254
000370 7a a1 ba 3d 62 64 ed bc 18 2d 03 be 47 97 89 bd
       0.091128305 -0.02897853 -0.1281017 -0.06718307
000380 ed 1c e1 3d b8 b1 ca bd f6 3b 0f bd d9 a2 84 3d
       0.10991845 -0.098971784 -0.034969293 0.06476373
000390 b1 40 d4 bc 06 0e 04 3e 3c 09 1f bd 37 3b c6 3d
       -0.025909754 0.12895975 -0.038827166 0.09679263
0003a0 ae d6 8b 3d d1 dc d2 bd 2f b2 dc 3d a7 13 86 bd
       0.06828056 -0.10296024 0.10776173 -0.06546717
0003b0 d5 f4 8e 3d 8a 4e 84 bd 2d 2a 60 bd cc 23 38 3d
       0.06980292 -0.06460293 -0.054727722 0.044956014
0003c0 7b 64 b7 bc a9 22 94 bd 2a 5a c4 3d ba 73 70 3d
       -0.02238678 -0.072331734 0.0958751 0.058704115
0003d0 23 14 fe 3b fb 74 d5 3d a2 c5 16 3d c5 4b fd 3d
       0.0077538653 0.10422703 0.03680957 0.123679675
0003e0 60 7d 89 bc 73 17 e3 bd 1f a5 aa 3d 00 e5 e4 bd
       -0.016783416 -0.11088457 0.083322756 -0.11176491
0003f0 b4 48 42 3d 27 97 c4 bb c3 2f c6 bc 36 86 37 bd
       0.047432616 -0.005999464 -0.024192696 -0.044805728

module.4.bias f4 [64]
000000 f2 4a bc bd 3d 8f 19 3d 44 6d f7 3d 28 57 c4 bd
       -0.09193982 0.03749012 0.12081388 -0.09586936
000010 4d b6 f4 3d 36 15 87 3c 70 c3 ed bd 85 72 1f bd
       0.119488336 0.016489606 -0.11609542 -0.038927574
000020 1b 4e af 3d f7 31 de bd 5c 79 85 bc 7a 9e ea 3d
       0.08559819 -0.10849374 -0.01629322 0.11456008
000030 77 e3 0d bd c3 64 a1 3d 02 55 ee bc 97 92 af bc
       -0.034640756 0.07880547 -0.02909327 -0.021432204
000040 c1 e0 97 bd 57 c6 b8 3d 6a 0c ea bd b6 af 90 bd
       -0.07415915 0.09022205 -0.11428149 -0.07064764
000050 00 54 ea bd 7e e3 ad 3c b7 9f a0 bd 1c eb f1 3d
       -0.11441803 0.02122664 -0.07842963 0.11812422
000060 d2 10 60 3d 27 15 ac 3d 8e c4 31 3c 49 a2 da 3d
       0.05470354 0.08402472 0.010850085 0.10675485
000070 02 e1 92 bd c3 94 1a bd 0f 44 e0 3d d4 58 5b 3d
       -0.07171823 -0.037739526 0.10950481 0.05355151
000080 28 f1 a7 bd 1d 1f ed 39 34 d1 4a 3d c6 09 d1 3c
       -0.08200294 0.00045227344 0.049515918 0.025517356
000090 6a 52 02 3e c0 34 41 bd 05 8e f2 bd 0a d8 85 3d
       0.12726751 -0.047169447 -0.11843494 0.06535347
0000a0 0b fc 48 3c f8 11 c7 bd a3 9f 44 bc e3 f2 dd bd
       0.012267123 -0.09720224 -0.012000951 -0.108373426
0000b0 55 41 93 3d 55 5b e0 3d 7f 9f 13 3d 18 70 02 3e
       0.071901955 0.1095492 0.03604078 0.12738073
0000c0 03 b9 8d bd 58 9e 85 bc 3a a8 cd 3c 7a 8b 39 ba
       -0.06920054 -0.016310856 0.02510463 -0.00070779736
0000d0 7c a3 d7 3d 24 b3 be 3d 8d 3e df bc 35 f7 e2 bd
       0.10529229 0.09311512 -0.027251506 -0.11082307
0000e0 b5 57 f7 3c 90 65 99 3d 27 22 34 3c ad 27 47 bd
       0.03019319 0.07490075 0.010994471 -0.048621822
0000f0 3f fc f5 3c 93 01 e4 bd 38 1a db 3d fa 60 4c 3c
       0.030027507 -0.11133113 0.1069836 0.012474293

module.6.weight f4 [1, 64]
000000 10 47 ff 3d e5 6f f0 3d 75 87 85 3d 6a 8f 61 bd
       0.12464726 0.11740092 0.06519977 -0.05506841
000010 3b a5 ad bd 32 12 b3 3c 47 d7 ef 3d 48 47 d2 bc
       -0.08478781 0.021859262 0.11710983 -0.025668755
000020 50 41 d2 3d 75 c7 ac bc 8e 3b 68 3d 00 da a7 bd
       0.102663636 -0.021091202 0.05669742 -0.08195877
000030 f5 e3 67 3b b2 40 ec 3d 15 50 bd bd c8 62 48 bd
       0.0035383676 0.11535777 -0.0924379 -0.04892233
000040 e3 5f 0b bd 61 ba 05 be f9 d3 ee bd fe bb b5 bb
       -0.03402699 -0.13059379 -0.11661524 -0.005546092
000050 31 1d b2 bc 2c 09 61 3d 37 59 e2 bc c7 ef c4 3d
       -0.021742435 0.054940388 -0.027630432 0.096160464
000060 06 96 ac 3d fe 66 d2 3d fc 1a 22 bd 7e f9 01 3c
       0.08427052 0.102735505 -0.039576516 0.007933019
000070 10 1b c9 bd bb 70 9f 3d d9 a9 59 3d 0c 3d 17 3d
       -0.09819615 0.077851735 0.053140495 0.036923453
000080 bb 38 09 bd b8 ac ed 3d a3 52 ec bd 62 51 63 3d
       -0.033501368 0.11605209 -0.11539199 0.055497535
000090 e2 94 f4 3d d0 f2 79 3d cf 47 dc 3d e5 f5 cb bd
       0.1194246 0.06102258 0.10755884 -0.0995901
0000a0 93 da 04 3e 91 13 c8 3d 9e 8f 2e bd 1d af f5 3d
       0.12974004 0.09769357 -0.042617433 0.11996291
0000b0 15 d5 92 bd e1 70 ea bd 7e 73 f9 3d fb 6d 43 3d
       -0.071695484 -0.11447311 0.121802315 0.047712307
0000c0 c6 35 96 3d 3c f1 8b 3c 8f e2 d4 3c 97 dc cb 3c
       0.07334475 0.017082803 0.025986938 0.024885459
0000d0 3b dd 5c 3d 51 b6 b2 bd f0 31 a0 3d 91 9a 39 3c
       0.05392192 -0.0872618 0.07822025 0.011328355
0000e0 c2 48 48 3d 48 89 f5 bd ba 30 ae bd c2 bf 8e bd
       0.048897512 -0.11989075 -0.085053876 -0.06970169
0000f0 8e 75 c4 bd 47 43 bd 3d 1a 0d d1 3c f5 6f bc bd
       -0.09592734 0.09241348 0.025518943 -0.092010416
