datas/value.pth (torch, 148200 bytes, 7 tensors)

module.0.weight f4 [128, 24]
000000 17 b2 0d 3e 76 e1 38 3d 86 56 74 3e e6 f5 57 bd
       0.13837467 0.04513689 0.23861131 -0.05272474
000010 e9 7f 5d be 7c 89 2b 3c 71 a3 81 bd 86 83 14 be
       -0.21630825 0.010469791 -0.06330002 -0.14503297
000020 d3 83 04 be fc 52 72 3e 80 22 82 bd 12 a5 2b be
       -0.12940912 0.23664469 -0.063542366 -0.16762188
000030 15 d0 85 bd cf aa b1 3d 0f 0b 9b 3c 1a e5 45 bd
       -0.06533829 0.08675157 0.018926172 -0.04831419
000040 58 09 3d be 21 2c 47 3d aa dd 73 bd 00 b2 b5 bc
       -0.18460596 0.04862607 -0.059537567 -0.022179604
000050 5d 3e cf bd bf b2 42 bd 7d 00 38 3e 00 34 d7 bd
       -0.10119317 -0.047533747 0.17968936 -0.10507965
000060 4f f4 a7 be ed 81 9c be 16 97 6b 3d 9c 3f 2f be
       -0.3280358 -0.30567876 0.057517134 -0.17114109
000070 27 52 4b be 50 13 1a 3e 5b 0a 1b 3d 09 ed 9c 3c
       -0.19855557 0.1504643 0.037851673 0.019155996
000080 13 8e 22 3e a0 6e a3 bd b0 bf 9d 3d c4 4f ac bd
       0.1587451 -0.079800844 0.07702577 -0.084136516
000090 d5 1c 66 3d 2f 64 60 bd 21 ad c8 bd 12 4c 5d 3d
       0.05617984 -0.054783043 -0.09798647 0.054027624
0000a0 24 13 67 3c e2 6c 3c be 67 86 8f bd 7f cb 1d be
       0.014103685 -0.1840091 -0.07008057 -0.15409659
0000b0 87 47 fd 3d 38 c3 f1 bd 64 3a b1 3c c0 72 14 3e
       0.123671584 -0.11804813 0.021634288 0.14496899
0000c0 8e bd 90 3d 15 38 40 3c 01 3b a5 be de 91 df bd
       0.07067405 0.011732121 -0.3227158 -0.10916494
0000d0 09 cc fc bc 83 14 16 be 47 88 e5 3d ad be 01 3e
       -0.03085901 -0.14656262 0.112076335 0.12670393
0000e0 0d 3d 59 3e 20 da 10 3e f9 8f 2e bd d9 53 82 bd
       0.21214695 0.14145708 -0.04261777 -0.06363649
0000f0 40 f6 30 3e 21 ed a9 bd d6 23 8e 3d 14 16 4c bd
       0.17281437 -0.08297182 0.06940429 -0.049825743
000100 32 ff 6e 3e ab 53 2d 3d fa 49 5e 3d 71 c4 55 bd
       0.23339537 0.04231612 0.05426977 -0.052189294
000110 c5 83 d3 3d d2 80 bb 3b 76 75 da 3d de 1d d2 bc
       0.103278674 0.0057221437 0.10666935 -0.025649007
000120 81 e2 66 3e 2a f8 6c 3e a6 15 d4 ba 65 e5 99 3d
       0.22547342 0.23141542 -0.0016180768 0.07514457
000130 a8 35 68 3e 9c 46 f1 bb d6 64 4d bd 29 1d ab bc
       0.22676718 -0.0073631536 -0.050144993 -0.020887928
000140 04 13 1b 3e ae 03 05 3e 61 04 e7 3d 9f ed 6a 3b
       0.15143973 0.12989685 0.11280132 0.00358472
000150 2b 9f 42 3d fd 8e 11 bd cc 30 8e 3d a2 66 16 be
       0.047515076 -0.035536755 0.06942901 -0.14687589
000160 b7 40 4a 3e ff 18 9d 3d e5 a8 2d be 7c ce bf 3d
       0.19751249 0.07670783 -0.1695896 0.09365556
000170 91 61 2a be 51 e7 b4 bc 31 2e 35 be a5 d3 4d be
       -0.16638781 -0.022082957 -0.17693402 -0.20100267
000180 5a 9b f2 3c 89 04 0d 3d 04 67 3f bf a5 c8 e8 bd
       0.029615093 0.034428153 -0.74766564 -0.11366395
000190 e9 e7 4a bc 80 1f d4 3b 32 2a 11 3e 9c 87 4a 3c
       -0.012384393 0.0064734817 0.14176252 0.012361433
0001a0 db 9b a5 3d 48 ec 88 3c 08 35 9a 3d 82 ff 81 3e
       0.08086368 0.01671423 0.07529646 0.2539025
0001b0 b8 d9 d7 3c a5 25 a2 3c 3c 1a 1f 3e a8 db 32 3c
       0.026348934 0.019793341 0.15537351 0.010916628
0001c0 c4 38 e4 3d 6f 48 6b 3d 29 36 38 3e 4c 85 4d be
       0.1114364 0.057442125 0.1798941 -0.2007038
0001d0 50 b2 50 be fd 15 d3 3d de 77 3b bd ef 56 60 3d
       -0.20380521 0.10306928 -0.04576861 0.054770406
0001e0 db 83 98 3e 3f 09 47 3e 5b 8a 85 be bd c8 26 be
       0.29788098 0.19437121 -0.2608212 -0.16287513
0001f0 84 a8 3c 3e 37 af e1 bd c6 e6 04 3e 01 46 04 bd
       0.18423659 -0.11019748 0.12978658 -0.032293323
000200 c3 43 85 bd a2 5c 9c 3e 36 8d e1 bd a9 fa 4f 3e
       -0.06507065 0.30539423 -0.11013262 0.20310463
000210 03 47 2a be 11 2a 03 be 11 fd a0 3d 6d f9 81 3d
       -0.16628651 -0.12809016 0.078607686 0.06346402
000220 9a fb c7 bd 67 e3 6d bd 7e 26 5e 3e 9c 07 01 3e
       -0.09764786 -0.058078196 0.21694371 0.12600559
000230 35 39 24 be a9 87 47 bd 51 77 5e 3e 23 e1 cb bd
       -0.16037448 -0.04871336 0.21725203 -0.09955051
000240 36 69 87 3e d8 c3 94 3d 85 da 1d 3d 01 ae b3 3d
       0.26447457 0.07263917 0.038538475 0.08773423
000250 42 33 f9 3d 6d 40 2f bd c9 3a 1e be ea 8f 28 3e
       0.1216798 -0.04278605 -0.15452112 0.16461149
000260 50 c5 d3 3c d2 ed 84 3e 33 be 81 3d ef 24 96 3d
       0.025850922 0.25962692 0.06335106 0.07331263
000270 cd bb a8 3d 34 8d 49 3d 8b 50 27 3e fe b0 31 be
       0.08238945 0.049206927 0.16339318 -0.17352673
000280 50 62 c7 3d 7c 1f 59 bd 16 72 6b 3d 1d 8a 2a be
       0.097355485 -0.05300854 0.057481848 -0.16654249
000290 a9 fb 1f be 76 b2 c9 bd d6 42 87 bd 24 5f f0 bb
       -0.15623344 -0.09848492 -0.06604545 -0.0073355604
0002a0 45 59 4f be a5 17 03 bd 04 c4 08 3e 63 cc 5e be
       -0.20248897 -0.03200497 0.13356024 -0.21757655
0002b0 ed 80 03 be 09 3d b8 3d e8 34 3f 3e f1 43 f8 bc
       -0.1284215 0.089960165 0.18672526 -0.030305834
0002c0 2e 83 48 3d af 26 9c be d2 33 81 3b ae c4 58 bc
       0.048953228 -0.30498263 0.003942945 -0.013230486
0002d0 5f 12 83 3c 6b 95 b9 3d 20 cb ef bd b6 a0 ae bd
       0.015999971 0.09061702 -0.11708665 -0.08526747
0002e0 40 fd d3 3c e0 ee 11 be dc 26 a0 3d 82 0f c9 bc
       0.025877595 -0.1425128 0.07819912 -0.024543528
0002f0 18 7a a3 3d c4 3a dc bd 10 67 15 be d8 9d 82 ba
       0.07982272 -0.10753396 -0.14590096 -0.0009965254
000300 35 e0 1b 3e b7 a0 ff 3c ed c6 12 3f 16 3d 70 3d
       0.15222247 0.031204564 0.57334787 0.058652006
000310 8d 97 d5 bd 51 f8 13 3e fd 3a 17 bd d5 89 a0 3d
       -0.10429297 0.14450194 -0.03692149 0.078387894
000320 29 26 da bd 58 8d f5 3d 0a 3d 74 3d c6 1c 88 bc
       -0.1065181 0.1198985 0.059628524 -0.016615283
000330 e8 90 a4 3d a1 df f2 3d 21 19 30 be d3 12 09 be
       0.08035451 0.1185906 -0.17197086 -0.13386087
000340 3c 69 de bd 28 54 9f 39 a5 85 51 be af 73 cc bd
       -0.108599156 0.00030389545 -0.20461138 -0.099830024
000350 1e 33 bc ba ca 8d de bd 9f af 1c 3d 36 02 05 bc
       -0.0014358496 -0.10866888 0.038253423 -0.008118203
000360 33 41 a6 be 27 94 b8 be c3 d7 86 be c6 b2 a6 3d
       -0.32471618 -0.3605053 -0.26336488 0.08139567
000370 43 17 3b be d5 57 50 3d 47 fe 42 bd 77 31 b7 3d
       -0.18270592 0.050865013 -0.04760578 0.089449815
000380 1b 97 a0 bd d3 ff 86 3d 6a 27 dd bc a2 e3 28 be
       -0.07841321 0.06591763 -0.026996333 -0.16493085
000390 f9 2b 4d be 4d e9 1b 3e 48 fc 68 bc c0 f2 ab bb
       -0.20036305 0.15225716 -0.014220305 -0.005247444
0003a0 5d 50 8b 3d f0 4e d2 3d 9d dd 9e bc d5 42 d2 3d
       0.068024375 0.102689624 -0.019392783 0.102666534
0003b0 8a f4 50 be 4f aa 19 be d8 1d 91 bc e7 40 42 3d
       -0.20405784 -0.15006374 -0.017714426 0.047425177
0003c0 53 e8 68 3e af b7 53 3e 17 48 07 be 95 f8 0a 3e
       0.22744875 0.20675538 -0.13211094 0.13571389
0003d0 41 92 43 3d 67 7f 42 3e de 88 26 be 2a a0 3f 3d
       0.0477469 0.18993913 -0.16263148 0.046783604
0003e0 6f 5f 15 3e 10 56 b9 3d 80 25 ff bd 3f 7d f1 bd
       0.14587186 0.09049618 -0.124583244 -0.11791467
0003f0 db 23 20 be 8a e4 57 3d f8 28 a3 bd d2 ad cd bd
       -0.15638678 0.052708186 -0.079667985 -0.10042919

module.0.bias f4 [128]
000000 9f cb d9 bd 4d 47 2d bd 7e 32 8e 3e 72 0d fa 3d
       -0.10634541 -0.042304326 0.27772897 0.12209596
000010 eb 95 95 3d 83 1d 32 be 38 e5 28 3e 0d b5 2f 3e
       0.07303985 -0.1739407 0.1649369 0.17158909
000020 e4 2c d3 3d a2 39 0f 3e f3 87 2f be 4a 5a 23 be
       0.103112966 0.13986829 -0.17141704 -0.15952411
000030 66 fa 52 b8 07 a6 02 3e cc 2e 46 be c7 a5 3c be
       -5.0301103e-05 0.12758647 -0.19353789 -0.18422614
000040 37 1c 14 be 92 2d d2 3c db 6e 3a be 7f 08 8a bd
       -0.14463888 0.025656495 -0.1820635 -0.06739902
000050 95 27 0c 3e c9 3e 2c 3e dd 1f c1 3d ac 46 d1 3d
       0.13686974 0.16820826 0.094299056 0.10218558
000060 5f c3 b7 3d 0b 49 eb bd 61 fe 00 3e 9a 71 09 3e
       0.08972811 -0.11488541 0.12597038 0.13422242
000070 ea 46 f3 3d 40 ca 48 bd a3 92 b0 3d 3f 86 4a 3e
       0.1187876 -0.049021006 0.08621719 0.19777773
000080 89 5d 17 3e 08 7c bf 3d d6 0a 04 be 8e 77 92 be
       0.14781775 0.09349829 -0.12894759 -0.28606838
000090 7b 4a 36 3e 34 2d 0a be 19 c0 41 be 2f cc 43 3e
       0.1780185 -0.13493806 -0.18920936 0.19120859
0000a0 d0 0b 62 3d bd d5 b4 3d a9 91 32 3e 95 44 b5 bd
       0.055187047 0.0882983 0.17438377 -0.088509716
0000b0 bf 50 25 3c 83 13 21 3e d8 ed 18 3e 70 c4 20 bd
       0.010090052 0.157301 0.1493448 -0.039249837
0000c0 c0 97 32 3e 75 70 8c be 7a 5d 24 3e a5 62 00 be
       0.174407 -0.27429548 0.16051283 -0.1253763
0000d0 52 80 23 bd 1e 57 00 3e 8a 3e 3c be ae 72 31 be
       -0.039917298 0.12533233 -0.18383232 -0.17328903
0000e0 24 b6 a3 bc 83 87 3c 3e d6 dd 77 3d e4 49 cc ba
       -0.019984312 0.18411069 0.060514294 -0.0015585986
0000f0 69 46 d8 3d a7 6a 23 be 2f 1c 0a be fc 2e 14 3e
       0.10560305 -0.15958653 -0.13487314 0.14471048
000100 4c 2d c9 bd a6 db e1 3d 5f ee 9e 3d c2 54 83 bc
       -0.09823093 0.11028223 0.077603094 -0.016031627
000110 a6 22 4e bc e7 35 65 be ca ff 21 3e 3d 99 e7 3d
       -0.012581503 -0.22383843 0.15820232 0.11308525
000120 69 6c 48 3e bb 7f 2e bd 4d 01 0a 3e 53 8e 5c 3e
       0.19572605 -0.042602282 0.13477059 0.21538667
000130 ae 6b 05 be 67 17 8a bd 1a ae 58 3e 2a fa 85 bd
       -0.13029358 -0.06742745 0.21160164 -0.06541856
000140 b3 0b da bd 90 51 01 3e 64 22 f4 3c b3 a8 06 bd
       -0.10646763 0.1262877 0.029801555 -0.032875728
000150 23 45 40 3e 7a fe 98 bd 3c 70 aa 3d f9 e5 f1 bd
       0.18776374 -0.074704126 0.08322188 -0.11811442
000160 6e 9b 25 3e 21 6d 0e be 74 7c 35 3e 13 77 41 3e
       0.16172573 -0.13908817 0.17723256 0.1889308
000170 86 c2 b9 3d fb 01 e1 bd ca 17 ff bd c6 eb 4f be
       0.090703055 -0.10986706 -0.12455709 -0.20304784
000180 da 78 3a bd 41 9e 22 be 24 a0 4b 3e 0d 99 c1 bc
       -0.04552541 -0.15880682 0.19885308 -0.02363255
000190 05 1c 32 be 33 8f ae 3d 99 e1 76 3e f9 86 11 bc
       -0.17393501 0.08523407 0.24109496 -0.008882278
0001a0 82 13 29 3e 9c 3c 5a 3e 83 16 1b 3e 5d b1 9e bd
       0.16511348 0.21312183 0.15145306 -0.07748673
0001b0 82 7d 25 bc c5 dc aa bd 29 1e df bd d7 28 13 be
       -0.010100724 -0.0834289 -0.108944245 -0.14371048
0001c0 ff d3 3b bb e8 8b 2d be 2c c0 3e 3e 50 f2 24 3e
       -0.0028660295 -0.16947901 0.18627995 0.1610806
0001d0 82 b9 44 3e a3 b0 4f bd d8 ec aa 3d 33 2e 02 be
       0.1921139 -0.050705563 0.083459556 -0.12712936
0001e0 8e 34 3d 3e 4b 6c 1c 3e f1 4e 8a bd 56 40 45 be
       0.1847708 0.15275685 -0.06753338 -0.19262823
0001f0 8b 5b 1a 3c a0 b5 13 be 60 57 96 3d 97 34 2a 3e
       0.00942124 -0.14424753 0.07340884 0.16621624

module.2.weight f4 [128, 128]
000000 af 4d c7 3c ab 50 04 3e dd e5 9a bd b5 23 fb bd
       0.024329035 0.12921397 -0.07563374 -0.1226267
000010 3a c4 04 be eb 46 4d be 20 1e 30 bc 37 ea 5c 3e
       -0.1296548 -0.20046584 -0.01074937 0.21573721
000020 74 ee b6 3d ed 11 c8 3c 19 f2 c7 3a da 64 aa bc
       0.089322 0.02442261 0.0015254646 -0.020800043
000030 32 60 5c bd 23 c4 cb 3d d8 c2 59 3e fe db c8 3d
       -0.053802676 0.099495195 0.21265733 0.09807585
000040 46 30 d5 b9 49 38 37 be a3 cb 27 be cf c8 78 3c
       -0.00040662492 -0.17892565 -0.16386275 0.015184595
000050 6d 3b c6 bd 7b 2e 9d bc 98 61 09 3c 25 fd 74 3d
       -0.09679303 -0.019187203 0.008385085 0.05981173
000060 87 35 d4 3c 0e 84 bf bd 12 72 ba bd b7 4d 0b be
       0.02590443 -0.09351359 -0.091037884 -0.13603865
000070 df 6f 11 3e 3b e8 49 3d ec 7d d7 bd 09 b0 bf 3d
       0.14202832 0.049293738 -0.105220646 0.09359748
000080 08 27 a3 bd 28 89 6b 3d 5b 01 d4 3d 3a 83 6b bd
       -0.07966429 0.05750385 0.10351821 -0.057498194
000090 fc f7 37 3d 1f ff f7 3c 01 2b 23 3d fe 2d 0e 3c
       0.04491423 0.030273018 0.039835934 0.008677958
0000a0 af 19 60 be a8 21 fe 3c d2 94 43 bc 38 bb 68 bd
       -0.21884798 0.031021908 -0.011937337 -0.05681917
0000b0 29 74 43 bc 07 eb 07 3d 29 54 02 be 73 85 22 3d
       -0.01192955 0.033183124 -0.12727417 0.03967805
0000c0 e4 6f 2f be 21 30 51 3d 14 a7 6d 3c 2c f4 ac 3c
       -0.17132527 0.05107129 0.014505167 0.021112524
0000d0 eb 5a 99 bd 1d ac 49 be 4b fe 55 3d 46 0c d8 bd
       -0.07488044 -0.19694562 0.052244466 -0.10549216
0000e0 53 c0 3c 3c d6 6f be 3d da 95 fc 3d 87 af 88 bc
       0.011520463 0.09298675 0.123332694 -0.01668526
0000f0 43 3c df 3d a3 ef 9a bd 7c d9 8d 3d 97 9b 83 3d
       0.10900166 -0.07565238 0.069262475 0.06426161
000100 f8 20 16 be 4a a0 b2 bd 23 ac 79 be 83 0b 11 3d
       -0.14661014 -0.08721979 -0.24382071 0.03541137
000110 aa e0 3e bc 3d 9b e1 3d e0 84 2c 3e f7 6b 36 bc
       -0.011650244 0.110159375 0.16847563 -0.011134139
000120 cd ab f1 3c 29 cc 83 be c8 3f 00 be 8c 15 5a 3e
       0.029500866 -0.257417 -0.1252433 0.21297282
000130 a1 c1 38 bd 21 06 f0 3c 46 7d 96 3d 52 ab 15 be
       -0.045106534 0.029299797 0.07348113 -0.14616135
000140 c1 a6 89 3c 90 34 97 3d a2 eb 02 bd e5 e9 5c bd
       0.016803147 0.073830724 -0.031963 -0.053933997
000150 cf 3e 10 be a6 11 a2 3d 3d 13 f4 bb 6a 1f 8f bd
       -0.1408646 0.079135224 -0.0074485824 -0.06988414
000160 a8 e5 4c 3d 35 39 42 be eb 21 9c 3d b6 d1 24 bd
       0.050023705 -0.18967135 0.07623657 -0.04023906
000170 64 0e 8d 3e 70 23 09 bd 66 99 89 3c 0b 93 80 bd
       0.27550042 -0.03348106 0.016796779 -0.06278046
000180 5c 6a 46 3e ad af f4 3d bf 55 34 bd c1 d3 18 be
       0.1937651 0.1194757 -0.044027086 -0.14924528
000190 4c 09 e3 bd 60 29 83 3d d7 df 6c 3d 49 95 21 be
       -0.110857576 0.06404376 0.057830658 -0.15779604
0001a0 fb 2b 6e 3d 60 24 44 3e 28 a7 01 3e 72 01 58 bd
       0.05814741 0.19154501 0.12661421 -0.052735753
0001b0 be 7e bf bc cc 45 da bd 8f bf 82 bd 2e 14 fc bd
       -0.023375865 -0.10657844 -0.06384193 -0.123085365
0001c0 e4 25 e4 3a 85 3c 72 bd 8d 19 a2 3d 80 50 d4 bb
       0.0017406312 -0.059139747 0.0791503 -0.006479323
0001d0 a4 eb c7 bc 23 f8 d1 3c bb 56 a7 3d 9d 8b 3d 3d
       -0.024404354 0.025631016 0.081708394 0.046275724
0001e0 81 f8 33 bd 45 52 4c ba c8 7c ce 3a a4 cd 9d bc
       -0.043938164 -0.00077942415 0.001575374 -0.019263096
0001f0 6a ec 27 3e 9b bd a9 3c 66 6f 24 3c 50 af 2c 3e
       0.16398779 0.020720294 0.010036325 0.16863751
000200 fd 97 a1 3d 94 69 27 3e c0 ef 8b bd cb c5 4a bd
       0.078903176 0.16348869 -0.06832838 -0.049505036
000210 15 8c 9e bb 1b db 11 be d0 c1 f8 bc ee 5c 3c 3e
       -0.0048384764 -0.14243738 -0.030365855 0.18394825
000220 a3 35 b9 3c ca 51 98 3d c5 ed 8d bd 0e 4e b4 3c
       0.022608584 0.07437475 -0.069301166 0.022009876
000230 86 0c f2 bd ba 7a b2 3d 4d 6e aa 3d eb 39 ca 3d
       -0.11818795 0.087148145 0.083218195 0.09874328
000240 68 15 17 bd 25 2b 14 be d1 73 d7 bc 45 14 d5 3d
       -0.03688565 -0.14469583 -0.026300343 0.10404257
000250 1a f5 e3 3b 68 5c 53 3d 79 16 31 3c d7 2d be 3d
       0.0069567086 0.051601797 0.010808581 0.09286087
000260 6e 8e 68 3c 71 d4 05 bd aa 12 19 bd 7f 3c 2f 3d
       0.014194114 -0.032673303 -0.037371315 0.042782303
000270 b3 f6 84 3d 27 cd 43 3d 82 55 5d be 7c 62 7a bc
       0.06492367 0.04780307 -0.2161465 -0.01528227
000280 f4 31 f0 bd ea fc a2 3d 8d 58 0d 3c 79 0d 0e 3d
       -0.11728278 0.07958396 0.008627069 0.034680817
000290 02 74 10 bd 4a e8 7a bd 56 98 49 bc 7a 4d 36 bc
       -0.035266884 -0.061256684 -0.012304386 -0.01112687
0002a0 73 60 d9 bd 9b e4 00 bd 34 54 11 3d 9e 42 1e bd
       -0.10614099 -0.031468015 0.035480693 -0.03863775
0002b0 27 ab 33 3d 24 06 99 bd a6 de 6d be 03 96 df 3a
       0.043864395 -0.07471874 -0.23229465 0.0017058257
0002c0 c3 4b 8f bd 2b e6 48 bd 22 f5 8b bc f9 51 9a 3d
       -0.06996872 -0.04904763 -0.017084662 0.07535166
0002d0 ea 70 a1 bd 32 3b 34 be 70 a9 23 3d f3 6b 34 be
       -0.07882865 -0.17600706 0.03995651 -0.17619304
0002e0 50 33 0a be 18 8a 25 3c 1b 45 35 3e 77 d0 fa bd
       -0.13496137 0.010103725 0.17702143 -0.12246793
0002f0 fb c1 24 3e 7f 01 8a bc da f3 76 ba 68 52 d7 3d
       0.16089623 -0.016846417 -0.0009420492 0.105137646
000300 cd ef 42 be 98 b6 c3 bc 23 a0 2d be 72 c2 db 3d
       -0.19036789 -0.023890778 -0.16955619 0.10730447
000310 76 d8 b3 bd a7 8c d8 3d e5 c9 08 3e 16 f6 e5 3c
       -0.08781521 0.10573702 0.13358267 0.028071444
000320 6b 81 bb bd b2 11 2a be ff 8f 76 bc cc 08 10 3e
       -0.09155544 -0.16608313 -0.01504898 0.14065856
000330 1f 51 92 bd e3 d9 83 bd e6 b7 24 3c 0f ca b0 bd
       -0.07144379 -0.06438043 0.01005361 -0.086322896
000340 ad e4 04 bd b2 0b 79 3d e9 b5 c9 3d b3 dd 62 bd
       -0.032444645 0.06080217 0.0984915 -0.05538721
000350 f2 04 aa bd 7c da e5 3d 54 c7 d5 bd 96 e3 83 bd
       -0.083017245 0.11223313 -0.104384094 -0.06439893
000360 45 06 bd 3d bc 0a 82 be d0 3f b3 3c 18 91 96 bd
       0.092297114 -0.25398815 0.021881014 -0.07351893
000370 62 f5 82 3e 63 e1 1f bd 5c cc 00 bd 96 9a 0f bd
       0.25577837 -0.039033305 -0.031444892 -0.035059534
000380 a3 db 90 3d 9e 8a a8 3d dc 94 4a 3d c4 e2 e9 bd
       0.070731424 0.08229564 0.04945837 -0.11420205
000390 a1 91 52 be f2 a2 19 bd 4a 68 eb 3c cb 32 29 be
       -0.20563366 -0.037508912 0.028736252 -0.16523282
0003a0 0d 05 64 3d f5 a4 43 3e a8 e1 17 3e 1f d8 ff bd
       0.05566888 0.19105895 0.14832175 -0.12492394
0003b0 1c 14 14 bc 06 31 41 bc 67 01 0e be 17 6c a2 bc
       -0.009037998 -0.011791473 -0.13867722 -0.019826932
0003c0 0d 68 38 bd 32 e2 f3 bc e0 0a 02 3e 0f 72 1b 3b
       -0.045021106 -0.029770944 0.12699461 0.0023719107
0003d0 e0 e6 9b bc 4f ff ae bd cb 17 ab 3d 42 72 0e 3e
       -0.019030988 -0.0854479 0.083541475 0.13910773
0003e0 2c ad 28 3d b4 8c e2 3d 3c 9e 00 bd 91 92 72 3d
       0.041180775 0.11061993 -0.031400904 0.059221808
0003f0 fc 9f cf 3d bf dd 6b 3d 9e 71 66 3a c2 d8 b0 3d
       0.101379365 0.05758452 0.0008790734 0.08635093

module.2.bias f4 [128]
000000 1b 9f 0d bd c0 bb c7 bb 37 f6 e1 3c 1e 26 cd 3d
       -0.034575563 -0.0060953796 0.027583225 0.10017036
000010 f8 9d fc 3d 01 4f f7 3c 79 0d 95 3d 9f ac 20 3e
       0.12334818 0.03018904 0.0727796 0.1569085
000020 52 9b 7b 3d 9b 40 41 3b 97 a5 38 bd bd b3 fb bc
       0.061427422 0.002948797 -0.045079794 -0.030725354
000030 fc d5 05 3e 64 3f fa bd 1a 4c bc bc 01 8e 44 3b
       0.1306991 -0.12219122 -0.022985507 0.0029991867
000040 87 85 8e bd 60 8d 6e bd b6 b5 5e 3d 3a e8 89 3d
       -0.06959062 -0.058240294 0.05437251 0.06733747
000050 ff 80 6d bc 91 fc 65 3d 9b 99 4a 3d 39 cf 81 bd
       -0.014496087 0.05614907 0.049462896 -0.06338353
000060 32 9e f9 3d 80 ea ca 3c 1f ae b4 bd 2c 99 de 3d
       0.121883765 0.024770021 -0.088222735 0.10869059
000070 92 19 31 3d 31 ec 26 bd 1e 3d 4a 3b fd a9 cd 3c
       0.043237276 -0.040752593 0.0030859183 0.02510547
000080 27 a1 54 3d ab 7e c3 3d c3 e5 5b bd a6 9c f7 bc
       0.0519115 0.095456444 -0.053685915 -0.030226063
000090 1b 36 71 3d 25 97 7f bd 30 3f 32 3d e5 59 b6 3d
       0.05888949 -0.062400002 0.04351729 0.08903865
0000a0 8f 52 c8 bd e5 57 94 ba 63 82 fd 3c 11 79 ad 3d
       -0.09781372 -0.0011317699 0.030945962 0.08470357
0000b0 d8 71 2f bd a1 09 a0 bd 96 cf ef bd 4b 6d 33 3d
       -0.04283318 -0.078143366 -0.11709516 0.0438054
0000c0 96 1a d0 bd f3 a7 9a 3a 18 17 9a bd ab cf 72 3d
       -0.10161321 0.001179932 -0.07523936 0.05928008
0000d0 4d 96 b4 bd 53 f2 44 3b a3 cb f5 bb ef 69 06 be
       -0.0881773 0.0030051663 -0.007501082 -0.13126348
0000e0 be b8 21 3d d8 06 04 be a7 62 45 3b 17 c3 c7 3c
       0.039482825 -0.12893236 0.0030118616 0.024385018
0000f0 75 cb b4 3c 25 35 cc 3d 14 01 13 be e8 c5 9d bd
       0.022069672 0.09971074 -0.1435588 -0.07703763
000100 c0 47 f8 3c fa 34 f0 bc 7a 73 30 be 4a c2 c5 3d
       0.03030765 -0.029322136 -0.17231551 0.09656198
000110 1c cf 26 3d ad 0c d3 bd 37 ab 37 3d cf 9f be bd
       0.04072486 -0.10305152 0.044841018 -0.09307825
000120 c3 99 54 3c 38 53 78 3c 55 b3 fa bd 05 bb 08 3e
       0.012976113 0.01515656 -0.12241236 0.13352592
000130 24 1c ad 3d 5f 40 ad 3c e2 cd 54 3d 03 20 e6 bd
       0.08452633 0.021148859 0.051954158 -0.112365745
000140 dc ce 09 3e 6a 75 4e bd 54 a4 d4 3d 11 b8 cf bc
       0.13457817 -0.050404944 0.103829056 -0.025356324
000150 8e 5e b8 3d 4e 03 a4 3d 00 46 a3 3c 1f 5e 64 3c
       0.0900241 0.08008443 0.01993084 0.013938456
000160 bd 9c 90 3c aa fe 86 bd 8f 22 85 bc f8 47 2a bd
       0.017652864 -0.06591542 -0.01625183 -0.04157254
000170 29 64 f5 3d 21 2c 6c 3d 89 c7 0c bd c2 91 78 3d
       0.11981995 0.057659272 -0.03436998 0.06068588
000180 eb b9 83 3d d9 05 e7 3d fe b9 24 bd e7 44 2b 3d
       0.064319454 0.11280412 -0.04021644 0.041813757
000190 7a 0e 9c bd 00 d3 7c bd 48 9e 7d bd f6 2f 91 bd
       -0.07619949 -0.061724663 -0.061918527 -0.07089226
0001a0 96 41 36 bc 2b c2 b6 3d 68 e9 0a 3d 7f e4 df bc
       -0.011124035 0.08923753 0.033914 -0.027330635
0001b0 12 82 01 3e 6f ef 21 3e a9 38 01 be 5b 19 e5 bd
       0.12647274 0.15813993 -0.1261927 -0.11186477
0001c0 ac ab 30 3d 05 bc 0c bd 20 7c b9 3b 9d 2a 0b 3e
       0.04313247 -0.034358997 0.005660549 0.13590474
0001d0 22 6a ff ba 25 cb 6d bc 76 d5 a5 3d 2d 46 31 bd
       -0.0019486586 -0.014513765 0.08097355 -0.043279815
0001e0 32 bc 99 bd 0b b6 1c bd e5 49 a5 3d 7e 1c f1 ba
       -0.075065985 -0.038259547 0.08070735 -0.0018395332
0001f0 6e 62 c9 bd ca ad 89 bd 52 ae 4a 3d 34 7e 35 bd
       -0.09833227 -0.06722601 0.04948265 -0.04430981

module.4.weight f4 [128, 128]
000000 6a 18 fc 3d 75 b6 04 bc eb 23 c2 bd 86 69 86 3d
       0.12309344 -0.008100142 -0.09479507 0.06563096
000010 a5 bc 2e 3c 0e ca 98 3d 71 00 db 3d 43 65 3f 3e
       0.010665094 0.07460414 0.106934436 0.18690972
000020 a9 af 43 3d f6 74 8c 3d e7 46 d5 bd 04 2d e9 bc
       0.047774944 0.06858246 -0.10413914 -0.028463848
000030 39 bc 10 3e 57 77 de bd 34 12 25 be 17 9e e1 3d
       0.14134301 -0.10862606 -0.16120225 0.11016481
000040 4d 39 69 bd 63 b7 60 be 41 aa d5 3d de 0b 06 3e
       -0.056939412 -0.21944956 0.10432864 0.13090464
000050 4c ef 15 bd fd f8 00 3b 1d 66 b6 bd 48 4b 57 be
       -0.036605164 0.0019679659 -0.08906195 -0.21024811
000060 4c 24 13 3e 06 41 a8 bd 14 bc 10 bd fe a7 3d bb
       0.14369315 -0.08215527 -0.035335615 -0.0028939242
000070 8b fd f9 3b 33 31 44 3d dd 0a b7 bd 41 f2 7b 3d
       0.0076291016 0.047898483 -0.08937619 0.06151033
000080 04 7b 53 3d f0 e9 db 3d 03 39 6b bd b1 d9 b9 bd
       0.05163099 0.107379794 -0.057427417 -0.090747245
000090 2e 29 1d 3d 7e f3 2c bd ce b2 75 3c 2f ba 39 3e
       0.03836935 -0.0422244 0.014996244 0.1813743
0000a0 4a a2 42 bb 2b 73 74 be 77 a6 05 3e 1b 04 1d 3e
       -0.0029698783 -0.23872058 0.13051783 0.15333597
0000b0 7c 8b a1 bd 77 20 f2 3a 82 dc 3f be f8 e6 51 3d
       -0.07887933 0.001847281 -0.18736461 0.05124566
0000c0 e1 fb ee bc c4 7c 6f bd 2b 1a f6 bd 12 3c 54 3e
       -0.02917284 -0.058468595 -0.1201671 0.2072604
0000d0 b6 a0 3e bd e9 6a 0e 3e 9e a3 22 3d cd 10 1e be
       -0.046539985 0.1390797 0.03970682 -0.15436096
0000e0 bc 5d 89 bc 71 a8 67 bd a3 d7 82 bc 8d 9b 4b 3e
       -0.016768329 -0.056557123 -0.015971964 0.19883557
0000f0 91 b2 c9 3c db 86 32 3e ed 9c 80 3d 08 3b 59 ba
       0.02462128 0.17434256 0.06279931 -0.00082866894
000100 5e 2e c4 bc 3c a9 b3 bb 17 c6 6c be af dd 52 bd
       -0.02394789 -0.005482821 -0.2312244 -0.051480945
000110 97 2d df bd 57 12 7c bd 77 8c 5e 3e ff 97 b4 3c
       -0.108973674 -0.061540928 0.2173327 0.022045134
000120 6a dd 63 3c 7d 48 bb bb 22 dc 84 bd 79 07 f2 3d
       0.01390777 -0.0057154284 -0.064872995 0.118178315
000130 ae 6e 36 3e 39 23 00 bd 44 2a 30 bd bf cb f8 3b
       0.17815658 -0.03128359 -0.043009058 0.007592648
000140 61 18 7a 3d d5 9c 1d be 44 5e 9f 3d 78 4e 12 bd
       0.061058406 -0.15391858 0.077816516 -0.035719365
000150 5d ac 97 3d c3 f7 0b 3d f4 87 a1 b9 0d a5 da bd
       0.074059226 0.03417183 -0.00030809606 -0.10676012
000160 aa 68 59 3d 65 6e c8 bd b1 be b9 3d fa 53 81 bd
       0.05307833 -0.09786681 0.090695746 -0.063148454
000170 3c 2f 06 3e c2 15 6b 3c 54 a9 2d 3e 40 72 b0 3d
       0.13103956 0.014348449 0.16959125 0.086155415
000180 61 aa d6 3d fd 01 2e 3e da de 8d bd 00 99 46 bd
       0.10481716 0.16992946 -0.06927271 -0.048485756
000190 6d 05 1b 3d c4 84 44 be 17 39 0d bd fd 60 16 be
       0.03784697 -0.19191271 -0.034478273 -0.14685436
0001a0 c0 b0 bf bd db ff 23 3e 80 e1 41 be 55 9e 63 be
       -0.09359884 0.1601557 -0.18933678 -0.22228368
0001b0 f7 e8 8c 3d 25 35 9b 3d 88 d8 83 be 7a 31 19 bd
       0.06880372 0.07578496 -0.25751138 -0.0374007
0001c0 b7 2c fd 3d 9d 95 fd bc 4f 3c aa 3d 9b cc fb 3d
       0.12362044 -0.03095513 0.08312284 0.12294885
0001d0 f1 ac 41 3d 0b 5d bc bd 9d 43 48 3e 3a 91 f7 3d
       0.04728407 -0.09197434 0.19557042 0.12088247
0001e0 60 35 91 bd 1b f4 db bd 6c 1b 04 3d 8a 4c a3 bc
       -0.070902586 -0.10739919 0.032252714 -0.019933958
0001f0 06 44 1f bd 17 cb 15 bc f5 5f 56 3c cb 5d 84 bd
       -0.03888323 -0.009142659 0.013084401 -0.06463202
000200 50 a0 8c 3d 4b 4f 6b 3d bb 83 b2 bd c7 3f 75 3d
       0.06866515 0.057448667 -0.08716532 0.059875276
000210 3a b1 11 be cd 6e 7e bd 85 77 04 bb 72 9c df 3d
       -0.14227763 -0.062117387 -0.002021284 0.109185115
000220 53 1e bf 3d a1 02 64 3e 43 36 3f bd 8a 34 35 be
       0.09331956 0.22266628 -0.046682607 -0.17695823
000230 a2 f6 33 bd 7d 65 5c bd 80 e2 e2 bd 4a 0b a9 bd
       -0.04393638 -0.053807724 -0.11078358 -0.08254106
000240 b9 d3 e3 3d 63 c8 15 be 62 0c 13 3e 3e d9 69 3e
       0.11124367 -0.14627223 0.14360192 0.22836778
000250 0d d3 da bd e4 c5 8d bd 0e 19 b1 bd 6f 93 4e bd
       -0.10684786 -0.0692251 -0.08647357 -0.050433572
000260 2d a2 4c 3e e1 30 15 be 05 8a fc 3d 78 68 83 3d
       0.1998374 -0.14569427 0.12331013 0.0641641
000270 3d 16 98 bd 33 2f c8 3d 25 4c 1d 3d 2e 8e e1 bc
       -0.074261166 0.097746275 0.038402695 -0.027533617
000280 f8 9e 86 3d 9d fb b1 3b 20 02 e3 bc db 24 a2 bd
       0.0657329 0.005431606 -0.027710974 -0.07917186
000290 ce 72 41 bd 55 53 b0 3b 2e d5 96 bc 14 e9 8f 3d
       -0.047228627 0.0053810277 -0.018412199 0.07026878
0002a0 33 14 09 be f7 3a 90 bd 8a f8 83 3e 6f 01 20 3e
       -0.13386612 -0.07042497 0.25775558 0.15625547
0002b0 ac 5e 5b bd ef e1 2e 3d 95 83 91 bd 5c dd d0 bd
       -0.053557083 0.042695936 -0.071051754 -0.10198471
0002c0 d9 f0 c1 bd 21 41 bc 3d 20 07 18 bd d3 84 48 3d
       -0.09469766 0.0919211 -0.03711617 0.048954796
0002d0 ae 13 ee bc a4 fe 04 bd b3 c3 a3 3b fc c3 f2 bb
       -0.029062118 -0.032469407 0.0049976944 -0.007408617
0002e0 bd 18 17 bc 65 51 ee 3b 90 6b f4 bb 1b 66 b4 3d
       -0.009222207 0.0072728866 -0.0074591115 0.088085376
0002f0 6e 3a 51 be d1 6a 1b 3e eb 2c 79 3d b3 9a e7 3d
       -0.20432445 0.15177466 0.060833853 0.113088034
000300 84 df ea 3c cc 24 1f be c3 e4 e5 bd 0c 89 48 be
       0.028671034 -0.1554138 -0.112252735 -0.19583529
000310 ad 86 ab 3d c7 c9 22 bd 98 0e 29 3e 99 ef 9b 3d
       0.08375297 -0.03974321 0.16509473 0.07614059
000320 50 d1 ae bb 15 e6 5c bd 49 8b d6 bb 52 b2 1f 3e
       -0.0053350106 -0.05393036 -0.006547366 0.15595368
000330 2e 9b ba 3d 21 4d b8 3d ee 64 42 bd 88 7d f2 bc
       0.091116294 0.08999086 -0.047459535 -0.029600874
000340 87 53 3a bd f7 19 40 be 57 9a 86 3d c9 3e 3d bb
       -0.045489814 -0.18759905 0.06572407 -0.0028876534
000350 4d 76 24 3e 72 ca 90 3d c7 47 d9 bd e7 f6 42 3c
       0.16060753 0.070698634 -0.106093936 0.011899686
000360 e6 e8 a6 3d ab 34 95 bc 8d ce 8a 3d 34 71 b3 bd
       0.081498906 -0.01821359 0.06777678 -0.08761826
000370 81 ea 4c bd 4f f9 95 bb 45 31 69 3e 44 59 fd bb
       -0.050028328 -0.004576839 0.22772701 -0.0077315886
000380 6b 83 39 3d 2e 7c a1 3d ce 9b 0a 3e c5 34 9e bd
       0.045291346 0.078850135 0.13535997 -0.07724909
000390 25 b2 17 be fd 5d c1 bd 8b 2c 24 be e3 5b 14 be
       -0.1481405 -0.09441755 -0.16032617 -0.14488177
0003a0 8f 5d 9f bc 68 3c 00 3e 6b 08 c0 bd 34 b7 55 be
       -0.019453792 0.12523043 -0.093766056 -0.20870668
0003b0 50 4e 87 3c 0e bc 4e bd fc d3 60 be ef af 45 be
       0.016516834 -0.05047231 -0.21955866 -0.19305395
0003c0 a2 b6 23 3e ae e0 04 bd 23 4b 44 bc 4b c9 a8 3c
       0.15987638 -0.032440834 -0.011980805 0.020603796
0003d0 ff b2 03 3e 1f 72 b0 3c 0e a2 ff 3b 82 32 3b 3e
       0.1286125 0.021538792 0.007801301 0.18280986
0003e0 25 79 80 bc fa 6c 72 be fa f7 03 bd 98 a7 c1 bd
       -0.015682766 -0.23674384 -0.03221891 -0.09455794
0003f0 61 f2 09 bd 42 5e 28 bd cc 0d f1 3c e3 ff 12 3e
       -0.033678416 -0.041105516 0.029425524 0.14355426

module.4.bias f4 [128]
000000 cd 05 f5 bc 9d c9 9c bd 68 f8 8c 3d 61 9a 97 3c
       -0.029909993 -0.07655642 0.06883317 0.01850623
000010 cc bc 15 3e ee ba 4b bd 4a 9b 0e 3d 55 7f 2b bd
       0.14622802 -0.049738817 0.034816064 -0.04186948
000020 c4 21 c3 3b 4a 35 82 bc 67 36 03 bd 43 d5 11 be
       0.005954953 -0.01589455 -0.032034304 -0.14241509
000030 ba e2 a4 bd bf 87 89 3d 6e 79 a1 3d 24 0b 5a bd
       -0.08051057 0.06715345 0.07884489 -0.05323328
000040 72 f4 d3 bd c4 06 c1 3c e3 6a 1a bd 76 10 ad 3c
       -0.103493586 0.023562796 -0.03769959 0.021126013
000050 21 54 9a 3d 7f 8d 13 3e 56 c6 89 3d 96 5c 77 bd
       0.075355776 0.14409445 0.06727283 -0.06039103
000060 9d 29 01 bd 48 bd 2b bd bb 17 a3 bd 3a 12 b0 bd
       -0.031533826 -0.04192856 -0.079635106 -0.085972264
000070 e7 99 17 3e 57 80 90 bd 08 94 08 3d c9 ab e0 3c
       0.14804803 -0.07055729 0.0333443 0.027425664
000080 73 43 13 be 7a d2 b6 3d e3 8b 7a 3d 32 83 ca bd
       -0.14381199 0.08926864 0.061168563 -0.09888305
000090 a1 c5 cc 3d c7 28 6d ba 9e bb cf bc 15 5e 53 3d
       0.09998632 -0.0009046909 -0.025358018 0.051603395
0000a0 98 d5 7e bb be 4f 92 bd c6 9c 03 3e da 19 39 3d
       -0.0038884636 -0.07144116 0.12852773 0.04519067
0000b0 ee f9 e9 3d 16 7b 0f 3e 13 8a 46 bd b9 53 69 bd
       0.114246234 0.14011797 -0.04847152 -0.05696461
0000c0 54 4a 19 bd 0f 5b 24 bc f0 31 1b bd ea 9e a8 3d
       -0.0374244 -0.010031476 -0.03788942 0.082334355
0000d0 39 72 a2 bc af 52 9e 3d 2c 8f cd 3c c4 a8 43 bd
       -0.019829856 0.077306144 0.025092684 -0.04776837
0000e0 7d 60 c9 3d 49 ea 56 3d 63 85 f5 3d 99 57 b8 bc
       0.09832857 0.052469525 0.11988332 -0.022502707
0000f0 c9 d0 b7 3d 18 1c 08 3e 16 9e bd 3d 67 f9 d2 bc
       0.089753695 0.13291967 0.09258668 -0.02575369
000100 dd 16 ab bc 94 4b 08 3e e2 07 94 3d f0 c2 95 3b
       -0.020884925 0.13310081 0.07228066 0.0045703575
000110 68 91 45 3c a7 08 1b 3d 90 07 73 3c 00 cc dd bd
       0.012058593 0.03785005 0.014833346 -0.108299255
000120 ff 49 eb 3d 80 4b bc 3c 6d a1 e3 bc cc a8 17 3e
       0.11488723 0.02298522 -0.027786935 0.14810485
000130 7b 87 bc 3d 97 7e 0a 3e 38 f3 ce 3d b9 37 aa 3c
       0.09205528 0.13524853 0.10104984 0.020778524
000140 a3 c5 5a bd 0c 40 69 3b 10 d4 0a be c0 b4 76 3d
       -0.053411137 0.0035591153 -0.13557458 0.06023097
000150 5d c5 03 be 44 95 9c 3d 84 e6 93 bd 3e b7 9c bd
       -0.12868257 0.07645658 -0.07221702 -0.07652138
000160 de 35 e9 3d 15 ac 9a bd a0 1d 8d 3d 5b 0a 93 bd
       0.113872275 -0.07552353 0.06890416 -0.071797095
000170 21 84 01 3e ab 8a 8a bc 85 49 7e bd 83 cb 7c 3d
       0.1264806 -0.016911825 -0.062081832 0.06171752
000180 fb 95 00 3e 27 4b 48 bd d5 5c 8e bd 79 f2 2e 3d
       0.12557213 -0.048899796 -0.069513 0.04271171
000190 fd 6d 0b bc 9d 90 9a 3b 2d d6 d7 bb 74 a6 14 3e
       -0.00851011 0.0047169463 -0.006586811 0.14516622
0001a0 a0 80 fc 3b 73 7e e7 bc 75 90 4c bd 75 c9 60 bd
       0.007705763 -0.028258538 -0.049942452 -0.054879624
0001b0 c1 b7 a7 bd a9 11 9a bd 3d 34 16 be ea 53 ec bd
       -0.08189345 -0.075229 -0.14668365 -0.11539443
0001c0 7c ec d5 bc 7c 6c 68 3d e4 70 6e bc 08 73 ea 3d
       -0.026113741 0.056744084 -0.014553282 0.11447722
0001d0 0b 6e 2a bd 59 31 10 3d 18 43 97 3d 0f 97 e4 3d
       -0.04160885 0.03520331 0.07385844 0.11161625
0001e0 c4 5d 78 3d c5 9b 02 3e 9e 00 ab 3d eb e6 ce 3d
       0.060636297 0.12754734 0.08349727 0.10102638
0001f0 33 bc 22 3d f1 9f 8b 3d d8 45 0d bd d0 59 66 ba
       0.039730262 0.06817616 -0.034490436 -0.0008787187

module.6.weight f4 [1, 128]
000000 6e 30 e5 be 80 9f e3 be da 30 eb be 21 51 e7 be
       -0.4476351 -0.44457626 -0.45935708 -0.45179084
000010 50 95 2a bf e0 98 e6 3e 66 38 e1 be 6d 5b 08 bf
       -0.6663408 0.4503851 -0.4398834 -0.53264505
000020 24 50 e7 be b7 e2 d8 3e f1 d5 e4 3e 1e 4b f3 3e
       -0.4517833 0.4236047 0.44694474 0.47518247
000030 07 8c f4 3e c9 03 e5 be 3c 5b f1 be 11 32 d7 3e
       0.47763082 -0.4472945 -0.4713992 0.42030385
000040 5a da ce 3e 1c e1 e3 3e b3 9c 21 3f e9 c7 c6 be
       0.40400964 0.44507682 0.6312973 -0.38824394
000050 3d e0 ea 3e ee c5 dd be e1 48 f1 be d5 30 1f bf
       0.45874205 -0.4331507 -0.47125915 -0.62183887
000060 28 a6 ea 3e a4 19 14 3f 24 0e fa 3e 29 3e d2 3e
       0.45829892 0.57851624 0.48838913 0.4106305
000070 b8 8d c3 be ba 43 db 3e be 61 e9 3e 5b fb ea be
       -0.3819406 0.4282511 0.45582384 -0.45894894
000080 c5 5c d4 3e 04 85 e0 be a1 8c 0c bf c3 fc fb 3e
       0.41477028 -0.43851483 -0.5490208 0.4921628
000090 6f c2 ec be bf 54 29 bf f2 7b d7 3e fd 7a e0 be
       -0.4624209 -0.6614494 0.4208675 -0.43843833
0000a0 a5 fa df be 72 e8 15 3f c9 4e d9 be 2f da e8 be
       -0.43745914 0.5855781 -0.4244292 -0.4547896
0000b0 a1 9e e1 be fd ae d2 be 29 2f dd 3e 95 97 eb 3e
       -0.44066337 -0.4114913 0.43200043 0.46014085
0000c0 ce e0 cd 3e 51 a9 16 3f a1 ba e5 3e d4 a9 fc be
       0.40210575 0.58852106 0.4486895 -0.4934832
0000d0 3a 71 14 3f 70 6f e5 be d5 82 1b 3f 5d fe d3 3e
       0.5798527 -0.44811583 0.6074651 0.41405
0000e0 db a2 24 bf ca b5 da be 43 80 d7 be fd 2b c5 be
       -0.64311 -0.4271682 -0.42090043 -0.38510123
0000f0 c5 19 e2 be 08 c9 cb be b1 f1 ce be 01 85 1e 3f
       -0.44160286 -0.39801812 -0.4041877 0.619217
000100 75 75 e9 be 3b 35 ed be 80 a7 d8 be 9a 99 e7 be
       -0.45597425 -0.46329674 -0.42315292 -0.45234376
000110 f5 2d e7 3e 89 a5 1f bf 59 e5 f1 be f9 5e eb 3e
       0.4515225 -0.6236196 -0.4724529 0.45970896
000120 87 ec d6 be 59 3a ca be c9 f7 f6 3e f1 be ec be
       -0.4197733 -0.3949764 0.4823592 -0.46239427
000130 a4 85 cc be 48 06 e8 be 68 0f e0 be 28 67 d2 3e
       -0.3994571 -0.45317292 -0.43761754 0.41094327
000140 79 8d e6 3e de 65 ea 3e 4f 66 cc 3e fd fa 27 bf
       0.4502981 0.45780843 0.39921805 -0.6561735
000150 c1 4b c6 3e 6d 94 ed be 88 e5 f5 3e 77 c0 fe 3e
       0.3872967 -0.46402302 0.4802668 0.49756214
000160 93 4b f7 be a5 b7 0f 3f d8 88 cf be 73 f1 bf 3e
       -0.48299846 0.56139594 -0.4053409 0.374889
000170 bf d3 d3 be 8d b0 0d bf 9c c5 db 3e bb e0 e3 3e
       -0.41372487 -0.5534752 0.429242 0.44507393
000180 72 35 d2 be 23 36 e6 3e be 97 06 3f 08 d2 db be
       -0.410564 0.44963178 0.5257529 -0.4293368
000190 af ff cf 3e 69 70 d4 3e a4 0c dd 3e 53 fb e6 be
       0.4062476 0.41492012 0.43173707 -0.4511362
0001a0 45 90 de be 25 7d e3 3e 60 a7 be 3e 32 28 ff 3e
       -0.43469444 0.44431415 0.37237072 0.49835354
0001b0 4d 15 05 bf 1f 8b e9 3e 4f 88 f3 3e 47 6c 26 3f
       -0.5198563 0.45613953 0.47564933 0.6500897
0001c0 a9 33 d9 3e 8f 5b e6 be 21 79 d4 be 3d 51 ca be
       0.42422226 -0.4499173 -0.41498664 -0.39515105
0001d0 1c 33 e0 3e 1d 9d d9 be 13 81 da be 70 38 16 bf
       0.43788993 -0.4250268 -0.426766 -0.58679867
0001e0 57 f0 df be c6 93 d0 be c4 ac 19 bf 28 cb d4 be
       -0.43738052 -0.40737742 -0.60029244 -0.41561246
0001f0 0d b9 dc be 0b 80 13 bf 55 ca e6 be b3 01 dc be
       -0.43109933 -0.57617253 -0.45076242 -0.42970046
