datas/value.pth (torch, 39400 bytes, 7 tensors)

module.0.weight f4 [64, 11]
0	0x3d94ad23	0.07259586
1	0x3db5ebfe	0.088829026
2	0x3e6a894b	0.22903936
3	0xbe540403	-0.20704655
4	0xbd6fa4ed	-0.058506895
5	0x3e624b0d	0.22098942
6	0x3e98df4d	0.29857865
7	0xbe0f160b	-0.13973252
8	0xbeb8d9ef	-0.3610377
9	0xbd928164	-0.071535856
10	0xbe15b0e8	-0.14618266
11	0x3eaa3fbe	0.33251756
12	0xbeb3db30	-0.35128164
13	0x3f119db4	0.5688126
14	0x3da8bb85	0.082388915
15	0xbdebe261	-0.11517788
16	0xbe14605d	-0.14489885
17	0x3e66c2c4	0.22535235
18	0x3e57e0ed	0.21081896
19	0x3ea1de2a	0.3161481
20	0xbe852f91	-0.26012853
21	0xbc60d76c	-0.013723236
22	0xbcb23bd8	-0.021757051
23	0xbeb240a1	-0.34814933
24	0xbcd46d28	-0.025930956
25	0x3d93b33c	0.072119206
26	0x3e961ade	0.29317373
27	0x3e4953b0	0.1966083
28	0x3e573554	0.21016437
29	0x3c76fccb	0.015074919
30	0xbde0f952	-0.10985054
31	0x3ded11f5	0.11575691
32	0xbe3ecd9f	-0.18633126
33	0xbd3490ea	-0.044083513
34	0x3ef39553	0.47574863
35	0xbc6564b7	-0.014001063
36	0x3de69878	0.1125955
37	0xbe8d593e	-0.2760715
38	0x3d0ff19f	0.035142537
39	0x3d8c7fcb	0.06860312
40	0x3e804034	0.25048983
41	0x3e4f0d4c	0.20219916
42	0x3e019159	0.12653102
43	0x3d7299b9	0.059228633
44	0xbe16154e	-0.14656565
45	0x3d1298a0	0.035790086
46	0xbd3fbc80	-0.046810627
47	0xbe9c89c3	-0.30573854
48	0xbe30b774	-0.17257482
49	0xbe8c0ee1	-0.27355102
50	0xbe61d8c0	-0.2205534
51	0x3d643cbe	0.05572199
52	0xbdb16540	-0.0866189
53	0xbdc6cf79	-0.09707541
54	0xbe059915	-0.13046677
55	0x3e250b27	0.16117536
56	0x3d9d92a8	0.07693988
57	0x3e6461d3	0.22302942
58	0x3e3ff224	0.18744713
59	0x3cb5f136	0.022209745
60	0x3da5d88f	0.08097946
61	0xbe8818f7	-0.26581547
62	0x3d1febfe	0.03904342
63	0x3eb79bb2	0.35860974
64	0x3e075e60	0.13219595
65	0x3e75365c	0.23946518
66	0x3e0f00a5	0.1396509
67	0xbe8f3aff	-0.27974698
68	0xbedf2447	-0.43582365
69	0x3dd7fcba	0.10546251
70	0x3d944bbf	0.0724101
71	0x3e28b3d1	0.16474845
72	0x3c52a198	0.01285591
73	0xbe007714	-0.12545425
74	0x3e613ddc	0.21996254
75	0x3e396eaa	0.18108621
76	0x3db8711c	0.09005949
77	0x3e8d9af4	0.27657282
78	0x3dee77d3	0.116439484
79	0x3cabafe7	0.0209579
80	0x3e6f6226	0.23377284
81	0x3e76b64e	0.24092981
82	0x3c402a3c	0.011728819
83	0x3e23115b	0.1592459
84	0x3e3ab67f	0.18233679
85	0xbe6e8dba	-0.23296252
86	0x3ddaa231	0.10675467
87	0x3e956ef8	0.29186225
88	0xbea12de2	-0.31480318
89	0x3e8b3473	0.27188453
90	0x3eaae8ea	0.33380824
91	0xbe0bc326	-0.13648662
92	0xbe85ad0c	-0.26108587
93	0x3d8635c7	0.06553226
94	0x3d526654	0.05136712
95	0x3e8c13ea	0.27358943
96	0xbd1124c8	-0.035435468
97	0x3e02e7f8	0.12783802
98	0x3e330516	0.17482409
99	0x3e7650b5	0.24054225
100	0xbb3b0bad	-0.0028540895
101	0xbef84b74	-0.48495066
102	0xbe519542	-0.20467094
103	0xbc6644ae	-0.01405446
104	0x3e6c5f9e	0.2308335
105	0xbd4b3787	-0.049613502
106	0xbdb1fa69	-0.0869034
107	0x3e42832a	0.18995348
108	0x3e2c51fc	0.1682815
109	0xbe026af7	-0.12736116
110	0xbe927203	-0.2860261
111	0x3cf5a269	0.02998467
112	0x3e212d0d	0.15739842
113	0xbdaae79a	-0.08344956
114	0x3ea6dfef	0.32592723
115	0x3e530685	0.20607956
116	0x3e86100f	0.26184127
117	0x3d7615d4	0.06007941
118	0x3ec3a9eb	0.38215575
119	0x3dc9e240	0.09857607
120	0xbe28471f	-0.1643338
121	0xbe001814	-0.12509185
122	0x3e144641	0.14479925
123	0x3e9f0742	0.31060225
124	0xbdcde7ff	-0.10054015
125	0xbe9972f2	-0.2997051
126	0xbe392274	-0.18079549
127	0x3dff08cd	0.124528505
128	0x3e0b9750	0.1363194
129	0xbc8310fa	-0.015999306
130	0xbdb39319	-0.08768291
131	0xbddae7ef	-0.10688769
132	0xbe7cd924	-0.24692208
133	0xbcdf80f2	-0.027283166
134	0xbdfe5807	-0.12419134
135	0xbeb24495	-0.3481795
136	0xbeb12239	-0.34596422
137	0xbdbddb9d	-0.092704035
138	0x3d7a4bde	0.06110751
139	0xbdfa1bca	-0.122123316
140	0x3e3becc4	0.18352038
141	0xbbdd6d0a	-0.0067573832
142	0x3cb364da	0.021898676
143	0x3e97ffbb	0.29687294
144	0x3b7f7b45	0.0038983386
145	0x3e42cdcb	0.19023816
146	0x3ea7cf3f	0.32775304
147	0x3e291e16	0.16515383
148	0xbd806a3c	-0.062702626
149	0x3d2c27bc	0.04203008
150	0xbc0c7731	-0.008573339
151	0xbd05fff9	-0.032714818
152	0xbe78cda4	-0.24297196
153	0xbe738f08	-0.23785031
154	0x3e4e9ea4	0.20177704
155	0xbe8c48db	-0.27399334
156	0xbe07f2a8	-0.1327616
157	0x3d38f1b6	0.04515239
158	0xbe9b495d	-0.3032941
159	0x3d435b0f	0.047694262
160	0xbe80d27b	-0.25160584
161	0xbe7bb8e0	-0.24582243
162	0xbead6b66	-0.33871
163	0x3e7df6c3	0.24801163
164	0x3e8db1ce	0.27674717
165	0x3c016945	0.007898633
166	0x3e0b2c5c	0.1359114
167	0x3e823312	0.2542959
168	0x3e4fb3bb	0.20283405
169	0x3dabec4e	0.08394681
170	0xbd25d87b	-0.040489655
171	0xbb36b9ef	-0.002788182
172	0xbd87128a	-0.06595333
173	0xbe39df2b	-0.18151538
174	0xbe963f51	-0.29345182
175	0xbded66ed	-0.11591897
176	0xbe06b3a0	-0.13154459
177	0xbe89f193	-0.2694212
178	0x3e256f63	0.16155772
179	0xbdce587b	-0.1007547
180	0x3e9017c0	0.2814312
181	0x3de5491d	0.11195586
182	0x3e74a10c	0.2388956
183	0x3de6be40	0.11266756
184	0x3e6d7eab	0.23192851
185	0xbe2bc38a	-0.16773811
186	0x3e835d77	0.25657246
187	0xbd8006c8	-0.062512934
188	0x3ef4b60f	0.4779515
189	0x3ea328f2	0.31867176
190	0x3d2cc260	0.042177558
191	0xbe22fba9	-0.15916313
192	0x3e70d2d0	0.23517919
193	0x3ea4bc77	0.32175037
194	0xbb687f33	-0.0035476207
195	0x3ef4dca9	0.478246
196	0x3e89b900	0.26898956
197	0x3e4713f4	0.19441205
198	0xbe56811f	-0.20947693
199	0xbd1bba75	-0.038019616
200	0x3ec0a6e8	0.3762734
201	0x3db887c8	0.09010273
202	0xbe074799	-0.13210906
203	0x3e873baa	0.26412708
204	0x3d1e0d91	0.038587157
205	0x3e809b1a	0.25118333
206	0xbec1593f	-0.37763402
207	0xbe3aa7cd	-0.18228073
208	0x3e12c248	0.14331925
209	0x3e55d604	0.20882422
210	0x3ec6c035	0.38818517
211	0x3e87c91b	0.2652062
212	0xbd77888c	-0.060432956
213	0xbcbd2d8f	-0.023093013
214	0xbd589f67	-0.052886393
215	0x3e21437b	0.15748398
216	0x3e06bddb	0.13158362
217	0xbe377763	-0.17916636
218	0x3e654709	0.22390379
219	0xbdebd5e6	-0.11515407
220	0xbe8f5c34	-0.28000033
221	0xbe432a30	-0.19059062
222	0x3d250d33	0.04029579
223	0xbe23ec12	-0.16008022
224	0xbdfab2f2	-0.12241162
225	0x3d1921db	0.037385803
226	0xbe87a72c	-0.2649473
227	0xbe7ada13	-0.24497251
228	0xbcbc4198	-0.022980496
229	0x3df81334	0.12113038
230	0xbe72c5f6	-0.23708329
231	0x3e285ac1	0.1644087
232	0x3b11ee67	0.0022267343
233	0xbdb19cec	-0.086725086
234	0x3e9906bc	0.2988795
235	0xbc90a9c8	-0.017659083
236	0x3e9f136a	0.310695
237	0xbe27e415	-0.163956
238	0xbe8212ec	-0.2540506
239	0x3e287008	0.16448987
240	0xbd9a9293	-0.07547488
241	0x3e33f32d	0.17573233
242	0xbde24711	-0.11048711
243	0xbe87fb50	-0.26558924
244	0xbd316028	-0.043304592
245	0x3e086bee	0.13322422
246	0x3e2cabfe	0.16862485
247	0xbdd59a53	-0.10429826
248	0xbe4055fb	-0.18782799
249	0xbe4d59d4	-0.20053798
250	0x3e7b8d94	0.24565727
251	0x3b171f86	0.002305956
252	0x3e61a898	0.2203697
253	0xbd1b2ff9	-0.037887547
254	0x3dc8e9ba	0.09810205
255	0xbe627b9b	-0.22117464

module.0.bias f4 [64]
0	0xbe19ec2e	-0.15031502
1	0x3e77c6d8	0.24196947
2	0x3e408582	0.18800929
3	0xbe96fb7c	-0.29488742
4	0xbde9c1a4	-0.11413887
5	0x3de5bd12	0.11217703
6	0xbbd4e6e5	-0.0064972513
7	0x3e3a941d	0.18220563
8	0xbd075e11	-0.033048693
9	0x3e88491e	0.26618284
10	0x3e9d8ea1	0.3077288
11	0x3d2da755	0.04239591
12	0xbe4d3ca1	-0.2004266
13	0x3defdaf7	0.11711686
14	0xbe47e87b	-0.19522278
15	0xbd8b91ce	-0.068149194
16	0x3e1ccc2f	0.15312265
17	0xbdf5252b	-0.1196998
18	0xbe229eec	-0.15880936
19	0xbe4467af	-0.19180177
20	0x3c4ae1ba	0.012382919
21	0x3e64b349	0.22334017
22	0xbddd33c9	-0.10800893
23	0x3e9c81c3	0.3056775
24	0xbe8888e9	-0.26666954
25	0xbe35bb3f	-0.1774721
26	0xbe794ad6	-0.24344954
27	0xbea508b6	-0.32233208
28	0xbea27cc9	-0.3173583
29	0x3e385fb5	0.1800526
30	0xbe92928a	-0.28627425
31	0x3d387a27	0.04503837
32	0xbe82c798	-0.25542903
33	0xbdbbb428	-0.091652215
34	0x3d5234e4	0.05131997
35	0x3de20ff6	0.110382006
36	0xbe3b66f4	-0.18300992
37	0x3e992737	0.2991273
38	0xbddbf8bd	-0.107408024
39	0xbe3aa721	-0.18227817
40	0x3e4c2f65	0.19939955
41	0x3de21782	0.1103964
42	0xbe3d7bb9	-0.18504228
43	0x3d6fc968	0.058541685
44	0x3ea22afb	0.31673416
45	0x3d897ca5	0.06713227
46	0xbdb4c472	-0.088265315
47	0xbdba7184	-0.09103683
48	0x3d78d928	0.06075397
49	0xbcc04268	-0.023469165
50	0xbdf1915b	-0.117953025
51	0x3d543724	0.0518104
52	0x3df7e619	0.121044345
53	0xbe6267be	-0.22109887
54	0xbe728689	-0.23684134
55	0xbdafe5bb	-0.085887395
56	0xbeac8cae	-0.3370108
57	0x3e473446	0.19453534
58	0xbe81e0f0	-0.25366926
59	0xbe33c0fb	-0.17554085
60	0x3e100195	0.14063103
61	0xbe105c9c	-0.14097828
62	0x3e126ff8	0.14300525
63	0xbe1411bc	-0.1445989

module.2.weight f4 [64, 64]
0	0xbdccd51f	-0.10001587
1	0x3e2908b9	0.16507234
2	0xbdcaa16a	-0.098940685
3	0x3d7016a6	0.05861535
4	0x3ca9053f	0.020632384
5	0x3de7ffa6	0.11328058
6	0xbdfdfd6a	-0.124018505
7	0x3e248077	0.1606463
8	0xbdab5c56	-0.08367221
9	0xbe09fb82	-0.13474849
10	0x3e1894d6	0.14900526
11	0x3e2583ee	0.16163608
12	0xbde7da7e	-0.11320971
13	0x3e037ac9	0.12839808
14	0xbe082c6f	-0.132982
15	0xbda3bb33	-0.0799469
16	0x3e3106af	0.17287706
17	0xbca4cd29	-0.02011736
18	0xbd89f7d9	-0.06736726
19	0x3d98424f	0.07434522
20	0xbdf325b5	-0.118724264
21	0x3cf415b0	0.029795498
22	0x3dd37644	0.10325292
23	0xbda6d288	-0.081456244
24	0xbdaeb5a2	-0.085307375
25	0xbddaeed0	-0.10690081
26	0x3df09eee	0.117490634
27	0xbcda14c8	-0.026621237
28	0xbe048dcc	-0.12944716
29	0x3d3d708d	0.046249915
30	0x3d9556bf	0.07291936
31	0x3dd77e68	0.10522157
32	0x3bab61e8	0.005230177
33	0x3da68733	0.08131256
34	0xbd04e0a6	-0.032440804
35	0xbbe84390	-0.007088132
36	0xbd7ee995	-0.06223448
37	0xbc639b6c	-0.013892036
38	0xbb3eb858	-0.0029101577
39	0xbd24d116	-0.040238462
40	0x3de87b7b	0.11351677
41	0x3dfb4294	0.12268558
42	0x3dd1f9fe	0.1025276
43	0xbd48bc5e	-0.049007766
44	0x3d39a4d2	0.0453232
45	0xbd0f5060	-0.03498876
46	0x3d2d6dbc	0.04234098
47	0x3d94645c	0.072457045
48	0x3e1e36f7	0.15450655
49	0xbc38bad9	-0.011275017
50	0xbe81678f	-0.2527432
51	0x3be877e7	0.0070943716
52	0x3d0b5ebf	0.034025904
53	0xbd2d9ba0	-0.042384744
54	0x3c5949b7	0.013262204
55	0x3e35b8aa	0.17746225
56	0xbd44a7bc	-0.048011526
57	0x3db84e0e	0.08999263
58	0xbaaec227	-0.0013333008
59	0x3da35990	0.07976067
60	0x3dc7b349	0.09750993
61	0xbd12d14e	-0.03584414
62	0x3dedd810	0.11613476
63	0xbd94c398	-0.07263869
64	0xbdfd662b	-0.123730026
65	0xbda23aaf	-0.07921349
66	0x3d9c27d4	0.07624784
67	0xbe02af74	-0.12762243
68	0x3d0103da	0.031497814
69	0x3e10a761	0.1412635
70	0x3e1f7c62	0.15574792
71	0x3d90855c	0.07056686
72	0xbdfee329	-0.12445671
73	0x3df05812	0.11735548
74	0x3bcc72f8	0.0062392913
75	0xbe455a76	-0.1927279
76	0xbdbb81b5	-0.09155599
77	0x3d9867c8	0.0744167
78	0xbc92c56e	-0.017916407
79	0x3d755dfe	0.05990409
80	0xbc5e6ef6	-0.01357626
81	0x3cc9d063	0.0246355
82	0xbe09ceb9	-0.13457765
83	0xbce2c327	-0.027680947
84	0xbd1e91e2	-0.038713343
85	0xbd636324	-0.05551447
86	0x3e0bcee5	0.13653143
87	0xbd46bd20	-0.048520207
88	0xbdfb450b	-0.12269028
89	0x3e3b93a4	0.18318039
90	0xbd42a46c	-0.047520086
91	0x3dc7f1c0	0.09762907
92	0xbd68dd4c	-0.05685167
93	0xbe3d62c1	-0.18494703
94	0xbdc5b49f	-0.09653591
95	0xbd91674a	-0.07099779
96	0xbe0f44e9	-0.13991131
97	0xbdec44d7	-0.11536568
98	0xbde5a3c7	-0.11212879
99	0xbda83d3a	-0.08214803
100	0x3e0f6ef2	0.14007166
101	0x3dbb468d	0.09144316
102	0xbdbcea60	-0.09224391
103	0x3e2a3b2f	0.16624139
104	0xbdcc55b5	-0.09977285
105	0x3d937b6b	0.072012745
106	0xbdb9a605	-0.09064869
107	0xbdd2f031	-0.10299719
108	0x3db52c39	0.088463254
109	0xbcbf5972	-0.02335808
110	0x3e9bddb4	0.30442584
111	0xbe161ee2	-0.14660218
112	0xbd1532ad	-0.03642528
113	0x3dea21a8	0.11432201
114	0x3d47fa19	0.048822496
115	0xbbac9467	-0.0052667144
116	0x3e0acc26	0.13554439
117	0xbe2f03f0	-0.17091346
118	0xbdb1cecc	-0.086820215
119	0x3d85462e	0.06507526
120	0xbdbee6ac	-0.09321341
121	0xbe200989	-0.15628637
122	0xbd72ae7a	-0.059248425
123	0xbd79c8e3	-0.060982596
124	0x3ded1f35	0.11578218
125	0xbd798bf0	-0.06092447
126	0xbb80abc1	-0.0039267247
127	0x3de2d56f	0.110758655
128	0xbe2d602b	-0.16931216
129	0xbe30fc7b	-0.17283814
130	0x3c9a5303	0.018838411
131	0xbe60a81e	-0.21939132
132	0x3d99ac2d	0.07503543
133	0x3d3dac2a	0.046306767
134	0xbdb2ca27	-0.08729964
135	0xbd40ac6d	-0.047039438
136	0xbe45f7eb	-0.19332854
137	0x3b3121a2	0.0027028103
138	0xbe19d042	-0.1502085
139	0xbdd41dd9	-0.103572555
140	0x3db5f779	0.08885092
141	0xbd0e6aab	-0.034769695
142	0x3d2c45fe	0.042058937
143	0xbd054b12	-0.032542296
144	0xbe032ec1	-0.12810804
145	0xbde64928	-0.11244422
146	0xbd324ea4	-0.04353203
147	0xbd91c039	-0.07116742
148	0xbc400ad1	-0.011721329
149	0x3d845146	0.06460814
150	0x3e3a66bc	0.18203253
151	0x3d86a930	0.06575239
152	0xbdc187ed	-0.09449754
153	0x3e1c3223	0.152535
154	0xbdbb2ce5	-0.09139422
155	0xbd991d87	-0.07476335
156	0x3d61d3f1	0.055133764
157	0xbdb39e7b	-0.08770462
158	0xbc15c9e2	-0.009142371
159	0x3daea655	0.08527819
160	0xbda2d107	-0.07950025
161	0xbe59cc00	-0.21269226
162	0xbdcb4aac	-0.09926352
163	0x3da6bf07	0.08141904
164	0x3d69aa9b	0.057047468
165	0x3e5b0ab9	0.21390809
166	0xbe0b7bb4	-0.13621408
167	0x3e8434cc	0.2582153
168	0xbc806062	-0.015670959
169	0xbd593fc0	-0.053039312
170	0x3d950d8b	0.07277974
171	0x3dd7d980	0.10539532
172	0x3de09e80	0.109677315
173	0x3dfb443f	0.12268876
174	0x3eb6101e	0.3555917
175	0xbe67d8ec	-0.22641343
176	0xbdb4345f	-0.087990515
177	0x3d70ae89	0.0587602
178	0xbbfb2872	-0.0076647336
179	0xbcee15bf	-0.029063104
180	0x3dc941b5	0.09826986
181	0xbdbac94b	-0.09120425
182	0xbe125274	-0.14289266
183	0x3e143002	0.14471439
184	0x3cda7d19	0.02667098
185	0xbddde1f5	-0.108341135
186	0x3cf5cd99	0.030005263
187	0xbd640441	-0.05566812
188	0x3e28e138	0.16492164
189	0x3dc2a5d0	0.095042825
190	0xbaa71f36	-0.001275039
191	0x3c19f850	0.009397581
192	0xbc6067d9	-0.013696634
193	0xbe3870d3	-0.18011789
194	0x3d5c0804	0.05371858
195	0x3d0baa1c	0.034097776
196	0x3d977892	0.07396044
197	0xbdae053d	-0.08497093
198	0x3dd143c1	0.10218001
199	0x3c8d47d6	0.017246168
200	0x3da9e819	0.08296222
201	0x3dd7db68	0.10539895
202	0x3d2ea526	0.042637967
203	0xbd54bf74	-0.051940396
204	0xbd2aba1a	-0.041681387
205	0x3d086801	0.03330231
206	0x3e43874e	0.19094583
207	0xbd8d45f4	-0.06898108
208	0xbdede767	-0.11616402
209	0x3df69a02	0.120410934
210	0xbddede1f	-0.1088221
211	0xbd2be3e7	-0.04196539
212	0x3d618466	0.055057906
213	0x3e062c4d	0.13102837
214	0xbccd0f10	-0.025031596
215	0x3c84dffe	0.016220089
216	0x3da841ec	0.082156986
217	0x3d55056e	0.05200713
218	0x3d0d33b3	0.034473132
219	0x3dff2c87	0.12459665
220	0x3de97348	0.11398941
221	0x3d0e8cb2	0.034802146
222	0x3e0b6e1b	0.1361622
223	0xbdc015f8	-0.0937919
224	0x3df8c53d	0.12146995
225	0x3df2325e	0.11826013
226	0xbde24cc0	-0.11049795
227	0xbc3e097c	-0.011598941
228	0xbd9af2cb	-0.0756584
229	0xbcc3a5c6	-0.023882758
230	0xbc187e07	-0.009307391
231	0xbddeeb60	-0.10884738
232	0xbe243eec	-0.16039628
233	0x3d432d20	0.047650456
234	0xbddb322d	-0.1070293
235	0xbe06ad02	-0.13151935
236	0x3d714196	0.05890044
237	0xbd8a4c42	-0.06752826
238	0x3dd662f0	0.104680896
239	0x3d8f66ac	0.07002005
240	0xbe0247dd	-0.12722726
241	0xbd41dcc9	-0.047329698
242	0x3e784765	0.24245985
243	0xbe064124	-0.13110787
244	0x3c89be86	0.016814481
245	0x3d1f26e4	0.03885545
246	0x3d5ab432	0.053394504
247	0xbd2caa2b	-0.042154472
248	0x3cc313c0	0.023813128
249	0xbe15f0e8	-0.1464268
250	0xbd0f3c4a	-0.034969606
251	0x3dfa64d9	0.122262664
252	0x3de733e6	0.11289196
253	0x3e634711	0.22195078
254	0x3bbd1418	0.0057702176
255	0xbbc02bbe	-0.0058645895

module.2.bias f4 [64]
0	0xbc6d1b5f	-0.014471858
1	0xbe0e0710	-0.13869882
2	0x3de6ba69	0.11266024
3	0xbd01d262	-0.031694777
4	0xbdc39246	-0.09549384
5	0x3dbdaff2	0.092620745
6	0xbd07ef39	-0.033187125
7	0xbd9dde7a	-0.0770845
8	0x3cc6173f	0.024181006
9	0x3defb58f	0.117045514
10	0xbe0d282a	-0.13784853
11	0xbcd51881	-0.026012661
12	0xbdeadd36	-0.11467974
13	0x3b05bc24	0.002040633
14	0xbcbe6e69	-0.023246007
15	0x3d4cf942	0.0500424
16	0xbdaed133	-0.08535995
17	0x3d6ac396	0.05731543
18	0x3cfae444	0.030626424
19	0x3decd06c	0.11563191
20	0x3cf91ccd	0.030409241
21	0x3b90ab8c	0.004414981
22	0x3e0f52d2	0.13996437
23	0xbc88598f	-0.016644267
24	0xbd98be91	-0.07458223
25	0x3da2668c	0.079297155
26	0xbdb28165	-0.08716086
27	0x3d5efad9	0.054438446
28	0x3d795eb6	0.06088134
29	0xbcef7d80	-0.029234648
30	0x3db38d4b	0.08767184
31	0x3e00f8f4	0.12594968
32	0x3bc8e0a0	0.006130293
33	0xbc753961	-0.0149672935
34	0xbdc35ab9	-0.09538788
35	0xbd986492	-0.07441057
36	0x3d4976dc	0.04918562
37	0x3d1b57eb	0.037925642
38	0xbddd2f45	-0.108000316
39	0xbca16da6	-0.019705605
40	0xbd087f6d	-0.033324648
41	0x3dea9c22	0.11455561
42	0xbe0131b9	-0.12616624
43	0x3dcbcf69	0.0995167
44	0xbd9f3b16	-0.077749416
45	0x3dd86abf	0.10567235
46	0xbde01aa4	-0.10942581
47	0xbcbb01b8	-0.022827968
48	0xbd7da1b0	-0.061921775
49	0xbdaea0ec	-0.08526787
50	0x3db4292a	0.08796914
51	0xbd697df7	-0.057004895
52	0x3d5c9973	0.053857278
53	0xbd247187	-0.04014733
54	0x3d2cdba6	0.04220166
55	0xbdfa2898	-0.12214774
56	0x3dff501b	0.12466451
57	0x3d530946	0.051522516
58	0x3d258950	0.040414155
59	0xbd572884	-0.052528873
60	0xbe163909	-0.14670195
61	0x3dcc0ed8	0.09963769
62	0xbd13fb76	-0.036128484
63	0x3d65922c	0.056047603

module.4.weight f4 [64, 64]
0	0xbc9a2058	-0.01881425
1	0x3de684d2	0.11255802
2	0x3e4d639a	0.20057526
3	0xbe029b8f	-0.12754653
4	0x3e226314	0.15858108
5	0x3e1d4821	0.15359546
6	0xbe0b9a2d	-0.13633032
7	0x3e0428c6	0.12906179
8	0x3dd88ba0	0.10573506
9	0x3dc1491f	0.09437775
10	0xbcd8f26d	-0.026482785
11	0x3e3c1925	0.18368967
12	0xbdf34bae	-0.11879669
13	0xbe292579	-0.16518201
14	0xbe6a5d39	-0.22887124
15	0x3e69d78a	0.22836128
16	0x3d005784	0.03133346
17	0xbb96daf2	-0.004603737
18	0xbe691ec4	-0.22765642
19	0x3e2035d1	0.1564553
20	0xbdd73ff4	-0.10510245
21	0xbe052377	-0.1300181
22	0x3e911acc	0.28340757
23	0xbc1e8cd9	-0.009677135
24	0xbe786034	-0.24255449
25	0x3d8c87d4	0.06861845
26	0xbe08a08f	-0.13342498
27	0xbdc052c7	-0.093907885
28	0xbe8f6067	-0.28003237
29	0xbcc00dca	-0.023444075
30	0x3d4b77fd	0.049674977
31	0x3e06fa56	0.13181433
32	0xbe028997	-0.12747799
33	0xbd9cd039	-0.07656903
34	0x3c7bafe3	0.015361759
35	0x3dc80f46	0.09768538
36	0x3dbdb669	0.092633076
37	0x3e87c438	0.2651689
38	0xbdc5a587	-0.096507125
39	0x3ceeb06a	0.029136855
40	0xbc8736cd	-0.016505623
41	0x3e8901dd	0.26759234
42	0xbd6ce387	-0.057834174
43	0xbe4b8708	-0.19875729
44	0x3db66f77	0.08907979
45	0x3dd2445c	0.10266945
46	0xbe1f1d61	-0.15538551
47	0x3be1713c	0.0068799537
48	0xbe102748	-0.14077485
49	0x3e98480a	0.2974246
50	0x3e065fff	0.13122557
51	0xbe7fa3d6	-0.24964842
52	0x3c5f8668	0.013642885
53	0x3d93b597	0.0721237
54	0x3cf5ec67	0.030019952
55	0xbd0e8aa8	-0.0348002
56	0xbc946f2a	-0.018119413
57	0xbe844bea	-0.25839168
58	0x3e666a93	0.22501592
59	0xbe01f013	-0.12689237
60	0xbd3ff3a9	-0.04686323
61	0xbdc27b31	-0.09496153
62	0x3d580391	0.052737776
63	0x3c998ad6	0.01874296
64	0xbddef74b	-0.10887011
65	0x3da2d95f	0.079516165
66	0xbd9f0f37	-0.07766574
67	0x3e56e0e1	0.20984222
68	0xbe235fbe	-0.15954491
69	0xbdda1832	-0.10649146
70	0x3d151c2b	0.036403816
71	0xbdc4ca4c	-0.096088976
72	0xbe748ceb	-0.23881881
73	0xbdd0a8b0	-0.101884246
74	0x3e419eb1	0.18908192
75	0x3d350a95	0.044199545
76	0xbd3f1c91	-0.046658102
77	0x3dc5618e	0.09637748
78	0x3d26c624	0.040716305
79	0xbdb20df3	-0.08694067
80	0x3d36d9b4	0.04464121
81	0xbde6e65d	-0.11274407
82	0xbd2f70c5	-0.042832155
83	0xbe392da0	-0.18083811
84	0xbde8a5f4	-0.11359778
85	0x3d900628	0.07032424
86	0xbe09ed54	-0.1346944
87	0xbdebf5e8	-0.11521512
88	0x3d8e68c9	0.0695358
89	0xbe33661d	-0.17519422
90	0x3a04408a	0.00050450175
91	0x3e1a06d0	0.15041661
92	0x3d83bd6c	0.06432614
93	0x3da186cd	0.07887039
94	0x3e66af49	0.22527803
95	0x3dd80bbe	0.10549115
96	0x3e74a4b9	0.23890962
97	0xbd2f9a82	-0.04287196
98	0xbdad15e8	-0.08451444
99	0x3de898d1	0.113572724
100	0x3ddf5a1e	0.1090586
101	0xbdad5af8	-0.084646165
102	0x3dba9489	0.09110362
103	0x3e1cd450	0.15315366
104	0x3df18897	0.117936306
105	0xbdc8f8a9	-0.09813053
106	0x3e0baf70	0.13641143
107	0x3e43a581	0.19106103
108	0xbdac1c2d	-0.084038116
109	0xbd90a5ab	-0.07062849
110	0xbd25d295	-0.04048403
111	0xbdbe1e14	-0.09283081
112	0xbdc0184c	-0.09379634
113	0xbea629ff	-0.32453915
114	0xbe8997c4	-0.268736
115	0xbcdcb809	-0.026943224
116	0xbe6f186c	-0.2334916
117	0x3c341cda	0.010993207
118	0xbe5aa29c	-0.21351093
119	0x3e9a9eb4	0.30199206
120	0x3e2dd6e2	0.16976503
121	0x3e1517fd	0.14559932
122	0xbd99747e	-0.07492922
123	0xbdec14d2	-0.11527409
124	0xbd44a072	-0.048004575
125	0x3df8fa5c	0.12157127
126	0x3ded6011	0.11590589
127	0x3b92ef49	0.0044840914
128	0xbca20af3	-0.019780612
129	0xbdfac699	-0.12244911
130	0x3cca919b	0.024727633
131	0x3e06badc	0.13157219
132	0xbd664c39	-0.056225035
133	0xbe4bb198	-0.19891965
134	0xbd158736	-0.0365059
135	0xbcdf979b	-0.02729397
136	0xbe8f8ed4	-0.28038657
137	0xbe358f28	-0.17730391
138	0x3dc0cee4	0.09414461
139	0x3cca5f6e	0.024703708
140	0x3e299bf5	0.16563399
141	0x3db17163	0.08664205
142	0x3e735b23	0.23765235
143	0xbe0adc72	-0.13560656
144	0xbdf4d6ce	-0.11955033
145	0xbdef131c	-0.11673567
146	0x3ddc755c	0.10764572
147	0xbd4b0e47	-0.049574163
148	0xbc0ab64e	-0.008466316
149	0x3d454e8a	0.048170604
150	0xbe0ffbfa	-0.14060965
151	0xbe35ac02	-0.17741397
152	0x3e7b5a06	0.2454606
153	0x3d61dc36	0.05514165
154	0xbcc3d25a	-0.023904014
155	0x3de4e734	0.11176911
156	0x3e3c52e3	0.18390994
157	0x3e6bb7f3	0.2301939
158	0x3c9cee83	0.0191567
159	0xbdd43ca2	-0.10363127
160	0x3e49accb	0.19694822
161	0xbd18397d	-0.0371642
162	0xbceed28c	-0.029153131
163	0xbe187194	-0.14887077
164	0xbcacfc0d	-0.02111628
165	0xbea67ca4	-0.32516968
166	0x3d73321c	0.05937396
167	0x3e4c3c25	0.19944818
168	0x3e064fcc	0.13116378
169	0xbd238b7c	-0.039927945
170	0xbcf17364	-0.029473968
171	0x3e8a2861	0.26983932
172	0xbd54cfd0	-0.051955998
173	0xbda366cc	-0.07978591
174	0x3d96c951	0.07362617
175	0xbcb8a121	-0.02253777
176	0x3d12e4d0	0.035862744
177	0xbe9d11cf	-0.3067765
178	0xbd37f27a	-0.044908978
179	0x3e3d6aef	0.18497823
180	0xbe20a38a	-0.15687385
181	0x3d26f159	0.04075751
182	0xbdc6d074	-0.09707728
183	0x3d745d2d	0.05965917
184	0x3d14a9dc	0.036294803
185	0x3ea33167	0.31873628
186	0xbde1374c	-0.10996875
187	0x3e09388e	0.1340048
188	0x3dbcfdf1	0.09228123
189	0x3e01fce5	0.12694128
190	0xbca40c0c	-0.020025276
191	0xbde4f7a8	-0.11180049
192	0x3dddef7e	0.10836695
193	0xbe80f452	-0.25186402
194	0xbef5bbb9	-0.47994784
195	0x3d932406	0.07184605
196	0xbdf1367b	-0.117779694
197	0xbdfeb167	-0.124361806
198	0x3e40fdff	0.18846892
199	0x3d335054	0.04377778
200	0xbdc803db	-0.0976636
201	0xbe3a92f4	-0.1822012
202	0x3e093186	0.13397798
203	0xbe02da22	-0.12778524
204	0xbdd83588	-0.10557085
205	0xbddf77a3	-0.10911491
206	0x3c585e7d	0.0132061215
207	0x3d36ffe1	0.04467762
208	0xbea6dbb3	-0.32589492
209	0x3dd492d4	0.10379568
210	0x3dd4efee	0.103973255
211	0xbdcdf64e	-0.100567445
212	0xbe19967e	-0.14998814
213	0x3eff9aa5	0.49922672
214	0xbd770f7b	-0.060317498
215	0xbe91b1fb	-0.284561
216	0x3ce3ea40	0.02782166
217	0xbe9ab694	-0.3021742
218	0x3eabcfeb	0.33557066
219	0x3b256397	0.0025236362
220	0xbd47d964	-0.048791304
221	0x3ce254d5	0.027628342
222	0xbd50d1c7	-0.05098131
223	0xbe2b968e	-0.16756651
224	0x3d8023de	0.06256841
225	0x3e98dca2	0.2985583
226	0xbec8c4d8	-0.3921268
227	0xbeaa9c05	-0.33322158
228	0x3e903bea	0.2817071
229	0xbd756381	-0.059909347
230	0x3e80f396	0.2518584
231	0x3bc9aa49	0.006154333
232	0x3dff29fe	0.12459181
233	0xbd7df95d	-0.06200539
234	0x3ea28ffd	0.3175048
235	0xbdb6c6ab	-0.08924612
236	0xbedf5943	-0.4362279
237	0x3ea92f07	0.33043692
238	0x3d5f72fb	0.054553013
239	0xbe91a546	-0.28446406
240	0x3e270d00	0.16313553
241	0x3dee4275	0.116337694
242	0xbe0eca73	-0.13944416
243	0x3d384718	0.044989675
244	0x3cece335	0.028916935
245	0xbe8e7e3d	-0.27830687
246	0x3d03ea47	0.032205846
247	0x3db68491	0.08912004
248	0x3df64857	0.120255165
249	0xbccedf4c	-0.02525296
250	0xbe0a15bb	-0.13484852
251	0x3e58af44	0.21160609
252	0x3e4bbb02	0.19895557
253	0xbc6a371d	-0.014295367
254	0x3e88b504	0.26700604
255	0x3eec85fa	0.46195966

module.4.bias f4 [64]
0	0x3d8734dc	0.06601879
1	0xbdc944eb	-0.09827598
2	0xbe008865	-0.1255203
3	0xbd1ebfed	-0.038757253
4	0x3dc84fc7	0.09780841
5	0xbcd48fce	-0.025947478
6	0xbd5bed72	-0.053693242
7	0xbc3f8564	-0.011689518
8	0xba0d7ac2	-0.00053970155
9	0xbd61072c	-0.05493848
10	0x3ded818c	0.11596975
11	0x3d8ecd1b	0.069727145
12	0x3cedf36f	0.029046742
13	0x3dab620d	0.08368311
14	0x3da5fd37	0.081049375
15	0x3e15cbcf	0.14628528
16	0xbdd56b71	-0.104208834
17	0xbe361417	-0.17781101
18	0xbcb8ad34	-0.022543527
19	0x3e566188	0.20935643
20	0xbe02653d	-0.12733932
21	0xbd592488	-0.053013355
22	0xbc877a0a	-0.016537685
23	0x3d8eb558	0.06968182
24	0x3c87a39b	0.016557505
25	0x3e24dd75	0.16100104
26	0x3d7492ac	0.05971019
27	0x3e09ee78	0.13469875
28	0xbd32c261	-0.043642405
29	0xbccdf29a	-0.025140096
30	0xbdd23555	-0.102640785
31	0xbd74d906	-0.059777282
32	0x3d44905f	0.047989246
33	0xbd94a8d5	-0.07258765
34	0xbd1a9f70	-0.037749708
35	0x3dd047f8	0.10169977
36	0xbdae9094	-0.0852367
37	0xbcdcf98d	-0.026974464
38	0x3d538f9e	0.051650636
39	0xbe1b9832	-0.15194777
40	0x3d0cfca6	0.03442063
41	0xbc5f99e8	-0.013647534
42	0x3e0394cc	0.1284973
43	0xbd99cad5	-0.0750939
44	0x3d0ff336	0.035144053
45	0xbdb62116	-0.088930294
46	0x3be557bf	0.0069989855
47	0xbe27ae07	-0.1637498
48	0xbd965889	-0.073411055
49	0x3c3d17c3	0.01154131
50	0x3deefcf4	0.11669341
51	0xbd0ab8fd	-0.033867825
52	0xbe286a7a	-0.16446868
53	0x3d987b75	0.074454226
54	0xbd617d11	-0.055050913
55	0x3df67261	0.12033535
56	0x3daa09f9	0.083026834
57	0x3cf6ab28	0.03011091
58	0xbcf86b5a	-0.030324627
59	0x3db50b8d	0.08840094
60	0x3dbb28ea	0.09138663
61	0xbdbd0367	-0.092291646
62	0xbd69e300	-0.05710125
63	0xbc04383c	-0.008070048

module.6.weight f4 [1, 64]
0	0x3f86567f	1.0495147
1	0xbf95714a	-1.1675198
2	0xbf8c5666	-1.0963867
3	0xbf87307f	-1.0561675
4	0x3f8e3930	1.1111202
5	0x3f8f8b8e	1.1214464
6	0xbf9151b7	-1.1353062
7	0x3f8a5646	1.0807579
8	0x3f966901	1.1750795
9	0xbf8c3587	-1.0953835
10	0xbf8cdc65	-1.1004759
11	0x3f8cba65	1.0994383
12	0x3f8a5640	1.0807571
13	0xbf91b7fb	-1.1384271
14	0x3f94c4aa	1.1622517
15	0x3f93f831	1.1560117
16	0x3f88dd7e	1.0692594
17	0xbf927287	-1.1441201
18	0xbf95221f	-1.1651038
19	0x3f8e4846	1.1115806
20	0x3f8ba3d7	1.0909375
21	0x3f915f09	1.1357127
22	0xbf936087	-1.1513833
23	0x3f894765	1.0724913
24	0x3f93cdef	1.1547221
25	0x3f8d6e11	1.1049215
26	0x3f93a4fc	1.1534724
27	0x3f8d95bc	1.106132
28	0xbf8563fb	-1.0421137
29	0x3f937eb0	1.1523037
30	0xbf8ad51c	-1.0846286
31	0x3f8d5391	1.1041127
32	0x3f938a12	1.1526511
33	0x3f8756d7	1.0573376
34	0x3f8e1a92	1.1101859
35	0x3f968d56	1.1761882
36	0x3f94562d	1.1588799
37	0xbf8e397c	-1.1111293
38	0xbf916220	-1.135807
39	0xbf942423	-1.1573528
40	0xbf9746d4	-1.181849
41	0xbf913667	-1.1344727
42	0x3f91b8aa	1.138448
43	0x3f8aff32	1.085913
44	0x3f872080	1.0556793
45	0xbf9506f3	-1.1642746
46	0x3f96dfa4	1.1787
47	0xbf930a50	-1.1487522
48	0xbf87cc99	-1.0609313
49	0xbf923d11	-1.1424886
50	0x3f932c2b	1.1497854
51	0xbf94d9bd	-1.1628948
52	0xbf88264d	-1.0636688
53	0x3f948726	1.1603744
54	0xbf907f48	-1.1288843
55	0x3f91d704	1.1393743
56	0x3f8c3bbb	1.0955728
57	0xbf92936a	-1.1451237
58	0xbf8cdacd	-1.1004273
59	0x3f877ad8	1.0584364
60	0x3f8dfbc0	1.1092453
61	0x3f8b8e67	1.0902833
62	0x3f8c9456	1.0982769
63	0xbf87e699	-1.0617248
