datas/value_gail.pth (torch, 148708 bytes, 7 tensors)

module.0.weight f4 [128, 24]
-0.042767745 -0.014960593 0.032723114 -0.12066853 -0.08836788 -0.21293673 -0.11734397 -0.053534362
-0.0046010646 -0.0012466711 0.060443044 -0.18970117 -0.19982137 -0.12892129 0.08531472 0.15393363
-0.1553529 -0.075638756 -0.023625182 -0.05445691 0.021533746 -0.05369806 -0.09302304 0.027315432
-0.1187862 0.08658098 0.11146494 -0.11623558 -0.14599605 0.14412521 -0.020452768 -0.07738774
0.07517414 0.013231815 0.12113654 0.056247987 0.17525052 0.067493826 -0.07315625 -0.027131304
0.123156466 -0.117500395 -0.100228965 -0.06360964 0.17863531 0.048601907 0.06521085 -0.15625401
-0.24682161 -0.21751386 -0.10448864 0.104143575 0.03237425 0.13349682 -0.18542023 -0.022877412
-0.09358785 0.093217775 -0.10518305 0.09497479 0.04709227 -0.16735232 -0.018130988 0.07114981
0.22261463 -0.17555209 -0.11143584 0.20936306 -0.14855087 -0.02604791 0.1586447 0.12257106
0.09296885 0.16370024 -0.067596525 -0.07357972 0.008918227 -0.1669422 0.19754224 0.0664523
0.16891494 -0.08569253 -0.106670916 0.0067421314 -0.15909421 0.14365338 0.014451521 0.071291044
-0.14600645 0.103709795 -0.18519205 -0.1792091 -0.14845602 0.05654214 -0.06546307 0.10718026
0.07286543 0.054412216 0.06277547 -0.02490948 -0.03186418 0.18121032 0.24441959 0.07876662
-0.036749277 -0.14087538 -0.0068473197 -0.2135018 0.16047743 -0.04111832 0.023302283 -0.07145693
0.037977062 0.10309936 -0.07466081 0.1224172 -0.18489005 0.08183558 0.12138393 0.10464977
0.19009538 -0.085314795 -0.031549957 0.17221357 0.12613693 -0.15875994 -0.011486573 -0.0048661707
0.0006903073 -0.057844788 -0.16793822 0.035134528 0.18684165 0.036701526 0.09871661 -0.15618446
-0.21110725 -0.1422045 -0.0190919 -0.1858903 0.1875681 0.020021483 0.07163396 -0.019762848
0.15957049 -0.17044242 -0.11144834 0.04639181 -0.007718011 -0.10570291 -0.24240552 0.120660685
-0.08955944 0.16684316 -0.17701443 0.1054408 0.17414178 0.18086384 -0.16564025 -0.122033596
0.14576328 -0.023601158 0.018462293 0.008320414 -0.07021502 0.06423435 -0.054184366 0.11475322
-0.12437014 0.23900585 -0.00031982863 0.004295834 0.20396222 0.11249864 0.17509976 0.15849786
0.12334673 0.065748684 -0.044386506 -0.024356712 -0.06104114 -0.036519267 0.13272484 -0.21202424
-0.1650559 -0.044123404 0.11324002 0.08273375 0.030227732 -0.008222699 -0.1798932 -0.06484032
0.23911873 0.12933466 -0.036328625 0.07442385 0.19583434 -0.018618692 0.019745998 0.1103425
-0.18082477 0.058712486 0.13502187 0.1301844 -0.06435999 -0.15138522 0.1811176 0.19193853
-0.17742956 0.19176437 -0.13402618 0.11439782 -0.013202273 -0.056101095 0.1315339 -0.00075819605
-0.18591458 -0.251508 0.09595749 -0.017042605 -0.12562324 0.08505685 -0.20928594 0.18636744
0.04897262 0.1545649 -0.055045206 0.17207393 0.065525115 0.15509278 -0.10272384 -0.16811094
0.11867771 0.053895433 -0.0019615337 -0.06129274 0.12240681 0.06924851 0.11502869 0.0055837776
0.13320856 0.14312184 -0.18703026 0.03270906 -0.16699664 0.1483517 -0.023343455 0.041253902
0.09863547 -0.105649 0.13431516 -0.12947388 0.18420953 -0.05583531 -0.031547233 0.16959698
00000000: 3b2d 2fbd 461d 75bc ac08 063d 1021 f7bd
00000010: 38fa b4bd 160c 5abe 0952 f0bd d946 5bbd
00000020: 87c4 96bb 5767 a3ba 2093 773d 0641 42be
00000030: f99d 4cbe f103 04be 7cb9 ae3d c7a0 1d3e
00000040: d514 1fbe 7ee8 9abd 9989 c1bc 350e 5fbd
00000050: 8a67 b03c 7ff2 5bbd dd82 bebd 9dc4 df3c
00000060: 2e46 f3bd 5e51 b13d bb47 e43d eb0c eebd
00000070: fd7f 15be 8f95 133e 908c a7bc 777d 9ebd
00000080: e6f4 993d 41ca 583c 6f16 f83d 4a64 663d
00000090: df74 333e 343a 8a3d f2d2 95bd 7842 debc
000000a0: 7539 fc3d 0ca4 f0bd d844 cdbd c545 82bd
000000b0: 2dec 363e cb12 473d 448d 853d 0d01 20be
000000c0: cebe 7cbe f4bb 5ebe 24fe d5bd 3a49 d53d
000000d0: dd9a 043d 64b3 083e cdde 3dbe 6969 bbbc
000000e0: fdaa bfbd f6e8 be3d 366a d7bd 2582 c23d
000000f0: d3e3 403d 685e 2bbe 7087 94bc feb6 913d
00000100: 17f5 633e edc3 33be 7938 e4bd 4563 563e
00000110: b81d 18be 6d62 d5bc c273 223e 8906 fb3d
00000120: 7466 be3d 09a1 273e 0c70 8abd f7b0 96bd
00000130: c11d 123c e5f2 2abe 8348 4a3e 2518 883d
00000140: 0af8 2c3e 917f afbd 4876 dabd 19ed dc3b
00000150: 98e9 22be df19 133e 13c6 6c3c 0a01 923d
00000160: b782 15be cd65 d43d fca2 3dbe 9782 37be
00000170: db04 18be bb98 673d 8111 86bd 5381 db3d
00000180: 783a 953d 58df 5e3d 6d90 803d f70e ccbc
00000190: 0484 02bd 338f 393e 2149 7a3e 6550 a13d
000001a0: 6986 16bd a341 10be 7b5f e0bb 37a0 5abe
000001b0: 3254 243e af6b 28bd 6ee4 be3c 0358 92bd
000001c0: d68d 1b3d c225 d33d c4e7 98bd deb5 fa3d
000001d0: d153 3dbe 6a99 a73d 2398 f83d 9e52 d63d
000001e0: 5da8 423e 86b9 aebd 873a 01bd c158 303e
000001f0: 0a2a 013e f791 22be 2e32 3cbc 6674 9fbb
00000200: bdf5 343a a8ee 6cbd fff7 2bbe 39e9 0f3d
00000210: 6b53 3f3e 5754 163d ef2b ca3d d2ee 1fbe
00000220: 802c 58be 0e9e 11be 9e66 9cbc 075a 3ebe
00000230: da11 403e 1804 a43c d3b4 923d b2e5 a1bc
00000240: 7266 233e 7588 2ebe 073f e4bd 5705 3e3d
00000250: 5ee7 fcbb c47a d8bd 2739 78be f31c f73d
00000260: f16a b7bd efd8 2a3e 4543 35be 59f1 d73d
00000270: 3952 323e 5f34 393e 999d 29be c0ec f9bd
00000280: f842 153e 3757 c1bc 3c3e 973c 5952 083c
00000290: e4cc 8fbd 4d8d 833d 6df0 5dbd bc03 eb3d
000002a0: c6b5 febd f3bd 743e acae a7b9 11c4 8c3b
000002b0: 79db 503e b065 e63d 5a4d 333e 434d 223e
000002c0: 369d fc3d 3fa7 863d a0ce 35bd ba87 c7bc
000002d0: 4606 7abd 3a95 15bd 05e9 073e e21c 59be
000002e0: 6a04 29be beba 34bd 62ea e73d 5070 a93d
000002f0: 26a0 f73c 80b8 06bc ec35 38be 00cb 84bd
00000300: 8adb 743e 4e70 043e 53cd 14bd 886b 983d
00000310: cc88 483e 3a86 98bc 5cc2 a13c 40fb e13d
00000320: 212a 39be 817c 703d 2c43 0a3e 0f4f 053e
00000330: 2ccf 83bd ba04 1bbe e476 393e 898b 443e
00000340: 18b0 35be e15d 443e 293e 09be 6749 ea3d
00000350: 594e 58bc 43ca 65bd d3b0 063e adc1 46ba
00000360: 6460 3ebe a8c5 80be 5c85 c43d ef9c 8bbc
00000370: 61a3 00be 4932 ae3d 0e4f 56be 1bd7 3e3e
00000380: 8497 483d 4346 1e3e 1577 61bd 2634 303e
00000390: 0832 863d a4d0 1e3e e060 d2bd 4625 2cbe
000003a0: 4d0d f33d 75c1 5c3d 138d 00bb 190e 7bbd
000003b0: 6cb0 fa3d 2ad2 8d3d 2994 eb3d 1ff8 b63b
000003c0: d367 083e 888e 123e dc84 3fbe eff9 053d
000003d0: 2b01 2bbe 82e9 173e c63a bfbc daf9 283d
000003e0: 6501 ca3d 815e d8bd ea89 093e cd94 04be
000003f0: 6ca1 3c3e 91b3 64bd ac37 01bd d5aa 2d3e

module.0.bias f4 [128]
0.08746271 -0.044082586 0.16046366 0.03610123 -0.16457163 -0.09827791 -0.20164052 0.059347793
0.059141822 0.025722539 -0.002823541 0.09209888 -0.112690635 0.17367403 0.17973101 -0.15740734
0.027320897 0.16208038 0.052249894 0.19819622 0.21317914 -0.16573045 0.1628582 -0.05095707
-0.12160847 -0.15541007 -0.10910025 0.004300957 -0.034521338 0.010436328 0.0903991 -0.099460535
0.08001802 0.15645543 0.0970726 -0.07019782 -0.1838815 -0.19734623 -0.008498323 -0.07739914
0.14125936 -0.037088167 -0.16897453 -0.14116478 -0.022011207 -0.1707421 -0.18291454 -0.09027881
0.07334702 -0.027001522 -0.14389592 0.09553541 -0.13687994 -0.019961832 0.13374257 -0.034126524
0.096028045 0.12102706 0.18250276 0.17265856 0.08997117 0.08099558 -0.019616915 0.19189031
-0.08371913 0.0816625 -0.040633164 -0.006340294 -0.049577817 -0.13765238 -0.07361642 -0.09850706
-0.007975486 0.18072715 -0.052496042 0.12091231 0.08472632 -0.15172341 -0.008077633 0.0079960795
-0.011969141 0.21006766 -0.037408266 -0.0988881 0.0019450572 0.13447936 0.19854073 0.0644771
0.03663651 0.06279667 0.08096225 0.1789566 0.121434614 -0.14067556 -0.16494556 -0.18371385
0.05409681 -0.05379689 -0.1553002 -0.20008704 0.18434222 0.023640243 -0.051187195 -0.12066883
-0.016651187 0.11681372 -0.12112095 0.12301203 0.11515941 0.16681862 0.0081761805 0.10704407
-0.012325129 0.12443243 0.05751783 -0.16398603 -0.025361214 0.14797904 0.009544348 -0.21264397
0.17802931 0.02598797 -0.2079689 0.16514646 -0.03312056 0.17215705 0.12920238 -0.05157987
00000000: a61f b33d f18f 34bd 9650 243e e2de 133d
00000010: 7785 28be ee45 c9bd da7a 4ebe ac16 733d
00000020: b23e 723d 13b8 d23c 280b 39bb 569e bc3d
00000030: 59ca e6bd 9bd7 313e 680b 383e 642f 21be
00000040: 13d0 df3c 66f8 253e fc03 563d f3f3 4a3e
00000050: a24b 5a3e 3eb5 29be 4dc4 263e 5cb8 50bd
00000060: dd0d f9bd d123 1fbe f46f dfbd 0bef 8c3b
00000070: 3f66 0dbd 22fd 2a3c 2a23 b93d f7b1 cbbd
00000080: 7de0 a33d da35 203e 00ce c63d e0c3 8fbd
00000090: 6f4b 3cbe 2115 4abe 8d3c 0bbc 7183 9ebd
000000a0: 4ba6 103e c3e9 17bd a907 2dbe 808d 10be
000000b0: d950 b4bc 04d7 2ebe f34d 3bbe 19e4 b8bd
000000c0: f636 963d 4c32 ddbc 7459 13be 12a8 c33d
000000d0: 412a 0cbe ff86 a3bc d0f3 083e 41c8 0bbd
000000e0: 5aaa c43d 09dd f73d 01e2 3a3e 68cd 303e
000000f0: ce42 b83d 03e1 a53d a7b3 a0bc e57e 443e
00000100: ef74 abbd ab3e a73d f66e 26bd 3ec2 cfbb
00000110: 1c12 4bbd bff4 0cbe 35c4 96bd 12be c9bd
00000120: 9dab 02bc 8a10 393e 1706 57bd e0a0 f73d
00000130: fe84 ad3d 625d 1bbe 0c58 04bc fd01 033c
00000140: 371a 44bc fa1b 573e 6939 19bd d885 cabd
00000150: 4af1 fe3a f5b4 093e 434e 4b3e 920c 843d
00000160: 2a10 163d 8a9b 803d 89cf a53d 6640 373e
00000170: b6b2 f83d 410d 10be 7de7 28be 7c1f 3cbe
00000180: 9e94 5d3d 215a 5cbd 0407 1fbe 9ee3 4cbe
00000190: 35c4 3c3e 2fa9 c13c aaa9 51bd 3821 f7bd
000001a0: 1268 88bc 083c ef3d 430e f8bd bbed fb3d
000001b0: b2d8 eb3d 80d2 2a3e 63f5 053c ec39 db3d
000001c0: 56ef 49bc 6ed6 fe3d d197 6b3d f4eb 27be
000001d0: 52c2 cfbc d187 173e e65f 1c3c 57bf 59be
000001e0: 514d 363e b9e4 d43c cdf5 54be 271c 293e
000001f0: 6da9 07bd f049 303e a14d 043e 6a45 53bd

module.2.weight f4 [128, 128]
-0.0017102313 -0.060073003 0.070941105 0.09961141 0.09973082 0.021234248 0.03960253 0.074003816
-0.014481019 0.013478529 0.018320877 0.030487161 -0.06471643 -0.011154122 -0.03495983 0.01046268
0.028243227 0.08488386 0.024994027 0.0046234727 0.017348388 -0.07806813 0.01941001 0.06460607
0.06041517 -0.006760651 0.01638197 0.059369054 0.050093208 -0.06551834 0.12212777 -0.047811866
-0.102833524 -0.085502595 0.01162342 -0.06638752 0.013630391 -0.074407876 -0.008993151 -0.0047791195
-0.044494826 0.05473504 -0.033205483 0.0073633566 0.08296946 0.014629682 -0.079742946 -0.0071143378
0.03149388 0.066174194 0.120756134 -0.06784278 0.0018185549 -0.028371446 -0.09968514 0.055696227
0.088059835 -0.021043224 0.009730336 -0.08337367 -0.0019690813 0.020956531 -0.040320285 0.11562932
0.05300509 0.057639994 0.052628238 -0.075499915 -0.024549734 0.06703736 -0.0021952223 -0.01822929
-0.066410355 -0.05073613 0.02346215 0.039884556 0.044382207 -0.014114392 0.10911446 0.09740925
-0.116783306 0.10193664 -0.054650664 4.8539834e-05 -0.0780699 -0.01867805 0.092407964 0.027315645
0.028504796 -0.088871226 -0.012826627 0.08643742 0.073145956 8.512084e-05 0.05289702 -0.10939119
0.040923197 -0.050050884 -0.058023885 0.012006917 -0.053335063 0.052464243 0.0033430709 0.0018156276
-0.048505858 0.07818553 0.033512156 0.012318911 -0.016635122 0.123178184 -0.08939097 0.028129054
-0.0014911655 -0.0136727365 0.09485184 -0.051593836 0.016504513 -0.08666168 0.042840708 -0.062193166
-0.05205481 0.046342127 0.03547386 0.002531555 -0.07163151 0.07907733 0.02859167 0.065246575
-0.06402787 -0.007261311 -0.06614127 0.095017456 0.08344487 -0.07416772 -0.055178206 0.06595886
-0.05162149 -0.043057367 0.0067122425 -0.03332886 0.033126947 -0.05103191 0.09227697 0.07251779
0.009736447 0.04882368 0.079641506 0.10004112 -0.05907501 0.0506668 -0.02761672 0.062214453
-0.093225256 -0.042018425 0.061061222 -0.051792193 -0.0814885 -0.032259483 0.048289187 0.010730076
-0.10026677 -0.061941 0.13666837 -0.06773989 0.027745362 0.037592635 -0.057486575 -0.021992384
-0.031235535 -0.019902784 -0.07350577 -0.060288087 0.06891529 0.05053288 -0.022789724 -0.09872458
0.07277872 0.038368724 0.070615605 0.035369694 0.0063431365 0.06575045 -0.0038359533 -0.0072619184
0.03873429 -0.014939715 0.025011444 0.010586518 0.014685256 0.08167102 -0.04887809 0.094235525
0.079571545 -0.048286263 -0.030308438 0.0120719895 -0.052400783 0.0075855427 -0.020661928 0.02115787
0.007195857 0.022697367 0.025353521 0.07286043 0.07872906 0.053156383 0.09007069 0.053250793
-0.04709295 0.084283836 -0.04660855 -0.003916052 -0.08552092 -0.039000437 -0.023600494 0.024176853
0.043383587 -0.080060355 -0.046509787 0.079369515 0.02218086 -0.05549528 0.097306706 -0.07177722
-0.08701617 0.06829741 0.04259108 0.07080753 0.057086956 -0.03950251 -0.0041708886 -0.05575019
-0.0033407116 -0.05487309 -0.09345362 0.07258992 -0.06510573 0.084186316 -0.06663083 0.024962194
-0.017023448 -0.0034908243 0.045242075 -0.00461334 -0.020602932 0.022409415 -0.05356691 -0.09702067
-0.02239448 -0.04604327 -0.096340306 -0.017738406 -0.004186014 0.084580965 0.053153694 -0.07130537
00000000: d729 e0ba 1c0f 76bd 9249 913d 1101 cc3d
00000010: ac3f cc3d 72f3 ad3c 4336 223d 508f 973d
00000020: cc41 6dbc 0cd5 5c3c aa15 963c 36c0 f93c
00000030: 0c8a 84bd c7bf 36bc 0a32 0fbd a96b 2b3c
00000040: 575e e73c 97d7 ad3d 46c0 cc3c 8080 973b
00000050: 351e 8e3c 2fe2 9fbd be01 9f3c 3050 843d
00000060: e675 773d 7388 ddbb 7b33 863c f72c 733d
00000070: 892e 4d3d 7b2e 86bd 201e fa3d 60d6 43bd
00000080: 629a d2bd fc1b afbd 2870 3e3c 2ef6 87bd
00000090: 0152 5f3c 2863 98bd 0258 13bc 299a 9cbb
000000a0: 3540 36bd d931 603d 7902 08bd 5048 f13b
000000b0: e4eb a93d 55b1 6f3c 4550 a3bd 641f e9bb
000000c0: baff 003d 5686 873d fe4e f73d 28f1 8abd
000000d0: 945c ee3a 3c6b e8bc b927 ccbd ba21 643d
000000e0: b758 b43d d762 acbc fd6b 1f3c d1bf aabd
000000f0: b40b 01bb 08ad ab3c e226 25bd 11cf ec3d
00000100: de1b 593d ea17 6c3d b590 573d b39f 9abd
00000110: 861c c9bc e24a 893d b8dd 0fbb 9855 95bc
00000120: 2702 88bd b0d0 4fbd b233 c03c fd5d 233d
00000130: 1eca 353d 0d40 67bc 6777 df3d 807e c73d
00000140: 162c efbd 28c4 d03d 60d9 5fbd 4097 4b38
00000150: 1de3 9fbd b602 99bc 6340 bd3d 0fc5 df3c
00000160: e482 e93c 1e02 b6bd c626 52bc 1a06 b13d
00000170: 8ccd 953d e782 b238 8caa 583d 7d08 e0bd
00000180: 159f 273d 2802 4dbd 74aa 6dbd a9b8 443c
00000190: de75 5abd bfe4 563d 6c17 5b3b 5afa ed3a
000001a0: 14ae 46bd bc1f a03d 0b44 093d 42d5 493c
000001b0: 6146 88bc d844 fc3d 9d12 b7bd e76e e63c
000001c0: 3673 c3ba 9d03 60bc ae41 c23d 0f54 53bd
000001d0: 7934 873c ae7b b1bd bd79 2f3d 43be 7ebd
000001e0: 6d37 55bd 3ed1 3d3d 0a4d 113d 72e8 253b
000001f0: 8bb3 92bd 4cf3 a13d 1439 ea3c ff9f 853d
00000200: 0b21 83bd 4bf0 edbb 1375 87bd 8398 c23d
00000210: 25e5 aa3d 3fe5 97bd 8b02 62bd 7015 873d
00000220: 0e71 53bd ec5c 30bd 5ff2 db3b d883 08bd
00000230: 1fb0 073d d606 51bd b5fb bc3d 3584 943d
00000240: 9e85 1f3c 57fb 473d 161b a33d 5ce2 cc3d
00000250: a3f8 71bd fe87 4f3d 763c e2bc 95d4 7e3d
00000260: e2ec bebd 831b 2cbd 551b 7a3d 0d24 54bd
00000270: 71e3 a6bd 8522 04bd e2ca 453d 33cd 2f3c
00000280: aa58 cdbd d9b5 7dbd cbf2 0b3e 36bb 8abd
00000290: 3e4a e33c bcfa 193d 0b77 6bbd 5f29 b4bc
000002a0: aae1 ffbc 2a0b a3bc 318a 96bd a4f0 76bd
000002b0: 7623 8d3d 91fb 4e3d 84b1 babc 1d30 cabd
000002c0: 020d 953d 8628 1d3d ea9e 903d d0df 103d
000002d0: 16da cf3b 2ca8 863d 9e64 7bbb 63f5 edbb
000002e0: d9a7 1e3d b5c5 74bc cde4 cc3c 1373 2d3c
000002f0: 6e9a 703c 2343 a73d 6434 48bd 8efe c03d
00000300: 68f6 a23d d1c7 45bd 6749 f8bc 98c9 453c
00000310: 34a2 56bd 2590 f83b 3443 a9bc 4553 ad3c
00000320: 39cb eb3b d4ef b93c 30b2 cf3c d937 953d
00000330: b43c a13d 82ba 593d fb76 b83d 811d 5a3d
00000340: 8ae4 40bd 019d ac3d 9be8 3ebd 3a52 80bb
00000350: 9825 afbd ecbe 1fbd d355 c1bc 890e c63c
00000360: fdb2 313d aff6 a3bd 0c81 3ebd 7c8c a23d
00000370: a3b4 b53c 054f 63bd bd48 c73d efff 92bd
00000380: 8935 b2bd 83df 8b3d fc73 2e3d 8a03 913d
00000390: 03d4 693d 62cd 21bd f3ab 88bb 505a 64bd
000003a0: d7ef 5abb 9bc2 60bd 9d64 bfbd 06aa 943d
000003b0: 2756 85bd e069 ac3d bf75 88bd 847d cc3c
000003c0: c274 8bbc 50c6 64bb c14f 393d 802b 97bb
000003d0: 7bc7 a8bc f393 b73c fa68 5bbd c6b2 c6bd
000003e0: a174 b7bc de97 3cbd 114e c5bd 2250 91bc
000003f0: d52a 89bb c938 ad3d b0b7 593d 8d08 92bd

module.2.bias f4 [128]
0.06761095 0.063808896 -0.09145136 0.06178759 -0.10615576 0.06639211 0.053533677 -0.050642043
-0.026387196 -0.0024263326 0.0014274633 -0.088310935 0.030194541 -0.0010901049 -0.0503948 -0.037782945
-0.02289101 0.045409225 -0.11833827 -0.104430065 0.1013333 -0.026327247 -0.05710068 0.097282775
-0.07098689 -0.082862 -0.060723316 0.026215743 0.014053963 0.026276259 -0.06302601 -0.05179995
-0.010185979 -0.060536493 0.076011054 0.02059783 -0.019187208 0.012451551 0.086116925 -0.017670613
-0.105004676 0.03272597 -0.021237917 -0.020942537 0.061094716 0.006114706 0.034497697 0.062890515
0.027937068 0.040487822 -0.056598853 -0.05460094 -0.062490307 0.0014793901 0.041205753 -0.042257067
0.026813362 -0.100368544 -0.02714447 0.07734319 0.07174415 0.033280786 0.08957845 -0.06851874
-0.02937763 -0.0088048 0.10338095 0.05723672 0.010100608 -0.05673682 -0.010904918 -0.04370306
-0.017450403 0.02370593 0.10545939 -0.09579416 0.057240922 -0.06842229 -0.020107718 0.094946645
0.018124338 0.027375055 -0.052938946 -0.069680125 -0.038945384 0.037050337 -0.05964643 -0.064527996
0.086027935 -0.010258814 0.06399292 -0.009850955 0.023049373 0.087795034 0.0049980353 -0.10299767
-0.03485742 0.054573964 0.008850889 0.018920861 -0.060532082 0.039302167 0.06760216 -0.08809861
-0.06714714 -0.034969382 0.034988098 -0.09883424 -0.0022439777 -0.038763776 -0.05032698 -0.104694225
-0.07334712 -0.048029408 0.048326135 0.08161117 -0.073356204 -0.11401948 0.050942663 0.08451125
-0.00035302868 -0.0029568342 -0.015109074 -0.054716855 -0.04245241 -0.03336096 0.04667489 -0.065535806
00000000: 9c77 8a3d 3dae 823d da4a bbbd fc14 7d3d
00000010: 3168 d9bd 96f8 873d 2146 5b3d 086e 4fbd
00000020: f629 d8bc 1b03 1fbb b819 bb3a 5ddc b4bd
00000030: 8b5a f73c dae1 8eba c76a 4ebd 4ac2 1abd
00000040: ed85 bbbc 06ff 393d 565b f2bd 6edf d5bd
00000050: d587 cf3d 3dac d7bc 67e2 69bd 313c c73d
00000060: 9361 91bd 8db3 a9bd 03b9 78bd 66c2 d63c
00000070: 9842 663c 4f41 d73c c813 81bd 2f2c 54bd
00000080: 18e3 26bc 1df5 77bd afab 9b3d c8bc a83c
00000090: 7e2e 9dbc 9701 4c3c 125e b03d f6c1 90bc
000000a0: b10c d7bd ab0b 063d 24fb adbc af8f abbc
000000b0: 743e 7a3d df5d c83b 754d 0d3d becc 803d
000000c0: 47dc e43c 8fd6 253d 33d4 67bd 3ca5 5fbd
000000d0: d6f5 7fbd 18e8 c13a 5dc7 283d bf15 2dbd
000000e0: b2a7 db3c 068e cdbd 145e debc 1b66 9e3d
000000f0: 99ee 923d 6f51 083d e874 b73d 8e53 8cbd
00000100: 5ba9 f0bc 0242 10bc 64b9 d33d 0d71 6a3d
00000110: 057d 253c de64 68bd 8baa 32bc fb01 33bd
00000120: 26f4 8ebc f032 c23c 18fb d73d bb2f c4bd
00000130: 7575 6a3d fc20 8cbd f1b8 a4bc 6373 c23d
00000140: 7e79 943c a741 e03c 82d6 58bd 74b4 8ebd
00000150: 3285 1fbd 18c2 173d d14f 74bd 4127 84bd
00000160: 6a2f b03d 9614 28bc b80e 833d e665 21bc
00000170: 0ad2 bc3c e2cd b33d 8fc6 a33b 71f0 d2bd
00000180: a7c6 0ebd f388 5f3d 5203 113c ecff 9a3c
00000190: 7df0 77bd 4ffb 203d 0073 8a3d 0b6d b4bd
000001a0: 7184 89bd 0e3c 0fbd ae4f 0f3d 9b69 cabd
000001b0: b30f 13bb c4c6 1ebd aa23 4ebd ed69 d6bd
000001c0: 0437 96bd 7cba 44bd a0f1 453d c223 a73d
000001d0: c73b 96bd 0c83 e9bd 41a9 503d 3c14 ad3d
000001e0: b516 b9b9 72c7 41bb 0d8c 77bc c81e 60bd
000001f0: 94e2 2dbd 81a5 08bd 2b2e 3f3d a337 86bd

module.4.weight f4 [128, 128]
-0.06431264 -0.044980347 0.011299438 -0.047972973 0.086823836 0.037043504 0.064758606 -0.048349906
-0.0012252254 -0.028663889 -0.11171965 -0.018719453 -0.016149461 0.09976253 0.052996155 -0.017686673
-0.016628593 -0.027399587 -0.0052788868 0.012826427 -0.06979234 -0.08101958 -0.11347858 -0.024337305
-0.03912187 0.046765853 -0.013740137 -0.11999983 -0.045342732 0.08285358 -0.007045005 0.0770733
-0.10212588 0.12256285 0.03414816 0.027691387 -0.07162439 -0.12471981 -0.061556753 -0.0683739
0.010624504 0.052397355 -0.07447007 0.03329912 0.017563306 0.09887245 -0.047468565 0.0055707805
0.016048959 -0.12659295 0.017243935 -0.005997918 0.11421467 -0.05339754 0.08514685 0.07927975
0.020645881 0.12152003 0.10796008 0.047149986 0.04869351 0.034748595 0.02726892 0.11622926
0.007226506 0.042200282 -0.004184956 -0.008738388 -0.05012994 0.027251296 -0.05763026 -0.082437254
0.07650205 -0.035002243 -0.06557335 0.12317364 -0.08046155 -0.026886638 0.0031369866 -0.110532664
-0.08532177 -0.013039579 -0.08056198 0.06844763 0.025263406 0.009622523 0.036781866 0.12355691
-0.024967238 -0.013126563 0.046172462 0.087807 -0.047995653 0.025326006 0.045388065 0.05848053
-0.0041549313 -0.070813686 -0.09562804 -0.063072756 0.032009833 -0.11851238 -0.101603284 -0.03204271
-0.025347872 0.02654211 0.05792244 0.07111083 0.020036504 -0.08296794 0.12157935 -0.04514872
-0.0202075 0.02821652 -0.07707381 -0.09199099 0.032313712 -0.044508655 -0.019000705 0.023561502
-0.113903515 -0.025915021 -0.021421848 0.040783387 -0.03148928 0.045470253 -0.059207946 -0.049107764
0.0054422505 -0.11181126 0.0065966393 -0.019441834 -0.04034011 0.03505474 0.05525719 -0.025964592
-0.04065079 0.06869484 -0.03849221 0.0795859 0.09693432 0.032060426 0.105227515 0.0017584396
0.07546086 0.033962853 -0.027537096 -0.04967975 -0.017181896 -0.09055309 -0.09825934 0.023137346
0.03223344 -0.027202334 -0.04425219 -0.10578285 0.089829884 -0.02971201 0.01763536 -0.015359505
-0.061976273 -0.018140702 -0.10706442 -0.011091427 0.04685583 -0.058413904 0.07574378 -0.09013582
0.004807842 -0.036726195 -0.090302445 0.057154845 0.018006803 -0.04184443 -0.031293888 0.059266806
-0.11121102 -0.08521663 0.05030886 0.039265156 0.003060292 0.052133217 0.09584463 0.018941538
0.03413302 0.07877001 0.11588286 0.07754225 -0.052361473 0.08301051 -0.01215345 0.06367684
0.0046251286 -0.0008068369 -0.08700813 0.010526423 0.046622206 0.01777063 -0.017111532 0.003518536
0.022375168 -0.058405228 -0.0041908436 -0.04833589 -0.004001588 0.0027487662 0.048866812 -0.05840758
0.028426185 0.017223246 -0.1002139 0.05794078 -0.02961152 0.048095472 0.057049382 0.019259585
0.048647314 0.0044959104 0.10661495 0.06547954 -0.022936083 0.0153229255 -0.111514226 0.092940934
0.038669176 -0.10854834 0.0030778148 -0.0995117 0.0109409075 0.030967114 -0.074985325 0.030971821
0.025262685 -0.11008425 -0.03673487 0.06681729 -0.08015006 -0.10252817 0.0006863376 0.113042705
-0.11195869 0.07623551 0.053502075 0.048089914 0.069440305 -0.012044932 0.111796014 -0.10835165
-0.11977607 -0.021034788 -0.0521666 0.013526448 -0.053873524 -0.053772062 0.0033145351 -0.008910827
00000000: 58b6 83bd 503d 38bd 4721 393c 4f7f 44bd
00000010: b2d0 b13d eeba 173d 29a0 843d 8d0a 46bd
00000020: be97 a0ba 88d0 eabc 46cd e4bd 8a59 99bc
00000030: e04b 84bc 4c50 cc3d 7f12 593d a4e3 90bc
00000040: b038 88bc 1975 e0bc 83fa acbb ef25 523c
00000050: 49ef 8ebd 98ed a5bd 7567 e8bd 075f c7bc
00000060: 413e 20bd 8d8d 3f3d 501e 61bc 79c2 f5bd
00000070: 4db9 39bd 23af a93d c9d9 e6bb 9bd8 9d3d
00000080: 6027 d1bd 3b02 fb3d f1de 0b3d 0cd9 e23c
00000090: cfaf 92bd 1a6d ffbd ef22 7cbd 9e07 8cbd
000000a0: 6612 2e3c 9c9e 563d c483 98bd a864 083d
000000b0: ece0 8f3c a47d ca3d 666e 42bd 188b b63b
000000c0: 1b79 833c 95a1 01be 2743 8d3c 2f8a c4bb
000000d0: 62e9 e93d 61b7 5abd 7961 ae3d 6c5d a23d
000000e0: 8d21 a93c 7edf f83d 2d1a dd3d 5820 413d
000000f0: d972 473d 8b54 0e3d 1263 df3c 9b09 ee3d
00000100: 53cc ec3b 34da 2c3d f521 89bb 752b 0fbc
00000110: 0d55 4dbd 1c3e df3c b50d 6cbd ddd4 a8bd
00000120: 1bad 9c3d 835e 0fbd 524b 86bd 7642 fc3d
00000130: 06c9 a4bd 5e41 dcbc e795 4d3b f35e e2bd
00000140: 2ebd aebd f5a3 55bc aefd a4bd 452e 8c3d
00000150: 34f5 ce3c c9a7 1d3c 95a8 163d 680b fd3d
00000160: 1888 ccbc cc10 57bc 561f 3d3d 28d4 b33d
00000170: 1797 44bd 7c78 cf3c d6e8 393d 4889 6f3d
00000180: 1726 88bb c406 91bd a2d8 c3bd 4a2c 81bd
00000190: be1c 033d 9eb6 f2bd 6215 d0bd 373f 03bd
000001a0: 57a6 cfbc d76e d93c 1540 6d3d 8ea2 913d
000001b0: 9823 a43c 18eb a9bd 98fe f83d dded 38bd
000001c0: 338a a5bc 5526 e73c e0d8 9dbd c665 bcbd
000001d0: 625b 043d b54e 36bd 5ea7 9bbc 0d04 c13c
000001e0: 3f46 e9bd bd4b d4bc df7c afbc 7b0c 273d
000001f0: e7fa 00bd 043f 3a3d 0884 72bd 3925 49bd
00000200: e854 b23b 4dfd e4bd 9f28 d83b 7b44 9fbc
00000210: ac3b 25bd 8f95 0f3d 5d55 623d b2b3 d4bc
00000220: 7181 26bd e1af 8c3d 02aa 1dbd effd a23d
00000230: 8085 c63d cb51 033d 8681 d73d 717b e63a
00000240: 398b 9a3d a21c 0b3d 7a95 e1bc fe7c 4bbd
00000250: 0cc1 8cbc e673 b9bd 313c c9bd 888a bd3c
00000260: 3607 043d 6ed7 debc c941 35bd aea4 d8bd
00000270: bbf8 b73d 9a66 f3bc 0878 903c 6fa6 7bbc
00000280: d5da 7dbd cf9b 94bc 9744 dbbd d1b8 35bc
00000290: e6eb 3f3d 6b43 6fbd 8e1f 9b3d 2199 b8bd
000002a0: 1a8b 9d3b 356e 16bd 7df0 b8bd 331b 6a3d
000002b0: 0183 933c 1165 2bbd 052e 00bd c0c1 723d
000002c0: 9ac2 e3bd 0e86 aebd aa10 4e3d 80d4 203d
000002d0: 2e8f 483b a489 553d 304a c43d 492b 9b3c
000002e0: 11cf 0b3d 2c52 a13d fe53 ed3d 79ce 9e3d
000002f0: fc78 56bd 6a01 aa3d 441f 47bc 0169 823d
00000300: 648e 973b e881 53ba 5231 b2bd 0577 2c3c
00000310: edf6 3e3d b693 913c 7c2d 8cbc 3d97 663b
00000320: 214c b73c 523a 6fbd 5853 89bb dbfb 45bd
00000330: c11f 83bb a524 343b 9128 483d c93c 6fbd
00000340: 08de e83c c417 8d3c f23c cdbd 5053 6d3d
00000350: dc93 f2bc c2ff 443d 9dac 693d 47c6 9d3c
00000360: 6842 473d 6e52 933b f058 da3d 231a 863d
00000370: 74e4 bbbc 020d 7b3c 9261 e4bd d157 be3d
00000380: 9263 1e3d 984e debd 2ab5 493b cacc cbbd
00000390: 7e41 333c bfae fd3c e891 99bd 9eb8 fd3c
000003a0: b1f3 ce3c da73 e1bd 4e77 16bd 81d7 883d
000003b0: b725 a4bd 4afa d1bd 56eb 333a ef82 e73d
000003c0: 994a e5bd 5d21 9c3d fe24 5b3d eef9 443d
000003d0: b836 8e3d 1b58 45bc 4ff5 e43d 78e7 ddbd
000003e0: 284d f5bd 2651 acbc a5ac 55bd 099e 5d3c
000003f0: 7caa 5cbd 1840 5cbd ac38 593b b8fe 11bc

module.4.bias f4 [128]
-0.0071512777 -0.044614606 -0.03142828 -0.05852722 0.06910529 -0.045015797 0.025944905 0.013850999
-0.04659851 0.10556553 -0.03096143 -0.006641168 -0.08664538 0.062302582 0.11612309 -0.0474556
0.009268904 -0.106066056 -0.08663731 0.0013121667 -0.003714626 0.03005085 -0.0056483718 0.052853357
-0.017027026 0.05793007 -0.016426453 0.016506173 0.002247703 0.0824565 0.08708633 0.111360215
0.032704033 -0.07806216 0.0019083081 0.10879307 -0.091933854 -0.048829958 0.039703336 -0.047852907
-0.10513496 0.031119669 -0.08732007 -0.059113104 -0.019038076 -0.054459736 0.117136575 0.025324674
0.03968905 0.053356916 0.07052367 0.02338688 0.02137114 0.10455966 0.046686467 -0.090649486
-0.02044784 0.08262834 -0.05929846 -0.014812961 0.062197756 0.06717764 -0.028995305 -0.06816253
0.050541814 0.046621732 0.02745022 0.012432722 0.11271466 -0.036129907 -0.11307776 0.07781039
-0.025573004 0.046150256 -0.0010888522 0.016862094 0.05787184 -0.01810475 0.10623833 0.10305528
-0.017799523 -0.03164183 0.053980265 0.008169506 0.024737604 0.095839664 0.059960827 -0.030459324
-0.08549117 -0.053665504 -0.081292704 -0.06351293 -0.005508423 -0.06499321 0.09877253 0.04995418
-0.062844105 -0.1099375 0.054044493 -0.07666895 -0.06423123 -0.0037619914 0.027946409 0.037067898
0.050823256 0.053500306 -0.06307663 -0.048125684 -0.06489643 -0.022354614 -0.00856196 -0.060349535
0.10104393 -0.008271362 0.042747103 0.08592642 0.014793129 -0.024720594 0.05539613 -0.028349388
0.03044988 0.008969403 -0.039939266 0.004913975 0.008749021 0.101774834 -0.04208665 -0.09357484
00000000: 4455 eabb cebd 36bd f1ba 00bd 3dba 6fbd
00000010: 1387 8d3d 7c62 38bd 698a d43c 4def 623c
00000020: 14de 3ebd be32 d83d d3a2 fdbc 289e d9bb
00000030: 2273 b1bd fe30 7f3d f1d1 ed3d ce60 42bd
00000040: 9adc 173c 2939 d9bd e76e b1bd 02fd ab3a
00000050: 1571 73bb 332d f63c fa15 b9bb c37c 583d
00000060: 437c 8bbc 1548 6d3d c590 86bc f437 873c
00000070: 334e 133b f4de a83d 515a b23d d310 e43d
00000080: aaf4 053d 0edf 9fbd 3220 fa3a e7ce de3d
00000090: d147 bcbd ec01 48bd f79f 223d 6901 44bd
000000a0: ff50 d7bd adee fe3c ddd4 b2bd 9520 72bd
000000b0: bdf5 9bbc 2c11 5fbd 4de5 ef3d b175 cf3c
000000c0: fc90 223d c88c 5a3d b76e 903d d895 bf3c
000000d0: 8712 af3c 6023 d63d 4f3a 3f3d 70a6 b9bd
000000e0: 3b82 a7bc 0c39 a93d f1e2 72bd 10b2 72bc
000000f0: 13c3 7e3d 6e94 893d 9087 edbc cc98 8bbd
00000100: ef04 4f3d 6ef6 3e3d 49df e03c 9eb2 4b3c
00000110: f2d6 e63d f4fc 13bd 5095 e7bd 0e5b 9f3d
00000120: 7a7e d1bc 0d08 3d3d d1b7 8eba 6022 8a3c
00000130: 060b 6d3d 6a50 94bc 7b93 d93d a60e d33d
00000140: 4ed0 91bc dd9a 01bd 691a 5d3d 64d9 053c
00000150: 84a6 ca3c 9647 c43d 7c99 753d d585 f9bc
00000160: ff15 afbd 5cd0 5bbd ca7c a6bd 1113 82bd
00000170: 0080 b4bb 291b 85bd 4149 ca3d c19c 4c3d
00000180: 69b4 80bd e926 e1bd c25d 5d3d 9c04 9dbd
00000190: aa8b 83bd be8b 76bb deef e43c 82d4 173d
000001a0: 0c2c 503d 2323 5b3d 522e 81bd 701f 45bd
000001b0: 6be8 84bd 0621 b7bc 7747 0cbc 1331 77bd
000001c0: 1ff0 ce3d 9b84 07bc 9617 2f3d 31fa af3d
000001d0: e15e 723c d882 cabc 0de7 623d fa3c e8bc
000001e0: 0772 f93c 67f4 123c 5b97 23bd 6905 a13b
000001f0: 0e58 0f3c 536f d03d 0d63 2cbd 2aa4 bfbd

module.6.weight f4 [1, 128]
-0.24241452 -0.23142187 -0.18691532 -0.24978629 0.18278182 -0.19817662 0.2072995 -0.17764252
-0.19378208 0.25096542 0.20201638 -0.18776579 -0.2369275 -0.18365979 0.22244038 0.21476972
0.23839515 -0.20120473 -0.25387862 -0.2508858 0.16138475 -0.22679006 0.21296917 -0.20211136
0.2052127 -0.17195882 0.19281898 -0.22577135 0.16007853 0.19076514 0.24005349 0.17263949
0.2385762 -0.22749002 -0.21236421 0.17851813 -0.2284202 -0.24002562 0.24070941 0.244714
-0.18923207 0.21602803 -0.18136472 -0.1531155 0.23089272 0.24147159 0.2121005 -0.17769888
-0.20667692 -0.24731408 0.2503107 0.21243459 -0.18335351 0.23743854 0.2412677 -0.20669799
-0.2324186 0.21172641 -0.24452414 0.18783307 0.19264047 0.19042556 0.20353244 -0.1785872
0.21356829 -0.21111709 -0.23495165 -0.23427927 0.2206388 0.2520883 -0.25306365 0.22402982
0.22098018 0.22341199 0.17793866 0.2579009 -0.18862003 -0.25685307 0.17207547 0.21308686
-0.17354605 0.25954545 -0.20896417 0.21161307 0.25836936 0.19260217 -0.23755743 -0.23912784
-0.23850721 -0.20552002 -0.16099952 -0.18388551 0.1940631 -0.22148071 0.24210604 0.18656074
-0.18223792 -0.19513728 -0.24270599 -0.2216056 -0.19554415 0.23284152 0.23505695 0.20496349
0.21800674 0.23150179 0.22031984 -0.20700364 -0.20485216 0.23054224 0.20584688 -0.1953821
0.22016983 -0.23670924 0.20753828 0.20871356 0.23586783 -0.25027514 0.23325245 0.20201021
0.19099066 -0.24847607 0.18153565 0.17378856 -0.21994524 0.23720828 0.25354102 -0.21373074
00000000: 833b 78be dbf9 6cbe bb66 3fbe fac7 7fbe
00000010: 282b 3b3e d0ee 4abe 5246 543e ece7 35be
00000020: cf6e 46be 8a7e 803e 62dd 4e3e ad45 40be
00000030: 1f9d 72be 5011 3cbe 69c7 633e 98ec 5b3e
00000040: dc1d 743e 9d08 4ebe 61fc 81be 1b74 80be
00000050: 0b42 253e a73b 68be 9714 5a3e 48f6 4ebe
00000060: 4723 523e f915 30be 5772 453e 9b30 67be
00000070: a0eb 233e f057 433e 95d0 753e 68c8 303e
00000080: 524d 743e 25f3 68be 0176 59be 75cd 363e
00000090: fce6 69be 47c9 75be 877c 763e 4f96 7a3e
000000a0: 0dc6 41be 7436 5d3e acb7 39be 4fca 1cbe
000000b0: 246f 6c3e 5444 773e e030 593e b2f6 35be
000000c0: 1da3 53be e73f 7dbe b928 803e 7488 593e
000000d0: 06c1 3bbe 1723 733e e10e 773e a3a8 53be
000000e0: 24ff 6dbe cfce 583e 8964 7abe 5057 403e
000000f0: 8b43 453e ebfe 423e cf6a 503e 90df 36be
00000100: a5b1 5a3e 142f 58be 2a97 70be e8e6 6fbe
00000110: 23ef 613e b811 813e 8f91 81be 1368 653e
00000120: a148 623e 1dc6 643e 8d35 363e 960b 843e
00000130: 9c25 41be 3f82 83be 8d34 303e 7133 5a3e
00000140: 0eb6 31be 24e3 843e b4fa 55be 19b1 583e
00000150: fd48 843e 8139 453e 4142 73be eedd 74be
00000160: 3c3b 74be d773 52be 0fdd 24be 7c4c 3cbe
00000170: 7ab8 463e d7cb 62be a5ea 773e c709 3f3e
00000180: 949c 3abe 11d2 47be eb87 78be 94ec 62be
00000190: ba3c 48be 026e 6e3e c5b2 703e f3e1 513e
000001a0: 293d 5f3e ce0e 6d3e 869b 613e c3f8 53be
000001b0: c4c4 51be 4413 6c3e 86c9 523e 3f12 48be
000001c0: 3374 613e e863 72be ea84 543e 02b9 553e
000001d0: 5687 713e 1024 80be bbd9 6e3e c4db 4e3e
000001e0: 0e93 433e 8370 7ebe 7be4 393e a1f5 313e
000001f0: 5339 61be bae6 723e 21d0 813e 3bdc 5abe
